PyCharmWorkshop/AI/Projects/Project3/checkpoints/LeNet5/epoch-2.pth (torch, 243143 bytes, 10 tensors)

conv1.weight f4 [6, 1, 3, 3]
000000 fa 77 c7 3e 52 c5 64 3d 29 ee 21 3e b1 4e 15 be
       0.38958722 0.05585224 0.15813507 -0.145808
000010 f5 8f 62 3e 8d 7c 57 be 52 5b 38 3e 62 d7 e2 3e
       0.22125228 -0.21043606 0.18003586 0.4430495
000020 02 1c 3d be cf 91 a1 3d 18 d5 d7 3e 49 b9 fe bd
       -0.18467715 0.07889139 0.42154765 -0.12437684
000030 ae 0e d0 3e 9f 6d db 3e 5e 68 91 bc e3 9f 52 3d
       0.406362 0.42857072 -0.017749961 0.05142201
000040 d1 b7 da 3d da 15 b4 3e 1f f4 57 be 0c 9c 2d be
       0.106795914 0.3517292 -0.21089219 -0.16954058
000050 b2 47 0f bb 16 7a 9b 3d 58 43 88 3e 2b 0b b5 3d
       -0.0021862802 0.075916454 0.2661388 0.08840021
000060 5e 0e 67 3e df 3e 4c 3d 69 bf ac 3e ce 7e 6f 3c
       0.22564074 0.049864646 0.33739784 0.014617635
000070 1e 25 02 3f e9 5f 0e 3f 78 9e 30 3f 17 93 a7 3e
       0.50837886 0.556151 0.68991804 0.32729408
000080 e4 d4 c4 3e f4 7d 11 3f 92 3f 19 3e d9 d7 7c be
       0.38443673 0.56832814 0.14965656 -0.24691714
000090 f6 8c e8 3e 10 52 66 3e fc a6 54 be 18 9a 95 3e
       0.45420045 0.22492242 -0.20766824 0.29219127
0000a0 86 b7 33 3f 17 29 07 3e c9 c8 29 3f fc 41 3d 3f
       0.7020191 0.13199268 0.66322 0.7392881
0000b0 24 2f 73 3e c2 bd 9f 3e 65 f2 f9 bd 18 36 f5 3e
       0.23748451 0.3119946 -0.12204436 0.47892833
0000c0 fc 84 ef 3e 3f 51 3f be 56 e4 ed 3e 39 7d 96 3e
       0.46781147 -0.18683337 0.4646327 0.29392412
0000d0 d3 e5 a1 be 38 4e 96 be
       -0.31620654 -0.2935655

conv1.bias f4 [6]
000000 b0 b1 76 3e 26 c3 1c be 36 89 87 be f3 ff cf 3e
       0.2409122 -0.15308818 -0.2647187 0.4062496
000010 8e 09 8d 3e f3 b9 c1 3d
       0.27546352 0.09459295

conv2.weight f4 [16, 6, 3, 3]
000000 62 29 00 3e 6d dc 43 3d 14 1f 35 3d 28 a9 89 bb
       0.12515786 0.047817636 0.04421909 -0.004201073
000010 3e cf 07 bc 58 e2 ef 3d a4 e9 61 3c c6 f7 bb 3d
       -0.0082891565 0.117130935 0.013788614 0.091781184
000020 c6 11 e1 3d 72 ad be bc 6e e0 01 be 06 b2 7a bc
       0.10989718 -0.023276065 -0.1268327 -0.015301233
000030 6b 91 9a bc b3 1f 0e be df 65 0a 3e ce a1 be bd
       -0.018868169 -0.1387928 0.13515423 -0.093082055
000040 ca 7a e3 bd 9b 36 97 bd e7 ab fd 3d 51 bb 0d be
       -0.111074045 -0.07383462 0.123863034 -0.13840987
000050 fe 59 9e bd 50 12 8f bd ff 42 b5 3d b5 89 1c 3e
       -0.077320084 -0.06985915 0.08850669 0.15286906
000060 16 9c c9 bc 28 75 cb 3c 19 c9 e5 3d 1b fb 1e 3d
       -0.02461056 0.024836138 0.11219997 0.03881369
000070 a9 6e f4 bd ce 80 1d be 74 fa c4 3d 14 82 79 bd
       -0.11935169 -0.15381166 0.09618083 -0.060915068
000080 af 86 31 3e 88 b8 fd bd b6 2e ed 3d 5f c9 d4 3d
       0.17336534 -0.12388712 0.11581175 0.10389971
000090 c3 a2 67 3d 18 e9 e6 bb 90 f2 dd bd 8d 0d c0 bd
       0.056551706 -0.00704683 -0.10837281 -0.093775846
0000a0 40 cd 12 be bb a2 4d bd 71 60 b7 3d 5f b0 47 bc
       -0.14336109 -0.05020402 0.089539416 -0.012188046
0000b0 e2 e0 df bc fa 68 c1 ba 74 bf 74 bc 70 44 9b 3c
       -0.027328912 -0.0014756017 -0.014938224 0.018953532
0000c0 e9 9f e5 3d 85 e2 81 bd df e4 df 3d ff a1 00 be
       0.11212141 -0.06342033 0.109323256 -0.12561797
0000d0 fe 6a 8b bd 4d 62 e1 3d 5c fc 54 3e fa 52 24 3e
       -0.068075165 0.110050775 0.20799392 0.16047278
0000e0 f2 f5 5a bd f2 aa d4 ba b6 f6 81 bc 8d ae db 3d
       -0.053457208 -0.0016225262 -0.015864711 0.10726652
0000f0 aa cc 07 3e b5 37 aa 3d ec 39 ec bd 3c d1 29 bd
       0.13261667 0.083114065 -0.11534485 -0.041459307
000100 de f3 4a bd 16 49 c2 bd 3e 4b 27 3e 7d 6e 86 3d
       -0.049548976 -0.09486596 0.16337296 0.06564043
000110 2c f5 03 be 67 89 01 3e 78 35 28 3c d8 36 1d 3e
       -0.12886494 0.12650071 0.010266654 0.15352952
000120 11 6d 1d bb c0 f3 ff bd 37 ae ac bd ea 44 ad bd
       -0.0024021307 -0.124976635 -0.08431666 -0.0846041
000130 fa f3 d3 bc 13 9b ad bd 79 3d 9b bd 7d 8f 35 bd
       -0.025873173 -0.08476844 -0.07580084 -0.044326294
000140 32 67 09 3e 79 3c 89 3e 68 68 53 bd 0e 8c 8f be
       0.13418272 0.2680395 -0.05161324 -0.2803654
000150 1d 7f 1f 3e 47 8a c7 3d 04 a1 1e bd bc 9b 23 bd
       0.15575834 0.09743171 -0.038727775 -0.03994344
000160 3d 36 1f 3e ff 1a 5f 3d 4d 4b a2 3e 1e 7f a3 3d
       0.15548034 0.054469105 0.31698075 0.0798323
000170 73 04 89 be f1 58 31 3e fc 6e e0 3c 33 bb 46 bd
       -0.26761207 0.17319085 0.027396671 -0.04851837
000180 c7 5a 83 3e a5 9f 92 3e b4 29 f4 3d c5 ed 8b bd
       0.25655195 0.28637424 0.11922017 -0.0683246
000190 9c 5b 1d 3d bd 54 1b bd d9 07 cc 3d 5e 66 37 3d
       0.038417444 -0.03792261 0.09962434 0.04477536
0001a0 51 81 9d bd af 40 1b 3d be 1f f7 3d 1c cd 2a 3e
       -0.07690681 0.037903484 0.12066601 0.16679806
0001b0 3e 99 e5 bd e3 70 b8 3d 5c 32 5e bc 87 04 c6 bc
       -0.11210869 0.090059064 -0.013561811 -0.02417208
0001c0 9c be a4 bd e4 6e aa ba 6d a7 d0 bc ba 63 06 3e
       -0.08044168 -0.0013003019 -0.02547046 0.1312398
0001d0 da ee 3d 3c 86 b9 f9 bd 58 63 d4 bb 01 10 37 3d
       0.011592591 -0.12193589 -0.0064815693 0.044692997
0001e0 ec a9 ae bd d1 19 eb 3d bc 70 23 bc 0a aa e6 bd
       -0.08528504 0.114795335 -0.009975608 -0.11262901
0001f0 57 a0 12 bd 2d f3 84 bd 64 b5 ff bb d8 0f 9e 3d
       -0.035797443 -0.064916946 -0.007803606 0.07717866
000200 e2 54 f6 bd e1 2f f7 3d a0 da a1 3d a2 86 b7 bd
       -0.12027909 0.12069679 0.079030275 -0.08961226
000210 18 7f 99 3d f1 06 34 bc d8 d4 95 bd 61 76 cb bd
       0.07494944 -0.010987983 -0.07315987 -0.09934688
000220 e1 71 7c 3d c0 c2 24 bd ca fa 9f ba 78 b5 06 3d
       0.06163204 -0.04022479 -0.0012205478 0.032887906
000230 67 50 39 3e ff fd c6 bd dc e5 0a 3e 74 44 6a bd
       0.18097077 -0.09716415 0.13564247 -0.05719419
000240 57 84 18 be 95 08 8d 3d 58 37 bf 3d a3 81 30 be
       -0.14894234 0.068864025 0.09336728 -0.17236952
000250 3d be 07 3e 2c 71 d6 bc e9 c4 b7 3d 09 7c 50 3e
       0.13256164 -0.026177011 0.089731045 0.20359816
000260 84 0e 17 3e 92 2c e5 bd a5 d8 e1 3d d3 7c 0b 3d
       0.14751631 -0.11190142 0.1102765 0.03405459
000270 d2 1e 45 3d 39 d9 be 3d f9 5f 81 3a d1 fa af bd
       0.048125096 0.09318776 0.0009870521 -0.08592761
000280 c7 ee 4b 3d 7a 9f 0d 3e 72 fa bf 3d d7 2a af 3d
       0.049788263 0.13830367 0.093739405 0.08553093
000290 53 50 f3 3d ae 99 ff 3d 7b b8 03 3e a8 70 d9 3b
       0.11880555 0.12480484 0.12863342 0.006635744
0002a0 18 3b f3 bd 6f 7f fb 3c 47 9f 77 bb 0a c4 a3 3d
       -0.118765056 0.030700414 -0.0037784146 0.07996376
0002b0 1a d3 75 bd a8 12 c0 3d 52 38 de bc 9a cb 01 3b
       -0.060015775 0.093785584 -0.027126465 0.0019805194
0002c0 08 13 cd 3c de 9f d2 3d 13 02 4b 3c 63 a6 e6 3d
       0.025033489 0.102843985 0.012390631 0.112622045
0002d0 dd 14 89 bd 7e 56 cc bd 92 15 e6 bd 44 bc 8c bc
       -0.066934325 -0.099774346 -0.11234583 -0.017179616
0002e0 3a 3e ae 3d 9c 56 ca 3b 76 1a db 3d 66 01 d2 3c
       0.085079625 0.0061748754 0.106984064 0.025635432
0002f0 82 a9 d1 bc 66 a7 00 3e f3 87 9e 3c e3 37 c6 3c
       -0.025593523 0.12563857 0.019351935 0.02419657
000300 f9 23 e4 bd c2 e7 a8 3c 00 e6 c6 bd 6b 2f 08 bc
       -0.11139674 0.020618323 -0.09711838 -0.008312087
000310 28 70 02 3e 0f ab c2 bd 48 ca de 3d e2 c9 6a 3c
       0.12738097 -0.09505283 0.10878426 0.014330359
000320 a8 a1 a0 3d 99 75 79 3c 99 f7 16 3e e7 3f 29 3e
       0.078433335 0.015225791 0.14742889 0.16528283
000330 54 4c be 3d 55 e2 0d bb 3a 14 84 3d e1 69 ae bd
       0.09291902 -0.0021649797 0.064491704 -0.085162885
000340 dd 8f c6 bd 39 a8 95 3d ca 5b e5 bd 26 63 bd 3d
       -0.096954085 0.073074766 -0.11199148 0.09247427
000350 ea c5 57 3d 65 c9 01 be f9 73 30 bc cf 28 b3 bd
       0.05267898 -0.12674482 -0.010769838 -0.08748018
000360 09 df 88 bb b8 17 3f 3d fe a9 ba 3c 73 fe c1 3d
       -0.0041769785 0.04665348 0.022786137 0.094723605
000370 62 39 30 3e 62 0b 79 3d 3a 09 89 bd 85 fc 16 3d
       0.1720939 0.06080187 -0.06691213 0.036861915
000380 ad 73 c8 3c 79 0a 53 bd 98 3f f2 3d 2b ff 08 3e
       0.024469221 -0.05152366 0.11828536 0.13378589
000390 23 d8 36 bd f8 36 ea bc 5f 15 fb bc 76 60 52 3e
       -0.044639718 -0.028590664 -0.030649839 0.2054461
0003a0 4b f0 45 3d e2 88 74 3d 50 4c 8d bc 7a 59 8b bd
       0.048324864 0.059700854 -0.017248303 -0.06804176
0003b0 15 f7 1d 3d a9 c0 4d 3d c8 c6 27 3d 6d 3c 0a 3d
       0.038565714 0.050232563 0.040961057 0.033749033
0003c0 8c f8 01 3e e3 c6 b8 bc 80 69 e2 3d 6e 9a 87 bc
       0.1269247 -0.022555774 0.11055279 -0.01655313
0003d0 26 4d 81 3e 00 00 b6 3d f4 fd 51 3e 6c 1d f9 bc
       0.25254172 0.08886719 0.20507032 -0.030409537
0003e0 53 e1 a3 3d 96 e0 19 3d 43 e4 7a bb a0 d8 34 bc
       0.080019616 0.037567697 -0.0038283027 -0.011037976
0003f0 40 5c be bc 19 78 1f 3e 71 79 4e 3e 16 cd 34 3e
       -0.023237348 0.15573157 0.20163514 0.17656359

conv2.bias f4 [16]
000000 ae 08 77 bd 16 0a 71 bd c6 9c e5 3b 39 32 81 bc
       -0.060311012 -0.05884751 0.0070072142 -0.015771018
000010 f3 63 01 bc 9a fa a8 3d 0f 8a d2 bd 75 a8 ed 3c
       -0.007897365 0.082509235 -0.10280239 0.02901099
000020 03 13 13 3e 35 6e 6f bc ff 71 db 3d ba 44 00 be
       0.14362721 -0.014613678 0.107151024 -0.12526217
000030 24 2b dd bd d8 5e 31 ba d0 e5 f4 3c 19 c3 8c bb
       -0.10799244 -0.0006766147 0.02989474 -0.0042957184

fc1.weight f4 [120, 400]
000000 c0 19 60 bc c0 35 f5 bc 84 9c dd bc 21 89 c8 3c
       -0.013678014 -0.029932857 -0.027052172 0.02447945
000010 d5 0d 51 3d e8 35 4a bd ce 74 3f bb 34 bd a0 3b
       0.051038582 -0.049367815 -0.0029213908 0.0049053673
000020 44 6f b4 3c a0 d3 34 ba 85 88 33 3d c0 47 26 3d
       0.022025712 -0.00068979897 0.043831367 0.04059577
000030 e4 a4 f0 3b 52 ac 3c bd a6 a8 7f 3c 2f 46 e1 3c
       0.0073438752 -0.046062775 0.015604174 0.027499286
000040 53 ee 70 bc 07 02 68 bd 34 81 94 3c 8b 85 e2 3c
       -0.014705258 -0.05664256 0.018128015 0.027651569
000050 6f b8 f1 3b b3 5e c8 3b 6b 38 1e bc 27 95 bc bb
       0.0073767225 0.0061148047 -0.009657006 -0.005755085
000060 50 11 41 bd 8e 62 30 3d 00 12 cb 3c e7 05 51 bd
       -0.04713565 0.04306274 0.024788857 -0.05103102
000070 f5 73 ee bc d8 1a 2f 3a ff 51 20 bd c2 a3 9f bc
       -0.029108027 0.000667972 -0.039140698 -0.019487265
000080 22 ac c0 3c cf 90 21 3d 1b 07 03 bd 4a 84 99 3c
       0.02351958 0.03944474 -0.0319892 0.018739838
000090 fd 16 90 3c 36 ad 6c 3d 47 13 15 3c a1 38 ce bc
       0.017589087 0.057782374 0.009098834 -0.025173487
0000a0 2c 2d cc 3b 9d f6 9f 3c 18 71 5e 3b 73 ec 7e 3d
       0.006230971 0.019526774 0.003394192 0.062237214
0000b0 65 c0 26 3d 04 1d 24 bd ac 3e df bc 5e 25 2b bd
       0.040710825 -0.040066734 -0.027251564 -0.041783683
0000c0 82 af 56 bd 0e 4a c5 bc 5b 5c 34 3d 72 91 ab 3c
       -0.05241347 -0.024083164 0.04403339 0.020943377
0000d0 05 0f 4d bc 67 bd 9c 3c ae 92 9c 3a 4a 57 11 bd
       -0.012515788 0.019133283 0.001194557 -0.035483636
0000e0 cd 8e 2e 3d 55 2d ee bc 0e 4f 4a 3d aa 29 99 b9
       0.042616654 -0.02907435 0.0493918 -0.00029213476
0000f0 93 67 e1 3c 5c 99 2f bd c4 d9 3a bd c1 0d 77 3d
       0.027515208 -0.042870864 -0.045617834 0.06031585
000100 4f f4 d6 bc 12 49 77 3c d4 f4 20 bd f2 98 e7 3b
       -0.026239542 0.015093105 -0.039295986 0.007067793
000110 a4 7b 01 bd f7 59 bf bc 8f ea cc bc 1c 9d 5f bd
       -0.031612054 -0.023358328 -0.02501419 -0.05459319
000120 08 2d 86 3c b6 22 b8 bc 70 4c 68 bc c7 f6 d5 3c
       0.016378894 -0.022477489 -0.01417838 0.02611865
000130 21 f9 03 3d ae 4e 1d bd fa 83 be 3c e5 40 ef 3c
       0.03222001 -0.038405113 0.02325629 0.029205749
000140 8b 8f 03 bd 71 b1 9a 3a 4d ca 27 3d 21 3d ab bb
       -0.032119315 0.0011802149 0.040964413 -0.005225793
000150 0d c5 90 bc d6 88 1c 3d 6e ac 2e bd 14 47 00 3d
       -0.017672086 0.038216434 -0.04264491 0.031317785
000160 51 be 90 bc 26 42 51 3c db 64 6d bc 9d 83 7b 39
       -0.017668875 0.012772119 -0.014489378 0.00023986255
000170 1d fe d0 3b 02 73 26 3d 3d 4a c9 37 7c 0f d2 bb
       0.006377949 0.040637024 2.3995637e-05 -0.0064105373
000180 b3 2d 95 bb 80 80 c2 3c 92 76 f7 bc b6 71 ee bb
       -0.004552567 0.023742914 -0.030207906 -0.007276739
000190 e2 81 c4 bc 49 01 da bc fa eb 04 3d 30 37 82 bc
       -0.023987714 -0.026611941 0.032451607 -0.015895456
0001a0 41 10 71 bd dc a4 0e bd 61 0e f5 bc 08 05 70 bc
       -0.05885339 -0.03482519 -0.029914083 -0.014649637
0001b0 5c 97 4e 3b da ad 02 3b 63 96 53 bd ef a5 16 3c
       0.0031523323 0.001994005 -0.05165709 0.009194835
0001c0 b4 3d 59 3b 65 9a 5d bb 13 f7 db 3c a5 2f fb 3c
       0.003314835 -0.003381395 0.026851213 0.030662367
0001d0 27 38 29 3d 05 25 eb bc d9 37 6f bc 77 e4 41 bd
       0.041313317 -0.028704176 -0.014600717 -0.04733702
0001e0 61 4d 27 3d c0 6a 0c 3c 06 74 a7 bc 16 08 43 bd
       0.04084528 0.008570373 -0.020441066 -0.047615133
0001f0 79 87 27 3d 3f b0 fc 3c 90 ff 9a 3c b5 00 95 bc
       0.04090068 0.03084576 0.01892069 -0.018188814
000200 ed cf 86 bb be 0b 9d 3b 08 cd ea bc 6c 53 d3 3c
       -0.004114142 0.0047926595 -0.02866222 0.025796615
000210 ad 94 ca 3c 2e b4 5e 3d 2f 4b 0a bd ba ed ca 3c
       0.024729097 0.05437105 -0.033763107 0.02477156
000220 2a e4 7a bc 54 8c 94 3c d3 55 35 3d 50 17 66 bc
       -0.015313188 0.01813332 0.0442713 -0.014043644
000230 27 af 67 3d 28 d6 0f 3d 9a 09 26 3d 3d 34 b9 3a
       0.056563523 0.035116345 0.0405365 0.0014129948
000240 41 d3 05 3b 77 13 51 3d 2f 23 2f bd 95 e9 b0 3c
       0.0020420107 0.051043954 -0.042758163 0.021595756
000250 97 5f 52 3d 75 b3 1c 3d 3e 91 2a 3d 6e 90 18 3c
       0.051360693 0.03825708 0.04164242 0.0093117785
000260 b1 70 bf bc eb a8 1c bc f1 c4 81 bc 9f 21 d3 bc
       -0.023369165 -0.009561758 -0.01584098 -0.025772868
000270 23 4f 67 3b fd 54 38 3c f5 f5 4c bc 84 95 1b 3d
       0.0035294972 0.011250732 -0.012509813 0.037984386
000280 1f cc 2c bd 4f 4b 68 bc c1 05 f5 bc 86 7a 07 bd
       -0.042186853 -0.014178111 -0.02990997 -0.03307583
000290 9c 12 16 bd 59 e5 99 3c 61 d3 8f ba ea 0a f7 bb
       -0.03663884 0.01878612 -0.001097303 -0.007539143
0002a0 5e ef 60 3d 66 e4 31 bc 35 c3 27 3c d4 b0 41 bd
       0.05491578 -0.010857677 0.010239412 -0.047287777
0002b0 79 ab 76 3c 81 b2 11 3d 2c 50 08 3d 65 1f 14 3d
       0.015055531 0.035570625 0.033279583 0.036162753
0002c0 0c 7f 19 bd cf cf 48 3d 30 ed 71 bc 43 8a 83 bb
       -0.037474677 0.049026307 -0.014766023 -0.004014285
0002d0 c1 4b e3 3c 99 33 e1 3b c3 5a 46 bd d7 16 91 ba
       0.027746083 0.006872606 -0.0484264 -0.0011069429
0002e0 31 9f 30 3d 4f d3 a0 3c b3 2c c1 3c ad 80 6b 3d
       0.043120567 0.01963201 0.023580885 0.05749576
0002f0 5e 07 2e 3d 6f da c0 3c b1 6a 2f 3d 02 70 c9 3b
       0.042487495 0.023541657 0.04282636 0.0061473856
000300 f7 ae 21 3c ae e4 1e 3c 3f ba 3e bd 80 24 2f bd
       0.009868375 0.009698076 -0.046564337 -0.04275942
000310 e2 35 f8 bc a4 b4 a3 ba e5 33 c7 3b 57 4c fa bc
       -0.03029913 -0.0012489748 0.0060791844 -0.03055398
000320 a3 5f 60 bc bd e9 34 3d 9f c5 fc ba 3e 13 1a bd
       -0.013694677 0.044168223 -0.001928497 -0.037616007
000330 a9 fd 83 bc de ec 28 bd 2b 09 31 bb 08 b8 e6 bc
       -0.016112166 -0.04124152 -0.0027013521 -0.028163925
000340 4f 94 1f 3d 1f 54 0b bd 21 37 01 bd bc 8c 0a 3d
       0.038959797 -0.03401577 -0.031546716 0.03382562
000350 cd 6c 4b 3d 1a b6 2c bc 7f 93 85 bc c9 e5 a8 3c
       0.049664307 -0.010541463 -0.016305683 0.020617383
000360 57 14 16 3d ff 3a a4 bc 3c cf 51 3d c6 06 6a 3b
       0.03664049 -0.020047663 0.051223025 0.0035709604
000370 96 f7 3e bd d9 ba ca bc 63 53 46 3d 54 72 80 bc
       -0.046622835 -0.024747299 0.048419368 -0.015679516
000380 c9 e3 39 3c 4d df 6f bc af ff 3f 3c 2e 05 16 bd
       0.011345812 -0.014640641 0.011718675 -0.036626033
000390 aa bf 56 bc 61 ee 8c 3c ef 64 b7 bc f1 1a d5 bc
       -0.01310722 0.017203512 -0.022386996 -0.026013823
0003a0 f5 3d be 3b c1 b6 e7 3c 6a 54 d3 3c 4d 03 44 bb
       0.0058057257 0.028285386 0.025797088 -0.0029909194
0003b0 d9 23 a9 bc 33 58 32 bd 5f 05 1f bd 6d 74 6f bd
       -0.020646976 -0.043541145 -0.03882348 -0.05846064
0003c0 71 ae 4c 3c 24 fe 37 3d 56 38 96 bc 35 4f 45 3d
       0.012492762 0.0449201 -0.01833741 0.04817124
0003d0 cb 8b 0c bd b2 54 ed bc f1 77 1f 3d a8 ba f5 bc
       -0.034313004 -0.02897105 0.038932744 -0.029996231
0003e0 d8 c6 34 3c 38 df 6e bc 2c ae 56 bd db 8d 36 3c
       0.011033736 -0.014579587 -0.052412197 0.011142219
0003f0 62 ad 3c 3c 23 30 00 bd bb d4 39 3d a6 34 f2 3c
       0.011515947 -0.031295907 0.04536889 0.02956612

fc1.bias f4 [120]
000000 4d 19 18 bd b2 17 03 3d b7 84 51 3b ab 71 09 bd
       -0.037133504 0.03200502 0.0031969973 -0.033555668
000010 1a 03 08 3d 85 03 19 3c 12 59 50 bc 82 cb f7 bb
       0.033206083 0.009339218 -0.0127165485 -0.007562102
000020 04 c0 ef 3c 71 ac d8 3c 86 96 02 bd 41 53 56 bc
       0.029266365 0.026449414 -0.03188183 -0.013081373
000030 e7 c1 01 3d d9 43 b6 3c 20 1a b7 bc 3f 97 37 3b
       0.03167906 0.02224915 -0.022351325 0.0028013734
000040 d4 c1 40 bc e3 5a e7 3c 82 74 e9 3b 18 ab 15 bd
       -0.011764962 0.02824158 0.0071244845 -0.03654012
000050 1a b9 f8 bb ea d1 0d bd f0 3b 35 bd 6d a9 be bc
       -0.007590425 -0.034624018 -0.044246614 -0.023274148
000060 fc 75 8e 3b c6 6e 43 bd 15 81 1f bd 87 63 00 3d
       0.004347561 -0.047713064 -0.03894146 0.031344917
000070 67 74 11 3d 1d 21 4c 3c 30 f0 15 bc 53 23 1b 3d
       0.0355114 0.012459067 -0.009151503 0.037875485
000080 0c 40 1b bc 5f 1d 47 3d a4 ef 0a bd 51 79 af ba
       -0.009475719 0.048611995 -0.033919945 -0.0013387596
000090 7c 73 92 3b 3d 4b 24 3d af 2f 7b bc 3d bd 68 3c
       0.004469333 0.040110815 -0.015331193 0.014205274
0000a0 be e0 2e bd 95 75 29 3d cd 54 a9 bc 08 4d f2 3b
       -0.0426948 0.0413719 -0.020670319 0.0073944367
0000b0 b7 28 12 3d c6 1f 48 3d d3 de 02 bd a2 4c 4d 3d
       0.03568336 0.048858427 -0.031950783 0.05012191
0000c0 ec 48 20 bd 12 c1 02 3d 12 12 d4 3c 38 0e 8a bb
       -0.039132044 0.031922407 0.025887523 -0.004213121
0000d0 d6 22 14 3d 02 9e 0a bd 51 85 05 bd 37 f2 12 bd
       0.036166035 -0.033842094 -0.032597844 -0.035875525
0000e0 cc 43 5a bc f1 fd 52 bc cd 6d 60 3b 65 b0 07 bd
       -0.013321828 -0.012877927 0.0034245134 -0.033127207
0000f0 dc 54 26 bd 34 93 cc ba 52 73 e3 3b 52 78 92 3c
       -0.040608272 -0.0015607835 0.0069412375 0.017879639
000100 2b 8b 3e 3d 1d 6c ed bc 00 88 a7 3b 83 e2 23 bd
       0.04651944 -0.028982216 0.005112648 -0.04001094
000110 5c 5e 9d bc 25 44 13 bd e1 37 02 bd fc 8e 09 bd
       -0.019210033 -0.03595366 -0.03179157 -0.033583626
000120 1e 04 4a 3d 76 e2 3b 3c f3 95 d0 bc 50 d2 b5 bc
       0.049320333 0.011467567 -0.025462126 -0.022195011
000130 2d 6b 37 bd bc b3 ed bb c4 db 6b 3b 09 02 af 3b
       -0.044779945 -0.007254092 0.0035989145 0.005340819
000140 74 c2 f4 bb da 8d 94 bc 59 9b 1a 3d 19 13 d6 bc
       -0.0074694697 -0.018134046 0.037745807 -0.026132153
000150 ba 9c 1f bd 1c e2 45 bd 16 44 9d bc 59 f4 d8 3c
       -0.038967825 -0.048311338 -0.019197505 0.026483702
000160 46 0d 98 bc ee 3c ce 3c dd 26 f3 3b 20 34 3c bd
       -0.018561017 0.025175538 0.0074204043 -0.045948148
000170 1c 67 b0 3c 12 7a 99 3c d6 6d d3 3b 7a e4 a5 3b
       0.021533541 0.018734965 0.0064523024 0.005062637
000180 33 39 4c bd 70 93 3d bd ad 31 35 bd 8e 99 40 3d
       -0.049859237 -0.046283185 -0.044236828 0.04702144
000190 14 cb 01 bc 10 8d 62 3c 3c e6 dc bc 7e 05 99 3b
       -0.007921953 0.013827577 -0.026965253 0.004669844
0001a0 87 9c b5 3b 0e d4 35 bd 23 3c a7 bc 9a b0 c7 bb
       0.005542341 -0.044391684 -0.020414418 -0.0060940506
0001b0 7b ff 23 3d ef b5 24 bb 59 b5 40 3c df ac 2d bd
       0.040038567 -0.0025132855 0.011761987 -0.04240119
0001c0 57 04 e0 bc fe dd a3 3c a9 19 ac bc 25 4f e8 3c
       -0.02734582 0.020003315 -0.02100833 0.028358052
0001d0 9f 3d a0 3b 4d 30 26 bc 67 ac d7 3c 77 6a 30 3d
       0.0048901583 -0.010143352 0.026327325 0.043070283

fc2.weight f4 [84, 120]
000000 ba 0a 91 3d 3e 4e 09 3d 4b 7e 90 bc 3a ea 6d bd
       0.07082124 0.033521883 -0.017638346 -0.058084704
000010 00 07 84 3c 0a eb 83 bc 41 1d 44 3d ac 67 8b 3d
       0.01611662 -0.016103286 0.04787946 0.06806883
000020 27 86 06 3d ab 9e 86 bd ae 36 09 bd 87 07 1a bc
       0.03284278 -0.06573232 -0.033499412 -0.009401209
000030 37 f8 1c bd 66 41 8d 3d 63 1f 31 bd 17 a6 8e bd
       -0.038322654 0.068972394 -0.043242823 -0.06965273
000040 c7 6a 8a 3d 30 97 1e bd 07 3a 92 bd cc 2e 23 3d
       0.067586474 -0.038718402 -0.07139974 0.03983955
000050 64 b1 47 3d 8c 50 84 bd 70 97 fd bc 72 00 a4 bd
       0.048753157 -0.064606756 -0.030956 -0.080078974
000060 ed 2c 60 bc f6 6e 4c 3d 44 b0 7f bd 6c 10 9e 3d
       -0.013682586 0.049910508 -0.06242396 0.07717976
000070 f8 61 a2 bd 91 6b b6 3d 01 09 0c 3d 1b 37 af bd
       -0.07928842 0.089072354 0.034188274 -0.085554324
000080 45 05 08 3d 74 be 95 bd ab 60 c9 3d 31 53 59 bd
       0.03320815 -0.07311717 0.09832891 -0.053057853
000090 24 85 6f bc c5 60 ae 3d 20 a2 a3 3d 49 fc a3 3d
       -0.014619146 0.08514551 0.07989907 0.08007104
0000a0 c0 b0 3e bd 43 20 bd bd 44 9f 8a bd 00 22 72 bc
       -0.04655528 -0.09234669 -0.06768659 -0.014778614
0000b0 dc 48 a9 bc 52 09 96 bd 52 cf b8 3d ca 8a a6 bd
       -0.020664625 -0.073259965 0.09023918 -0.08131941
0000c0 4c 08 7b bc 4c 82 6e 3d 8c 63 9c bd 11 74 9f 3d
       -0.015321802 0.05822973 -0.076361746 0.0778581
0000d0 fe b4 72 bc 22 56 a1 bd 83 35 98 bd 73 84 67 bc
       -0.01481366 -0.07877757 -0.074320816 -0.014130699
0000e0 53 bd f2 bb 9b 1a 39 bc 4a c1 22 3d 63 51 60 bd
       -0.007407823 -0.011297847 0.039735116 -0.054765116
0000f0 fb ae 8f 3c 3e 8f c0 3d ad ca a6 3d 4b 74 9b 3c
       0.017539492 0.09402321 0.08144126 0.018976351
000100 81 43 8a bd 78 3d 9e bc fa 64 22 3d 10 17 18 3c
       -0.067511566 -0.01931642 0.03964708 0.009282842
000110 b4 b3 ac bc 23 3a ce 3c 67 2c 9d bd e7 72 8c bd
       -0.021081783 0.025174206 -0.07674485 -0.068578534
000120 8e 1c b5 bb 09 cd 0d bd 87 8e c9 3c 3c 34 45 3d
       -0.0055270856 -0.034619365 0.024604095 0.048145518
000130 0c 06 45 3c b7 f1 8b 3d 68 b5 08 3d 8b f3 87 ba
       0.0120253675 0.06833213 0.033376127 -0.0010372264
000140 01 e0 cd bc a9 85 97 bd cd a2 00 3c 3b 18 4c bd
       -0.025131227 -0.073985405 0.007851315 -0.049827795
000150 34 16 ba bd 9a 46 43 bd 64 ab bd bb 2f b0 54 3d
       -0.09086266 -0.047674753 -0.0057882536 0.051925834
000160 da f4 0b bd d6 c5 13 3d 6f 25 37 3d d9 e2 0f bd
       -0.034169056 0.036077343 0.044713434 -0.03512845
000170 fb bf b0 3b c5 a9 4c 3d cc b5 9a 3d 01 7b 9a 3d
       0.0053939796 0.049966592 0.07554206 0.075429924
000180 6a b9 f8 3c 70 fe 05 3d 22 fe ae 3c f6 8b 09 3b
       0.03036185 0.032713354 0.021361414 0.0020987964
000190 6a ed 6d 3c 93 1f 0d 3b c9 ae 6f 3d 38 5d 17 3b
       0.014521936 0.0021533712 0.058516297 0.0023096334
0001a0 46 8b 82 bd 9d 10 9e 3c 50 41 be 3c c2 32 cf 3c
       -0.063742206 0.019295031 0.023224503 0.025292758
0001b0 dc e9 00 3d 12 a0 a5 bd 30 db 1d 3d b1 44 38 3d
       0.031473026 -0.080871716 0.03853911 0.044987384
0001c0 20 5a 90 bd d1 b1 32 3c e0 6e 4a bd ca fb 98 bc
       -0.0704844 0.010906653 -0.049422145 -0.01867475
0001d0 31 3d 44 bd ae 3f 84 bd f5 8a b7 3d 9a d9 6c 3d
       -0.04790992 -0.064574584 0.08962051 0.05782471
0001e0 bd 32 88 3d d3 c6 e5 3b 23 df 72 bc 46 97 59 bc
       0.066503026 0.007012227 -0.014823708 -0.013280695
0001f0 d3 a2 54 bd 0e c0 2b bd 47 24 5b bc c7 58 5a bc
       -0.051913094 -0.041931204 -0.013375348 -0.01332683
000200 66 6b 9b 3d 4d ec cd 3d 61 d7 5c bc 0d 27 9b 3d
       0.07588844 0.100548364 -0.013479085 0.07575808
000210 e4 f5 78 3d 1f 26 ae 3d 04 e1 72 bd a7 dc a8 3d
       0.060781375 0.08503365 -0.059296623 0.08245211
000220 d1 e7 23 bd 26 99 b3 3d 15 2b 99 3d 5f 85 a1 3d
       -0.040016 0.08769445 0.0747892 0.07886767
000230 6c 95 b6 bb f0 6d b3 bc c1 63 d8 3c cc b9 7c 3d
       -0.0055720117 -0.021903008 0.026414754 0.061700627
000240 20 ec 80 bd fe 76 9a 3d b7 88 5e bd 96 28 d2 bc
       -0.06295037 0.07542227 -0.0543296 -0.025654119
000250 aa 85 a3 3d f7 b7 a4 3d e0 43 22 bc 43 3a d2 3d
       0.07984479 0.08042901 -0.009903878 0.10265019
000260 df c6 91 3d 4f 99 26 3d 25 bb 5b 3c 7f 04 9a 3d
       0.0711801 0.04067355 0.013411318 0.07520389
000270 f5 df 99 3d 86 dd b3 3d 02 1f bc 3a 3f 1b 01 bd
       0.075134195 0.087824866 0.0014352503 -0.031520125
000280 8f 8c cd 3b 19 67 48 bd 81 81 c1 bd 51 84 ea bb
       0.0062728594 -0.048926447 -0.09448529 -0.0071568866
000290 6d 69 fd 3c 38 86 0b bd 05 d5 8c bd 5b 58 26 bd
       0.03093406 -0.034063548 -0.06876568 -0.040611606
0002a0 bc 55 a8 bd 1d d2 ce 3d f5 0c 37 bd d7 6a 85 3d
       -0.082194775 0.1009867 -0.04469009 0.06514519
0002b0 b3 c4 8c ba c0 42 9b bc d2 1b 21 bd 3d 02 ec ba
       -0.0010739773 -0.018952727 -0.039333172 -0.0018006038
0002c0 7b 4e 5b 3d b4 53 88 3d 4d 56 9c 3d 44 24 0c ba
       0.05354164 0.0665659 0.07633648 -0.000534598
0002d0 e4 22 2a bd c6 64 80 3c 8b 64 bf 3d e6 92 26 bd
       -0.04153718 0.015673053 0.09345349 -0.040667437
0002e0 31 30 55 bd a8 fa 9c 3d bd 94 6a 3d 57 7a 6c bd
       -0.052047912 0.076649964 0.057270754 -0.05773386
0002f0 7d 68 30 3c 6b c2 a5 3d ad 11 7c 3d 06 ae c8 bd
       0.010767099 0.08093723 0.061540294 -0.09798817
000300 51 96 12 bd 72 ed ea 3c 31 77 a8 bd b5 71 4e 3d
       -0.035787884 0.028677676 -0.08225859 0.05040141
000310 a3 75 09 3d 7a b1 fe 3c 9f 98 b9 bd 40 1b 37 3d
       0.033559453 0.031090487 -0.09062313 0.044703722
000320 d2 a8 7b 3d 58 a6 11 3d 32 8c 11 bc 18 65 95 3d
       0.061440296 0.03555903 -0.008883523 0.07294673
000330 ec 68 65 3d 8e 3c 73 3d 63 b0 db 3d f0 b9 4c bd
       0.056008264 0.05938392 0.107270025 -0.04998201
000340 74 e8 3b bd fc 50 3f bd 2d f1 9a bc fa db 4e bd
       -0.04587598 -0.046708092 -0.01891383 -0.050502755
000350 f1 e6 01 3d f7 fa a4 3c d9 ae 9f 3d 4e 4a fc bd
       0.031714384 0.0201392 0.077970214 -0.1231886
000360 e1 ca 99 bd b0 8c db 3c 04 34 ff bc 81 86 bb bb
       -0.07509399 0.026800483 -0.031152733 -0.005722821
000370 7f 3b a1 bd 93 e6 d5 bd 71 db c6 3d 24 c2 32 bd
       -0.07872676 -0.10444369 0.09709824 -0.04364218
000380 c5 f5 b8 3d dd 47 44 3d b6 05 b3 3d 9f f6 cc 3d
       0.09031252 0.047920097 0.08741324 0.10007977
000390 59 20 5e 3d 80 7a 84 3b 4d 38 63 bd 5a 8f 9a bd
       0.054230068 0.0040429235 -0.055473614 -0.075468734
0003a0 29 50 79 3d 66 8c 35 bb b7 b2 b9 3d b1 0b 2b bd
       0.060867462 -0.0027702092 0.0906729 -0.041759197
0003b0 ed 16 67 bb 57 ae 31 bd 2d a3 10 3d 64 b1 a0 3d
       -0.0035261468 -0.043379154 0.035311867 0.078463346
0003c0 a4 6b d9 3d 99 2a 3c bd 69 98 27 bc 5a 19 b5 bd
       0.10616234 -0.04593906 -0.0102292085 -0.08842726
0003d0 b8 8c 30 3d 17 6e 9f 3d 59 65 95 3d 45 27 b2 3d
       0.04310295 0.0778467 0.07294721 0.08698896
0003e0 cd bf 92 3d 33 e3 1d bb 0c f7 4c 3d 31 b4 22 bc
       0.07165489 -0.002409172 0.05004029 -0.009930656
0003f0 38 6a 97 3d 8d ea 38 3b 7f 15 cb bd ce 1d cc bc
       0.073933065 0.0028215975 -0.099162094 -0.024916556

fc2.bias f4 [84]
000000 1b a3 d5 3b fa 83 cd bc 69 dc f9 ba dc b2 83 bd
       0.006519688 -0.025087345 -0.001906288 -0.06430599
000010 02 f6 7c 3c 0f 39 08 3c 6f 4a 74 bd 83 34 b9 3c
       0.015439512 0.008314385 -0.059641298 0.022608047
000020 5c 8a b7 3d 2c 6a 66 3d 3c f2 44 3c 2b 9f 6f bd
       0.08961937 0.056253597 0.012020644 -0.058501404
000030 6e c1 82 bd bf f2 ef 3c f5 61 9f 3c 96 62 bf bd
       -0.0638455 0.029290555 0.01945589 -0.09344976
000040 4b e0 90 3d 38 76 8e 3c 37 ff c7 3d ff 36 d5 bc
       0.070740305 0.017390355 0.09765475 -0.0260272
000050 7d b7 9f bb 61 a1 cb bc 3d ad 88 bd 41 30 a9 3d
       -0.0048741684 -0.024857225 -0.066736676 0.08261157
000060 68 31 9d bd 6d 95 fe 3c ef bd 6b 3d 10 c1 83 3d
       -0.07675439 0.031077111 0.05755418 0.06433308
000070 3c 47 a2 3d eb 4b 04 bb 43 ca 7d bd 7f 14 83 3d
       0.07923743 -0.0020186852 -0.06196047 0.06400394
000080 25 af 95 bd f9 3c 4a bd f4 ad 01 bd 7f a6 68 3d
       -0.07308797 -0.049374554 -0.031660035 0.056799408
000090 2f 4e 2f bd 84 00 69 bd 54 b9 31 3d d9 5e 91 bd
       -0.04279917 -0.056885257 0.043389633 -0.07098169
0000a0 2a dc 13 3d 9f 3b 10 3d 2d 8e 99 3b ab cf 90 bd
       0.036098637 0.03521311 0.004686138 -0.070708595
0000b0 43 74 86 3d 28 ed 97 bd ac a2 94 3d b1 72 0e bd
       0.06565144 -0.07418281 0.0725759 -0.034777347
0000c0 84 d6 a6 bd a1 e5 41 3d 06 d5 38 bc 8e 1f 82 3c
       -0.08146384 0.04733813 -0.0112812575 0.015884187
0000d0 5f 31 f9 bc 6e 98 6b bd 48 c9 77 bc 80 cc 7c bd
       -0.03041905 -0.057518415 -0.015123673 -0.061718464
0000e0 1c b9 7c bd e9 f8 18 bd 8b 08 5d 3d 4f b3 0a 3a
       -0.06169997 -0.037346754 0.053963225 0.0005291001
0000f0 80 50 19 3d 96 a9 46 3d e9 3b b1 3d 9d b6 cf bb
       0.037430286 0.048501574 0.08654005 -0.006338908
000100 70 b1 f8 3c 76 ce 34 bd fb a4 ad 3d c7 4e a4 3d
       0.030358046 -0.04414221 0.08478733 0.08022838
000110 3d 7f b2 3d 2f 0c 74 bb 1f ed 8a bd 8c 93 a9 3c
       0.08715675 -0.0037238707 -0.067835085 0.020700239
000120 b8 33 8a 3d 74 09 d3 3c 2a 3b 0d 3d f5 68 c8 3b
       0.06748146 0.025761344 0.03448025 0.0061160275
000130 66 88 2e 3c 02 c6 62 3d 4c 8d b6 3d 45 bd aa 3d
       0.010652637 0.055364616 0.08913669 0.083368815
000140 98 68 ba 3c d5 4b 64 bd 6e ec 19 bd ad 39 b4 bb
       0.022754952 -0.05573638 -0.037578993 -0.0055000396

fc3.weight f4 [10, 84]
000000 13 e2 ca bd 85 8c d6 3d ef a2 59 bd 88 7a 88 bd
       -0.099064015 0.10476021 -0.0531339 -0.06663996
000010 d7 ce 13 3d d3 53 c1 bd 0f 22 86 3d 36 1b 27 bd
       0.03608593 -0.09439816 0.06549465 -0.040797435
000020 1f a1 1e bd bb 12 8d 3d 82 30 04 3e 3a 86 b9 3c
       -0.038727876 0.06888338 0.1290913 0.022647012
000030 ed a2 21 3e 0c a6 1f be 53 e7 9d 3c 8f bb 43 3d
       0.15784808 -0.15590686 0.019275343 0.04778629
000040 d3 b7 9e bd 0f 43 6d be a1 19 0d be 9d a9 ef bb
       -0.077499054 -0.23170112 -0.13779308 -0.0073139207
000050 2d 55 6c 3d 9b af f2 3d 72 d6 7c 3c 1b cb a6 bc
       0.057698417 0.118499 0.015431987 -0.02036052
000060 40 42 3c 3d c3 5e 27 3e cc 87 eb 3b 56 43 79 be
       0.04596162 0.16344742 0.007187819 -0.24342093
000070 9d 95 47 3e be e3 16 bd aa 4f c0 3c 0b 33 06 3d
       0.19490667 -0.036838286 0.023475487 0.032763522
000080 c0 a9 ab 3d f4 dd 20 3d b9 59 6f 3d 6e 17 d2 bd
       0.083819866 0.03927417 0.058435176 -0.10258375
000090 45 9a 92 bd 6a b6 bb bd 2a a0 3b bd b7 89 01 be
       -0.07158331 -0.09165652 -0.04580704 -0.1265019
0000a0 ce d8 e7 bc 1f 44 a6 bd d9 5d 30 3e 8a 7b bd bd
       -0.028301623 -0.08118462 0.172233 -0.09252079
0000b0 55 c4 9c 3d 74 f9 fb bc 53 0e 3a 3e 00 07 ab 3d
       0.07654635 -0.030758597 0.18169527 0.083509445
0000c0 b2 1e 22 3e c5 62 2c 3d c5 2e a2 bd 39 24 7d 3d
       0.15832022 0.04208638 -0.07919077 0.061802123
0000d0 d1 db 75 bc 3e 00 df bd ce 14 44 bd 23 30 f9 bd
       -0.015006022 -0.10888718 -0.047871403 -0.121673845
0000e0 5a 9d 8f 3d 82 f9 d7 3d ee ae 7e 3d fb 5a 72 bd
       0.07012434 0.10545637 0.062178545 -0.059168797
0000f0 70 9d ce bb 97 b7 bd bd f7 76 0a 3d f7 0b 74 bd
       -0.006305389 -0.092635326 0.03380486 -0.059581723
000100 96 3c c4 3d 77 50 87 bd 97 54 de bd 68 d7 87 3d
       0.09581868 -0.06607144 -0.10855978 0.06632882
000110 7b 7c 76 3d 70 cc 1b bd 23 71 8e 3d c4 c8 11 be
       0.060177308 -0.038036764 0.06955173 -0.14236742
000120 46 9a 5e 3e a7 da dd bd 00 da a0 3d 61 ba 81 3d
       0.21738538 -0.1083272 0.0785408 0.06334377
000130 0a 6e 97 bd 4f d2 ed bd 3f 45 11 be ac 6c 18 3d
       -0.07394035 -0.11612379 -0.14186572 0.037213013
000140 bc 63 17 bd 73 ab 87 bd dd 1c de 3d 78 8b c4 3d
       -0.03696035 -0.06624498 0.10845349 0.09596914
000150 3c 15 29 bd d0 43 c5 3d dd 05 85 bd 62 45 cb bd
       -0.041280016 0.09632075 -0.06495259 -0.09925343
000160 25 b1 15 3d a4 16 80 bd 1b bf 51 3d d9 f1 d4 3d
       0.03654589 -0.06254318 0.051207643 0.10397691
000170 53 fa 05 3e 29 1c bf 3d ee 88 72 3c 84 1a 95 3d
       0.13083772 0.09331543 0.014803154 0.07280448
000180 b6 af 63 bd 22 01 28 3d 01 ab b1 bd af 56 93 3d
       -0.055587493 0.041016705 -0.086751945 0.07194268
000190 36 74 84 bd 68 9b 27 3e 9a 62 53 3e 10 fa 9f 3d
       -0.06467478 0.16367877 0.20643082 0.078113675
0001a0 32 3d 3a bc d4 08 ed 3d db 47 0c bd f3 a1 97 bd
       -0.011367129 0.115739495 -0.034248214 -0.07403936
0001b0 a5 01 a7 3c f5 f8 c1 bd 1e a2 91 bc 72 f0 10 3e
       0.020386526 -0.09471313 -0.017777499 0.14154223
0001c0 7f f7 f5 3c 53 60 6b bd 91 f0 c7 bd 66 64 e7 3d
       0.030025242 -0.05746491 -0.09762681 0.11298446
0001d0 7b 50 56 bd 96 82 22 3b 8f 0e de 3d df 93 14 be
       -0.052322846 0.0024797074 0.108426206 -0.14509533
0001e0 d1 db 09 3d f1 a1 ce 3d 7a 56 45 3d bc 0e 9c bd
       0.0336569 0.100894816 0.048178174 -0.07619998
0001f0 00 dc 1a 3e e6 4b 4a bd 4e 60 86 be 4f 4f 92 3d
       0.15122986 -0.04938879 -0.2624535 0.07144033
000200 77 f1 ee bd 18 42 cc bd ec c9 0e 3c 84 de 3b bd
       -0.116671495 -0.09973544 0.008715134 -0.045866504
000210 93 4b c0 bd 22 f9 26 3d 53 50 50 bb d4 7a 67 bd
       -0.09389415 0.040764935 -0.0031786158 -0.056513622
000220 dc 6a ae 3d fb cc 83 bd c8 3b 94 bd bd d1 17 3d
       0.085164756 -0.06435581 -0.07237965 0.037065256
000230 84 9a d4 3c df 30 d1 bd 0f ea 9b bd 68 2e 0b be
       0.025952585 -0.102143995 -0.076130025 -0.13591921
000240 ce d6 15 3e 39 65 dc bc 19 b5 8c bd 2d 47 5c be
       0.14632723 -0.026903735 -0.06870479 -0.21511526
000250 92 c8 15 be 5b 48 ed bd 87 4f 8a 3d d6 43 46 3d
       -0.14627293 -0.11586066 0.0675345 0.048404537
000260 3a 83 49 3d d3 f0 f1 bc e4 13 c7 bc ed 9d ed 3d
       0.049197413 -0.02953378 -0.024301477 0.116023876
000270 16 10 aa 3d 69 99 c5 3d 05 20 e7 bd fb 0a 99 3d
       0.083038494 0.09648401 -0.11285404 0.074727975
000280 9b e6 7f bd e7 53 5c 3e 90 2d ca 3b 2a 77 cb bd
       -0.062475782 0.21516381 0.0061699823 -0.09934838
000290 22 3e 5e 3d 68 55 01 3c 36 56 94 3d ad 9b fe bd
       0.054258473 0.007893898 0.07243006 -0.124320365
0002a0 20 ec e0 3d 0d 99 0c 3e 7d 26 3f 3c 99 ac 07 bd
       0.10982537 0.13730259 0.011666891 -0.033123586
0002b0 cc 17 2f 3e d5 89 11 3c a7 41 8d 3d 8e ec 81 3c
       0.17098922 0.008882959 0.06897288 0.015859868
0002c0 16 7e 2b be 90 f4 3e 3d 32 de 57 bd 1d ae b0 3d
       -0.16747317 0.04661995 -0.052702136 0.086269595
0002d0 1a a8 00 bd 8f b8 6a 3e 36 84 4d 3d 43 b0 ca bd
       -0.031410314 0.22921966 0.050174914 -0.098969005
0002e0 be d9 fe bd bc 3e 70 3d 6c f5 15 bd 34 b5 db bd
       -0.12443875 0.05865358 -0.036611006 -0.10727921
0002f0 6f a3 e2 3d 44 35 01 be 25 44 f3 bd b3 3c 28 3e
       0.11066329 -0.12617975 -0.11878232 0.16429405
000300 d4 f2 05 bc 18 11 38 3e d3 32 d2 3c fa 5a 58 3c
       -0.0081755705 0.17975271 0.025659 0.013205284
000310 81 b9 11 be 2c b9 12 bc c9 73 e0 bd c1 9c e6 bd
       -0.1423092 -0.008955281 -0.10959584 -0.11260367
000320 71 5c 8b 3d 73 02 d7 3d 34 18 a9 bd f3 95 5d bd
       0.06804741 0.10498514 -0.082565695 -0.05409808
000330 96 b9 06 3e 5e 0e 11 bd f0 9b 09 bc b5 28 ce bd
       0.13156733 -0.035414092 -0.008398995 -0.10066358
000340 20 62 f3 bd 50 f0 bf 3d d1 86 9a 3d 84 18 25 be
       -0.1188395 0.09372008 0.075452454 -0.16122633
000350 d3 49 59 3c eb 12 a6 3d 7f 31 06 3e 22 77 7f 3d
       0.01326223 0.08109077 0.13104819 0.062369473
000360 26 21 63 3d 64 53 2e bb 5e a0 e1 3d 35 6c 09 3e
       0.055451535 -0.0026599998 0.11016916 0.13420184
000370 63 ae 70 3d be 94 46 bd c1 71 4a bc a5 d3 19 be
       0.058760058 -0.048481695 -0.012356223 -0.15022142
000380 8e 4d fb 3d 3e 76 75 3d ab db 13 3d 7f fd b6 bd
       0.12270652 0.059927218 0.036098164 -0.08935069
000390 c9 7f 13 3e 8c fd 97 bd c3 d5 80 bb e1 1d 0c be
       0.14404215 -0.07421407 -0.0039317324 -0.13683273
0003a0 50 45 25 3d 33 55 33 3e 32 bf 94 3d 49 43 97 bd
       0.040349305 0.1751297 0.0726303 -0.073858805
0003b0 f8 f9 d8 3d 33 ee 77 3c a6 f4 f3 3c 70 fc 9c 3d
       0.10594553 0.015132475 0.029779743 0.07665336
0003c0 51 b1 84 bd 8a 47 36 be b0 61 87 bd bd 64 d9 bd
       -0.06479133 -0.17800727 -0.06610429 -0.106149174
0003d0 a4 39 1c 3d bd 67 f5 bd b0 8e 4f 3e 8b 76 80 3d
       0.038140908 -0.11982677 0.20269275 0.0627261
0003e0 f6 ec 81 3d 7c 53 b2 bb 26 ec e4 3d 43 df 80 bd
       0.06344025 -0.005442081 0.11177854 -0.06292584
0003f0 81 da bf bd 02 8c cc bd f9 d3 b6 bc 03 92 80 bc
       -0.09367848 -0.09987642 -0.022317873 -0.015694624

fc3.bias f4 [10]
000000 ca 8b f1 bd f4 49 9f bc 35 66 b5 bc 4c b8 43 3d
       -0.11794241 -0.019444443 -0.022143463 0.04778318
000010 87 2c bd 3d 67 4f 61 3d e1 40 5f bd 5a 61 b7 bc
       0.092370085 0.055007365 -0.054505233 -0.022385288
000020 bc 5d 8e bc 71 fb b4 3b
       -0.01737868 0.005523138
