PyCharmWorkshop/AI/Projects/Project3/checkpoints/LeNet5/epoch-0.pth (torch, 243143 bytes, 10 tensors)

conv1.weight f4 [6, 1, 3, 3]
000000 bf 2a bc 3e e3 c7 83 3c be e6 0d 3e 53 8f 27 be
       0.36751363 0.016086524 0.13857552 -0.16363268
000010 5a 93 3d 3e f5 95 45 be 48 23 39 3e 88 ce df 3e
       0.18513241 -0.19295485 0.18079865 0.43712258
000020 17 5e 19 be 2e 0a 53 3d 9a 8c c5 3e e7 7c f7 bd
       -0.14977299 0.05152338 0.38583833 -0.1208437
000030 df 1d af 3e 99 f4 b4 3e 5d df 63 bd 62 21 03 3d
       0.34202477 0.35342863 -0.055632938 0.03201426
000040 e0 69 88 3d 38 54 97 3e 65 55 32 be 42 25 05 be
       0.06660819 0.2955644 -0.17415388 -0.13002494
000050 39 a0 6a 3c 58 27 52 3d fc 8d 78 3e 63 fd 6b 3d
       0.014320427 0.051307052 0.24272913 0.057614695
000060 d6 b2 24 3e 07 3d 52 3a f3 68 9b 3e 00 5f 33 bc
       0.16083845 0.0008019958 0.30353507 -0.010947943
000070 9e 22 df 3e 76 a4 f2 3e 82 38 18 3f df f6 61 3e
       0.43581098 0.473911 0.59461224 0.2206683
000080 7a b2 a3 3e df d2 01 3f a1 fa 01 3e 4f 4d 69 be
       0.31972104 0.5071239 0.12693264 -0.22783397
000090 59 a4 df 3e 4e 81 78 3e db 3c 13 be c3 87 61 3e
       0.43680075 0.24268076 -0.14378683 0.22024445
0000a0 9d 40 1a 3f fd 4c c0 3d 43 67 17 3f e7 6c 21 3f
       0.6025484 0.09389684 0.5914194 0.63056797
0000b0 53 9a 0b 3e 77 25 8e 3e 13 be 2c be 19 45 d1 3e
       0.13633089 0.27762958 -0.16869383 0.4087303
0000c0 c4 52 de 3e 97 16 59 be 67 c0 d3 3e 8d a7 a5 3e
       0.4342252 -0.21200024 0.4135773 0.32354394
0000d0 90 15 8a be b3 42 83 be
       -0.26969576 -0.25636825

conv1.bias f4 [6]
000000 bc ad 76 3e 9b 79 36 be 2a a3 91 be ce d6 b6 3e
       0.24089712 -0.17819826 -0.28444797 0.35710758
000010 e5 69 6d 3e 6a db 82 3d
       0.23184927 0.06389506

conv2.weight f4 [16, 6, 3, 3]
000000 c2 62 f2 3d 77 59 53 3d 57 ec 52 3d d8 18 cc bb
       0.11835243 0.051598992 0.051494922 -0.0062285475
000010 e7 78 92 bb 70 9b e6 3d 2e 28 66 3c 4a 5a b8 3d
       -0.004469979 0.11260116 0.0140476655 0.09001596
000020 bf 01 ca 3d ca 3c e3 bc cd df f1 bd e4 b3 97 bb
       0.09863614 -0.027738947 -0.11810265 -0.004629599
000030 1a e5 96 bc ef 17 06 be 92 85 01 3e 3d 20 b9 bd
       -0.018419791 -0.13095067 0.1264861 -0.09039352
000040 49 36 e9 bd 67 1f b2 bd 45 52 02 3e 32 6c 08 be
       -0.11387307 -0.08697396 0.12726696 -0.13322523
000050 9d 10 a5 bd e9 c9 8a bd 95 92 b0 3d df 99 0f 3e
       -0.08059809 -0.067767926 0.08621708 0.14023541
000060 5d 4f b7 bc 66 45 ae 3c 00 32 da 3d 8a 3b c1 3c
       -0.02237671 0.021273326 0.10654068 0.02358796
000070 19 8f dc bd 23 9b 0b be bd 58 c3 3d 2f 88 4c bd
       -0.10769481 -0.13633399 0.0953841 -0.049934562
000080 6c 1e 10 3e dc 19 f9 bd 37 76 dc 3d cd 2c 87 3d
       0.14074105 -0.121631354 0.10764735 0.06600342
000090 64 48 36 3d 50 e7 48 3c ad 23 c1 bd 8e d4 c1 bd
       0.04450263 0.01226218 -0.09430633 -0.0946437
0000a0 c0 6f 0a be 1a 19 9e bd 15 a4 c2 3d 30 1c 91 bc
       -0.13519192 -0.077196315 0.095039524 -0.017713636
0000b0 35 a7 63 bd 89 8a ed bb 46 5e 44 bc 70 7b eb 3c
       -0.055579383 -0.0072491807 -0.011985367 0.028745383
0000c0 ae af e5 3d 9d 5f 64 bd 2a ea d2 3d 98 0b 02 be
       0.11215149 -0.055755246 0.102985695 -0.12699735
0000d0 18 39 8b bd 10 86 c4 3d 5f f3 33 3e 66 70 2a 3e
       -0.06797999 0.09595883 0.17573307 0.16644439
0000e0 50 7c d8 bc 10 1b 94 bc 15 0d 60 bc cf 75 01 3e
       -0.026426464 -0.01807931 -0.013674994 0.12642597
0000f0 43 d5 09 3e 55 9d a9 3d b4 33 e6 bd cc c6 86 bd
       0.13460259 0.08281962 -0.1124033 -0.06580886
000100 59 05 e8 bc 60 e3 5d bd dd b8 0b 3e 7a c9 a6 3d
       -0.028322862 -0.05417192 0.13644738 0.08143897
000110 a0 e5 c3 bd 6d 89 d9 3d 55 00 01 bc 5a d5 1a 3e
       -0.09565282 0.10621915 -0.007873614 0.1512045
000120 73 bf 54 3c 9d 47 c0 bd 60 2c 81 bd 6b 7e 86 bd
       0.012985098 -0.09388659 -0.06307292 -0.06567081
000130 ce 55 3a bc b9 6d a8 bd 75 a3 8d bd 21 88 42 bd
       -0.0113729965 -0.08224053 -0.069159426 -0.047493104
000140 b1 ff ee 3d 77 08 74 3e fe 2f 2e bb 52 19 47 be
       0.11669863 0.23831354 -0.0026578899 -0.19443253
000150 a0 ca 46 3e f8 f6 2d 3e 3c 61 1a 3d 56 20 11 bc
       0.19413233 0.16988742 0.037690386 -0.008857807
000160 53 08 34 3e f9 f1 6e 3d ce 2a 8e 3e 6d c8 07 3e
       0.175813 0.05833623 0.27767032 0.1326005
000170 64 7a 34 be cb b0 10 3e 14 bc 37 3d 02 05 bf 3b
       -0.17624813 0.14129941 0.0448571 0.0058294544
000180 0f 21 70 3e 16 b2 83 3e 60 9f db 3d 3e 22 9b bd
       0.23450111 0.25721806 0.10723758 -0.075748906
000190 42 e9 29 3d 49 73 47 bc e9 55 ed 3d 23 44 74 3d
       0.041482218 -0.012173482 0.11588652 0.059635293
0001a0 4e f7 58 bd cf 2f 2a 3d dd 47 e8 3d d3 37 25 3e
       -0.052970223 0.0415495 0.11341832 0.16134576
0001b0 6a de ca bd f9 a2 a7 3d a8 8c 02 bd 3e b0 34 bc
       -0.09905703 0.081853814 -0.03187242 -0.011028348
0001c0 7a 60 c0 bd 26 41 69 bc 69 9d 9c bc 45 5f f6 3d
       -0.093934014 -0.014236724 -0.019118028 0.1202989
0001d0 ce b6 36 3c 9a ac d6 bd ea 07 8a bc 60 2b b1 3c
       0.0111519825 -0.1048214 -0.016849477 0.021627128
0001e0 0f cc 71 bd 7e 86 ec 3d 78 47 66 bc 26 55 d9 bd
       -0.059032496 0.1154909 -0.014055125 -0.10611944
0001f0 c6 14 36 bd 6b dd 6e bd e8 50 9e 39 2f cf 90 3d
       -0.044453405 -0.05831663 0.00030196388 0.07070767
000200 92 33 01 be f5 11 05 3e 34 ea ab 3d 81 38 a4 bd
       -0.12617329 0.12995131 0.0839428 -0.0801859
000210 e7 49 96 3d 9c 4f 1b bc 06 d0 89 bd 4d 40 8e bd
       0.073383145 -0.00947943 -0.067291304 -0.06945858
000220 08 db ff 3c 56 c1 ca bd 15 76 30 3d 84 75 57 3c
       0.031232372 -0.09900157 0.04308136 0.0131505765
000230 08 7f 1f 3e 68 03 a7 bd c5 98 f5 3d 74 8c 65 bd
       0.15575802 -0.081549466 0.11992029 -0.05604215
000240 ed b8 d7 bd 5d 8f 31 3d b8 18 2b 3d e4 6a f7 bd
       -0.10533319 0.043349613 0.04177162 -0.12080935
000250 42 0a 00 3e 7c ef 18 bd 81 cb d1 3d b5 6a 3d 3e
       0.12503913 -0.037337765 0.102438934 0.18497737
000260 7c 66 20 3e 57 88 d1 bd 9e 88 de 3d c8 86 15 3c
       0.15664095 -0.10231083 0.108659014 0.009126373
000270 34 4f 8f 3d 2e 72 b9 3d 13 73 45 bc 55 3d 90 bd
       0.06997529 0.09054981 -0.012051362 -0.07042948
000280 7b 9a 4d 3d c0 d7 0b 3e e2 da bd 3d 4f c2 9c 3d
       0.050196152 0.13656521 0.09270264 0.07654249
000290 e7 d7 d9 3d 87 0b 08 3e 14 27 fb 3d 92 d3 3a b9
       0.10636883 0.13285647 0.12263313 -0.00017817158
0002a0 58 15 e3 bd 91 93 ed 3c 36 de 85 bb 0b 0b 94 3d
       -0.11088055 0.02900103 -0.0040853275 0.07228669
0002b0 6b f2 90 bd bd 41 aa 3d 21 65 74 bc 59 fc b6 3a
       -0.070774876 0.0831332 -0.014916689 0.0013960704
0002c0 39 d5 db 3c 7d 36 e6 3d af ca eb 3b 7c 58 e5 3d
       0.02683507 0.112408616 0.0071957926 0.11198518
0002d0 73 08 7d bd 9d f4 c4 bd bb b4 d3 bd e4 57 e5 bb
       -0.061775636 -0.09616969 -0.10337206 -0.006999003
0002e0 c7 fa c0 3d 42 c5 97 3c 63 5b d4 3d d7 63 d5 3c
       0.09422832 0.018526677 0.10368993 0.026048584
0002f0 67 14 a8 bc cf 9c f9 3d 69 05 62 3c a4 59 3c 3c
       -0.020517541 0.12188112 0.013795235 0.011495981
000300 b6 66 99 bd c1 20 ec 3c 92 49 a7 bd 59 da 20 3b
       -0.07490294 0.028824212 -0.08168329 0.0024544208
000310 e6 6b f3 3d 19 f7 a9 bd 61 f4 d7 3d 4c 86 9e 39
       0.11885814 -0.08299083 0.105446585 0.00030236167
000320 7c 62 80 3d d8 67 46 3d 30 19 1c 3e ee 1e 2c 3e
       0.062687844 0.048438877 0.15243983 0.16808674
000330 77 0e dc 3d b9 6f 35 bc 6f c8 85 3d b2 7b ba bd
       0.107449464 -0.011074 0.0653237 -0.09105624
000340 c2 e5 cb bd a3 d3 86 3d 8e 2a c8 bd 1e 86 c9 3d
       -0.09955932 0.06583335 -0.09773742 0.09840034
000350 aa ea 62 3d c3 52 e4 bd 6c 77 39 bc c2 f2 aa bd
       0.055399574 -0.11148598 -0.011319976 -0.08347084
000360 d4 5c 4d 3c 82 cd 44 3d 4f 11 9c 3c 2f 9c b4 3d
       0.012534339 0.04804755 0.019051222 0.08818852
000370 d1 b5 30 3e 4b 52 8e 3d 6b 75 ab bd 98 a8 2d 3d
       0.17256857 0.0694929 -0.08372005 0.04239711
000380 cb 31 2f 3d 19 d5 19 bc d7 d7 09 3e 31 c4 04 3e
       0.042772096 -0.009389185 0.13461243 0.12965466
000390 88 a6 08 bd 8b a6 79 bc b2 47 26 bc b8 83 3d 3e
       -0.03336194 -0.015237461 -0.010148929 0.18507278
0003a0 52 d9 4e 3d 29 17 9c 3d ef 4f 66 bc 08 2c 87 bd
       0.05050022 0.07621605 -0.014057144 -0.06600195
0003b0 a8 83 1a 3d 37 47 40 3d 78 2e 4f 3d 17 24 34 3d
       0.037723213 0.046942916 0.050581425 0.04397973
0003c0 cc 37 03 3e 1b dc 52 bc 6a 29 f1 3d 72 a2 f7 3c
       0.12814254 -0.01286986 0.11775477 0.030228827
0003d0 c9 08 76 3e 0b 30 75 3d 6c 8e 46 3e 7f cf fe bc
       0.24026789 0.05986027 0.19390267 -0.031104801
0003e0 67 8a e0 3d fd 87 9e 3a 1c 43 9a 3c e8 de f9 3c
       0.10963898 0.0012094971 0.018830828 0.030501798
0003f0 66 02 24 3d be b9 3a 3e c4 8b 51 3e 22 f2 3b 3e
       0.04004135 0.18234918 0.20463473 0.18354085

conv2.bias f4 [16]
000000 f0 69 8b bd 0e e6 62 bd dc a6 49 3c 5b 62 62 bc
       -0.06807315 -0.05539518 0.012307849 -0.013817395
000010 75 f3 b4 bb 32 cb bb 3d 35 61 d6 bd 75 02 12 3d
       -0.0055221864 0.09169616 -0.104677595 0.035646874
000020 36 12 12 3e 3d c2 58 bc 4a ca f0 3d a7 a3 01 be
       0.1426476 -0.013229904 0.117573336 -0.12660085
000030 0a f1 ec bd 92 5e 1e 3c 56 d2 19 3d f5 8a 51 38
       -0.11569412 0.009666102 0.037554108 4.9958897e-05

fc1.weight f4 [120, 400]
000000 2f f4 41 bc d1 c6 e2 bc 0d f4 d3 bc 5b 18 ea 3c
       -0.011838003 -0.027682694 -0.025873208 0.028576067
000010 0f f1 4d 3d 16 c1 3f bd 2a a4 71 ba 55 11 0d 3c
       0.05027872 -0.046815 -0.0009217883 0.008610089
000020 87 3b 8f 3c 5d b3 ee ba 69 40 28 3d c2 03 22 3d
       0.01748444 -0.0018211413 0.04107705 0.039554365
000030 e5 fc 44 3c 80 a2 30 bd e1 06 81 3c 2d 3f cf 3c
       0.012023185 -0.043123722 0.01575035 0.02529868
000040 4d 10 3b bc 32 83 54 bd aa 67 91 3c 99 50 e9 3c
       -0.011417461 -0.05188293 0.017749626 0.028480815
000050 5c bf e6 3b 8b 96 9c 3b 0b db 0e bc 52 9c 8e bb
       0.007041855 0.0047786883 -0.008719216 -0.004352131
000060 05 b5 39 bd 54 42 40 3d 88 42 17 3d ce 0d 2a bd
       -0.04533865 0.046938255 0.036928684 -0.04151707
000070 b2 53 19 bd 80 c0 02 b7 da a1 1a bd 92 fc 1f bc
       -0.037433334 -7.793424e-06 -0.03775201 -0.009764807
000080 4e 48 9d 3c 24 cf 00 3d f8 35 03 bd 80 67 25 3c
       0.019199517 0.031447545 -0.03203389 0.010095477
000090 42 fb 4f 3c 8e c7 52 3d 95 87 cf 3c 9f b2 03 bd
       0.012694182 0.05145984 0.025333205 -0.03215277
0000a0 05 e4 ba 3a 4e ec 1f 3c 0d 02 a6 bb 38 a7 8e 3d
       0.0014258629 0.009760929 -0.0050661624 0.06965488
0000b0 3c 48 0e 3d 28 5d 23 bd 24 26 7d bc 11 21 b5 bc
       0.034736857 -0.039883763 -0.015450988 -0.022110494
0000c0 ee 46 17 bd ca c8 cc bc d4 0a 3f 3d 1f 3c f0 3c
       -0.03693288 -0.024998087 0.046641186 0.029325543
0000d0 c2 52 86 bc 26 76 98 3c ae d2 22 3b 34 90 f0 bc
       -0.016396884 0.018611025 0.0024844813 -0.029365636
0000e0 18 fb 48 3d c4 32 0c bd 40 39 3d 3d 5e 3e 04 bc
       0.049067587 -0.0342281 0.046197176 -0.00807151
0000f0 2e 24 cf 3c 00 11 40 bd c1 9a 1f bd 7a 95 6a 3d
       0.025285807 -0.046891212 -0.038965944 0.05727146
000100 4b be dd bc ac f2 27 3c c7 e2 28 bd f3 a8 1e 3c
       -0.027068278 0.010250729 -0.041231897 0.009683835
000110 32 33 f1 bc f2 c4 cc bc f0 a6 c3 bc c8 ed 58 bd
       -0.029443357 -0.024996255 -0.023883313 -0.05296114
000120 5d 6b b9 3c 7d fc 9d bc ff 7a 58 bc 64 b8 e1 3c
       0.022634203 -0.019285435 -0.013212918 0.027553745
000130 50 64 1e 3d 46 aa 28 bd 99 3c cf 3c 6c 77 01 3d
       0.038669884 -0.04117801 0.02529745 0.03160803
000140 ec 48 de bc ed 4a ac 3b 8a e1 28 3d 57 b6 58 bb
       -0.027134381 0.0052579553 0.041230716 -0.0033067667
000150 79 24 6b bc f9 e5 1d 3d 7b 3e 39 bd ee cd 03 3d
       -0.0143519575 0.038549397 -0.0452256 0.03217881
000160 64 33 4e bc 05 93 63 3c 56 de 9d bc e1 fb 49 bb
       -0.012585495 0.013890033 -0.019271057 -0.0030820298
000170 29 c3 b3 3b f5 d9 2a 3d e2 b4 47 3a 93 b4 c6 bb
       0.0054859114 0.041711766 0.0007618201 -0.0060640066
000180 c4 30 c7 bb e1 ff 02 3d 26 5d c4 bc 58 84 13 bc
       -0.0060788114 0.031982306 -0.023970198 -0.009003721
000190 1e f0 ba bc 4d 3a 81 bc f8 93 05 3d 41 7a 69 bc
       -0.022819575 -0.01577487 0.032611817 -0.014250339
0001a0 5e aa 37 bd a2 e0 d8 bc 50 18 4a bc 80 81 d5 b7
       -0.04484021 -0.0264743 -0.012334898 -2.5451882e-05
0001b0 02 a3 a6 3b a8 08 ec b8 67 4a 42 bd 8e 9e e1 3b
       0.00508535 -0.00011254969 -0.047434237 0.0068853563
0001c0 e1 50 82 ba a5 b8 4a 3c 92 da de 3c 13 7b a7 3c
       -0.0009942317 0.012373124 0.027203832 0.020444429
0001d0 f0 76 e3 3c f1 23 b2 bc 3c a6 55 bc 3c 79 41 bd
       0.027766675 -0.021745654 -0.013040122 -0.04723476
0001e0 57 e0 10 3d 47 ca bb 3b 84 bd 8f bc 7a 20 ee bc
       0.035370197 0.0057309004 -0.017546423 -0.02906822
0001f0 7a d2 12 3d 8e 2f 18 3d 7f 4b c7 3c 52 27 d2 bc
       0.035845257 0.037154727 0.024327992 -0.025653515
000200 e0 4a f1 ba f6 7d 82 3b 54 f6 99 bc 58 c1 e2 3c
       -0.0018409155 0.003982301 -0.018794216 0.027680084
000210 93 99 8c 3c 54 ea 51 3d 97 df 05 bd ea 49 b8 3c
       0.017163074 0.051248863 -0.032683935 0.022496182
000220 e9 57 96 bc 37 74 0b 3d 56 b9 25 3d 4d d4 2e bc
       -0.018352466 0.034046378 0.040459953 -0.010670734
000230 dd 44 42 3d 60 63 14 3d 9d 63 2e 3d 17 19 6d 3b
       0.047428954 0.036227584 0.042575467 0.0036178285
000240 83 40 c5 3b 79 e0 45 3d e1 23 28 bd d8 36 f0 3c
       0.0060196533 0.048309777 -0.04104984 0.029323027
000250 9b 84 3c 3d 04 e4 05 3d 57 d6 2f 3d fb fb dd 3b
       0.0460249 0.032688156 0.04292902 0.006774423
000260 8f 44 00 bd 16 f9 68 bc 91 5a 33 bc 6e 3a b0 bc
       -0.031315383 -0.014219543 -0.010946886 -0.021512236
000270 ee 03 b5 3b 43 f8 5f 3c e7 54 13 bc 69 43 31 3d
       0.00552415 0.01367003 -0.00899241 0.043277178
000280 6c e1 29 bd 7b 06 81 bc 0d 50 11 bd c4 70 08 bd
       -0.041474745 -0.01575016 -0.035476733 -0.033310667
000290 67 cd 07 bd e0 82 42 3c ac 00 3d bc 04 1d 20 bc
       -0.03315487 0.011872023 -0.011535805 -0.009772543
0002a0 53 ad 6e 3d 03 7a 63 bc 04 32 ee 3b d7 f2 4d bd
       0.058270764 -0.01388407 0.007269146 -0.05028042
0002b0 f8 c2 8d 3c db 29 08 3d 2a 4f d4 3c 5d 4f 21 3d
       0.017304882 0.03324304 0.025916655 0.039382327
0002c0 c2 67 d3 bc b6 c6 58 3d 01 5c 2a bc 21 00 17 3b
       -0.025806312 0.05292388 -0.010397912 0.0023040848
0002d0 60 11 01 3d 32 59 5d 3c 24 08 40 bd d4 0c 21 ba
       0.03151071 0.013510035 -0.046882764 -0.0006143574
0002e0 9a 78 1a 3d 8c db 80 3c 3e e5 4f 3c d3 b9 4f 3d
       0.03771267 0.015729688 0.012688933 0.050714325
0002f0 e6 78 52 3d af b1 ed 3c e1 9d 16 3d 17 66 8a bb
       0.05138483 0.02901539 0.03677166 -0.004223596
000300 a0 2d 02 3c ad 94 d2 3b f8 f0 60 bd bd 42 1f bd
       0.007945448 0.006426415 -0.054917306 -0.038882006
000310 a0 09 d1 bc 19 50 37 3c 34 cf cc 3c c9 f6 04 bd
       -0.025517285 0.01118853 0.025001146 -0.032461915
000320 69 0b 61 bc 69 63 36 3d e1 8f fd ba 78 e9 35 bd
       -0.013735631 0.0445284 -0.0019345247 -0.044412106
000330 90 fa 7a bc 7c 37 2a bd ae 5a 79 bb 01 b2 1a bd
       -0.015318528 -0.04155682 -0.0038048434 -0.037767414
000340 ad 95 02 3d e3 e4 15 bd f1 2b 01 bd f4 be 00 3d
       0.031881023 -0.036595237 -0.031536046 0.031432107
000350 12 7b 25 3d 93 9f 24 bc eb cf 96 bc a2 2e ae 3c
       0.040400572 -0.010047811 -0.01840969 0.02126247
000360 ca a2 0e 3d 84 71 ed bc 0b 20 5d 3d 22 be 9e 3a
       0.034823216 -0.028984793 0.053985637 0.0012111107
000370 74 ae 3d bd 79 96 c0 bc 75 b6 40 3d e3 0c 30 bc
       -0.04630895 -0.023509251 0.047049005 -0.01074526
000380 69 37 1e 3c 95 b9 4c bc f6 f5 b0 3c 08 ff 28 bd
       0.0096567655 -0.012495418 0.021601658 -0.04125884
000390 d3 28 fc bb 0b d7 f1 3c 3e e3 38 bc 88 8b 6c bc
       -0.0076952963 0.029521486 -0.0112846475 -0.014437564
0003a0 36 7f 55 3c 75 ce ee 3c f0 86 ae 3c 66 58 3a ba
       0.013030818 0.02915118 0.021304578 -0.00071085093
0003b0 69 9b c4 bc 49 2f 26 bd fd ee 07 bd ee f0 71 bd
       -0.023999887 -0.04057244 -0.0331869 -0.05906766
0003c0 c2 d3 85 3a 0b f6 1c 3d 4c 07 2b bc ca 62 4e 3d
       0.0010210203 0.038320582 -0.010438751 0.05038718
0003d0 47 80 17 bd 47 6b 02 bd dd 92 15 3d 5d 1a d2 bc
       -0.03698757 -0.03184059 0.036517013 -0.025647337
0003e0 d9 55 ab 3c bb 69 af bc 10 14 41 bd 59 09 ca 3c
       0.020914959 -0.02141272 -0.047138274 0.02466266
0003f0 1e c0 5f 3c fc ee f9 bc 56 64 4c 3d 01 63 1c 3d
       0.013656644 -0.030509464 0.049900375 0.038180355

fc1.bias f4 [120]
000000 83 e0 19 bd f9 3b 02 3d a8 39 4e 3b 11 03 0b bd
       -0.037567627 0.031795476 0.0031467471 -0.03393847
000010 85 a1 04 3d 72 5d 1a 3c 02 24 52 bc 7f 22 ff bb
       0.0323806 0.009421693 -0.012825968 -0.0077860947
000020 f2 bc f3 3c 6c fb ca 3c 37 a4 03 bd f5 3e 63 bc
       0.029753182 0.02477809 -0.03213903 -0.013869991
000030 a8 08 02 3d 38 53 b6 3c 0d 6d bd bc cd 9d 87 3b
       0.031746536 0.022256479 -0.023123289 0.0041386844
000040 57 89 40 bc 38 d1 e6 3c df ee e1 3b d7 8a 16 bd
       -0.011751494 0.028175935 0.0068949307 -0.0367535
000050 f4 ab fd bb 1e 51 0d bd 1a b0 36 bd b4 27 b7 bc
       -0.0077414457 -0.034501188 -0.044601537 -0.0223578
000060 20 95 a3 3b e3 80 43 bd 69 18 22 bd b6 bb f1 3c
       0.0049921423 -0.047730338 -0.03957406 0.029508453
000070 2b 52 0f 3d dd 4c 4f 3c 05 ed 16 bc b9 69 1b 3d
       0.03499047 0.012652603 -0.009211783 0.03794262
000080 c0 66 1f bc 0a 0c 46 3d 75 39 0f bd cf 16 99 ba
       -0.009729087 0.048351325 -0.034966905 -0.0011679771
000090 69 ca a8 3b b8 e4 25 3d 4d 39 6e bc 7f be 69 3c
       0.0051510823 0.040501326 -0.014540029 0.014266609
0000a0 fd 6b 2e bd af 8e 29 3d df 14 ad bc 50 4e f2 3b
       -0.042583454 0.04139584 -0.021128116 0.0073945895
0000b0 4e 85 10 3d 5c 82 45 3d c9 41 08 bd 43 02 48 3d
       0.03528338 0.048220024 -0.033265863 0.048830282
0000c0 4c e9 21 bd 10 94 01 3d 21 ec c4 3c 29 aa 81 bb
       -0.03952913 0.031635344 0.024038376 -0.0039570522
0000d0 eb f8 16 3d c0 22 05 bd 6a 3e 0a bd 4d 05 11 bd
       0.03685848 -0.032503843 -0.03375093 -0.035405446
0000e0 59 21 5a bc 1c e1 2d bc f8 ee 88 3b 6c 7a 07 bd
       -0.013313615 -0.010612752 0.004178878 -0.033075735
0000f0 5d 0d 27 bd 74 05 ef ba 97 11 03 3c 9d 8f 8e 3c
       -0.04078423 -0.0018235878 0.007999799 0.017402465
000100 2b 8b 3e 3d 1d 6c ed bc 6e b7 af 3b d0 91 1d bd
       0.04651944 -0.028982216 0.0053624427 -0.038469136
000110 f5 d0 97 bc 48 52 13 bd 11 79 02 bd eb 44 08 bd
       -0.018532256 -0.03596714 -0.03185374 -0.03326885
000120 ac e9 49 3d ec 5b 3c 3c 38 cc de bc c6 ed b4 bc
       0.049295112 0.011496525 -0.027196988 -0.022086035
000130 c0 86 33 bd cf 69 1d bc 7d ee 8d 3b a7 89 b8 3b
       -0.04382968 -0.009607746 0.0043314085 0.005631644
000140 85 74 f1 bb 46 fe 9a bc f2 23 18 3d 64 39 d2 bc
       -0.0073686265 -0.018920075 0.037143655 -0.025662132
000150 8a 30 20 bd c9 12 47 bd a0 7c 95 bc 79 64 cf 3c
       -0.03910879 -0.0486019 -0.018247902 0.025316464
000160 00 d7 a1 bc 0f 88 d0 3c 34 4f c1 3b 6d ff 3b bd
       -0.01975584 0.025455503 0.0058993343 -0.04589789
000170 2c 11 b1 3c b3 1e 9c 3c b8 11 d1 3b 3c 3f 46 3b
       0.021614634 0.019057607 0.006380286 0.0030250093
000180 73 d0 4c bd 6e 12 40 bd ca 3f 36 bd ef 74 40 3d
       -0.05000348 -0.046892576 -0.044494428 0.046986517
000190 35 f4 08 bc 0a 47 41 3c 22 69 dc bc 86 38 83 3b
       -0.008359005 0.011796722 -0.0269056 0.004004541
0001a0 a3 52 b5 3b 40 ba 36 bd 23 3c a7 bc 5e b8 a6 bb
       0.0055335327 -0.044611216 -0.020414418 -0.0050878963
0001b0 94 f3 25 3d 8e db 66 bb 36 b0 37 3c f7 e1 2d bd
       0.040515497 -0.003522608 0.011211446 -0.042451825
0001c0 09 32 d9 bc 00 f1 99 3c f5 ca ae bc 22 c2 ed 3c
       -0.026513116 0.018791676 -0.021337012 0.029023234
0001d0 aa e0 a5 3b 8c 4a 28 bc 20 13 d6 3c 3b f2 30 3d
       0.0050621824 -0.01027168 0.026132166 0.04319976

fc2.weight f4 [84, 120]
000000 0f 21 88 3d 7a ec e2 3c d3 c1 a7 bc d8 1f 7f bd
       0.066469304 0.027700651 -0.020478165 -0.062286228
000010 f4 83 34 3c 70 27 87 bc dc 49 33 3d fb 11 8b 3d
       0.011017788 -0.016498297 0.04377161 0.06790539
000020 47 0a f0 3c fe 06 95 bd c6 f1 0b bd 60 25 17 bc
       0.029301776 -0.07276724 -0.03416612 -0.0092252195
000030 3b eb 1c bd 66 41 8d 3d cb 9c 58 bd 58 a3 84 bd
       -0.03831027 0.068972394 -0.052883904 -0.06476468
000040 ad 57 8a 3d 00 23 2d bd a0 9e 98 bd 85 fd 0c 3d
       0.06755004 -0.042269707 -0.0745213 0.034421463
000050 be 8b 56 3d 79 43 8d bd de bd 08 bd 3b de 97 bd
       0.052379362 -0.06897635 -0.033384196 -0.07415434
000060 46 cd 39 bc f0 6f 4c 3d 29 37 76 bd 98 92 91 3d
       -0.011340445 0.04991144 -0.0601112 0.07108039
000070 07 49 ac bd 4f 79 aa 3d 5c 0f 0d 3d d2 8b b0 bd
       -0.08412366 0.08323919 0.034438476 -0.086204186
000080 84 0b 10 3d 52 b6 9e bd 40 a5 b2 3d 3e 53 59 bd
       0.035167232 -0.077496186 0.08722925 -0.0530579
000090 53 6e 31 bc c7 47 a7 3d c3 12 9c 3d cd 0f a4 3d
       -0.010829526 0.08167987 0.07620766 0.08010826
0000a0 a6 d1 3e bd c2 85 9e bd 82 db 80 bd 00 22 72 bc
       -0.046586655 -0.07740356 -0.06291868 -0.014778614
0000b0 2f eb 80 bc 75 d9 a1 bd d5 c4 a9 3d ce f0 a7 bd
       -0.015737144 -0.07902805 0.08289496 -0.08200227
0000c0 ec 31 96 bc c5 e6 4a 3d a7 06 a5 bd bb e4 9f 3d
       -0.018334351 0.049536485 -0.080579095 0.07807299
0000d0 16 09 c5 bb a0 53 9e bd ea 17 8b bd 82 2d 2f bc
       -0.006013046 -0.07730794 -0.067916706 -0.010692002
0000e0 0d 0b f5 bb fb c6 de bb 24 c8 0e 3d 71 de 3b bd
       -0.007478124 -0.0067986227 0.034858838 -0.045866434
0000f0 71 df 8f 3c f2 ff b6 3d 67 44 a6 3d cc d9 91 3c
       0.0175626 0.089355364 0.081185155 0.017804049
000100 81 43 8a bd 78 3d 9e bc 1f 6d 16 3d 34 19 85 3c
       -0.067511566 -0.01931642 0.03672516 0.01624737
000110 8b 6a af bc bc 2c ce 3c 15 8b 9c bd 28 58 99 bd
       -0.021413108 0.025167815 -0.07643715 -0.074875176
000120 6d 65 62 bc 20 86 fa bc d7 1e 7d 3c ba 4e 45 3d
       -0.013818127 -0.030581534 0.015449247 0.048170783
000130 4e 1c 0b 3b e2 a7 99 3d 90 2e 0e 3d c7 58 08 3b
       0.0021226588 0.07502724 0.034712374 0.0020804869
000140 4e 2a dd bc 78 2d 94 bd 32 a2 8a 3b 04 5d 55 bd
       -0.026997712 -0.07235235 0.004230761 -0.05209066
000150 9d 5c ba bd 8d 46 40 bd eb 1a 17 bb d3 ad 4b 3d
       -0.09099696 -0.046942282 -0.0023056816 0.04972632
000160 11 f9 f3 bc 97 25 2f 3d d9 13 ea 3c e8 e7 28 bd
       -0.02978185 0.042760458 0.028573917 -0.041236788
000170 d1 a4 b0 3b 71 9e 26 3d 45 8d 9a 3d 4d 19 9c 3d
       0.0053907414 0.040678445 0.07546476 0.07622013
000180 2f f0 f2 3c 52 33 e3 3c 29 b6 b3 3c cc cd 38 3b
       0.029655544 0.027734432 0.021937447 0.0028198836
000190 46 f0 27 3c d8 0a 66 3b 10 09 70 3d cf 42 82 3a
       0.010250157 0.0035101678 0.058602393 0.0009938123
0001a0 42 50 82 bd cc 40 4c 3c 50 41 be 3c f9 e1 80 3c
       -0.06362964 0.012466621 0.023224503 0.015732752
0001b0 cb d2 31 3d 2e 2e ab bd 86 e1 19 3d d4 68 33 3d
       0.04341392 -0.083584175 0.03756859 0.043801144
0001c0 47 da 9d bd a3 c1 f4 3b dd 71 59 bd 2c e8 bb bc
       -0.07707649 0.0074693724 -0.053087104 -0.022937857
0001d0 98 c9 40 bd 5f 98 85 bd dc 3e b6 3d 61 81 53 3d
       -0.047067255 -0.06523203 0.08898708 0.051637057
0001e0 87 ea 73 3d bb 37 cb 3b 3a 4b 34 bc e7 c3 af bc
       0.059549835 0.006201712 -0.011004264 -0.021455718
0001f0 34 c4 3e bd c0 55 28 bd c8 10 28 bc 5c 79 50 bc
       -0.046573833 -0.041097403 -0.010257907 -0.012724247
000200 48 24 93 3d 51 0e b5 3d 50 62 cb bc b2 29 9d 3d
       0.071846545 0.08840621 -0.024827152 0.076739684
000210 90 cc 78 3d df 21 ae 3d 37 b0 8e bd ab 29 91 3d
       0.06074196 0.08502554 -0.06967204 0.07088026
000220 ee 05 24 bd e1 12 b3 3d 20 0b 92 3d 63 65 a3 3d
       -0.040044717 0.08743835 0.07131028 0.07978322
000230 00 9a 66 bc c4 c9 d2 bc d9 15 e0 3c dd e4 46 3d
       -0.014074802 -0.025730975 0.027354168 0.048558105
000240 18 d3 8c bd a5 57 9a 3d 24 65 2f bd 32 c5 0d bd
       -0.068762004 0.07536248 -0.042821065 -0.03461189
000250 f7 c4 91 3d 55 d2 85 3d 88 15 29 bc 8b eb ae 3d
       0.07117646 0.06534258 -0.010320075 0.0854102
000260 a7 2d 70 3d 70 b3 16 3d 18 2e 58 3c d2 bd 98 3d
       0.058637287 0.03679222 0.013194583 0.0745808
000270 ca 54 87 3d 92 7e ad 3d 68 88 05 ba ad a5 0a bd
       0.06607969 0.08471407 -0.00050938735 -0.033849407
000280 fc a5 cf 3b b9 74 25 bd d9 43 bd bd 10 83 ea bb
       0.0063369256 -0.04039452 -0.092414565 -0.007156737
000290 63 fb b8 3c 12 35 27 bd 1e 0b 9a bd f7 34 79 bd
       0.022580808 -0.040822096 -0.07521652 -0.060841527
0002a0 9a 19 a3 bd 3a 2d b7 3d b8 d6 d2 bc f1 30 45 3d
       -0.079638675 0.08944173 -0.025737152 0.048142377
0002b0 4f 6e 58 bb 3f c7 6f bc 85 23 3d bd 3b ad 14 bb
       -0.0033024733 -0.014634906 -0.046176452 -0.0022686261
0002c0 cf 3b 5b 3d 2d f0 55 3d 0b 0b 86 3d 42 42 8b ba
       0.053523835 0.052231003 0.06545075 -0.0010624605
0002d0 96 62 29 bd 63 30 64 bb 59 1d a0 3d 2c fa 52 bd
       -0.041353785 -0.003481888 0.078180976 -0.051508114
0002e0 31 30 55 bd a8 fa 9c 3d b5 1f 16 3d 8a e2 71 bd
       -0.052047912 0.076649964 0.036651332 -0.059053935
0002f0 a2 a6 ce 3a 38 dd a5 3d b8 29 7c 3d 3b 6a b9 bd
       0.0015766213 0.08098835 0.061563224 -0.09053465
000300 72 03 44 bd 10 6f ac 3c c2 ab ae bd 78 cb 4b 3d
       -0.04785485 0.021049052 -0.08528854 0.04975459
000310 ba 2d f4 3c 5e 15 01 3d 8b 35 a1 bd 57 72 00 3d
       0.02980696 0.031514518 -0.07871541 0.031359043
000320 49 c1 55 3d 90 c6 e8 3c c1 c0 6b bc 3a 4f 70 3d
       0.052186284 0.028414994 -0.014389218 0.058669306
000330 49 3a 6a 3d 7c ae 5d 3d 51 39 ae 3d 12 91 38 bd
       0.05718449 0.05412148 0.08507026 -0.045060225
000340 7f 5e 0c bd 83 74 40 bd e1 7f e5 bc b3 3f 70 bd
       -0.034269806 -0.046986114 -0.028015079 -0.0586545
000350 2c ce 02 3d a3 4a 52 3c 10 38 9f 3d b1 c9 e1 bd
       0.031934902 0.012835178 0.07774365 -0.11024798
000360 d7 ce 98 bd 42 00 09 3d 61 b5 15 bd 56 38 14 bc
       -0.074613266 0.03344751 -0.03654993 -0.009046635
000370 2e e2 8e bd bf 0d b8 bd 61 9a ab 3d 6c 71 35 bd
       -0.06976734 -0.08986997 0.08379055 -0.04429762
000380 34 79 ab 3d d2 e7 2c 3d b6 05 b3 3d 8f 19 bf 3d
       0.08372727 0.04221327 0.08741324 0.09331047
000390 81 df 4b 3d 4b 83 ae bc 38 f9 46 bd 5c 7f 90 bd
       0.049773697 -0.02130284 -0.048577517 -0.07055542
0003a0 29 88 24 3d 3d ed a9 39 fd 43 b5 3d c7 e1 41 bd
       0.040168915 0.00032410948 0.08850858 -0.04733446
0003b0 2b 1f 18 bb 4a e8 2b bd f0 0b 11 3d a5 df 98 3d
       -0.0023211937 -0.041969575 0.035411775 0.07464532
0003c0 42 29 cc 3d 62 ad 2d bd 7f 44 6f bc 58 05 b2 bd
       0.09968807 -0.04240168 -0.014603733 -0.086924255
0003d0 73 92 3b 3d 90 70 9f 3d ab 3d 9e 3d 3e ec b4 3d
       0.04579396 0.077851415 0.07726606 0.08834122
0003e0 6c ff 87 3d 00 58 dd bb 27 47 32 3d a1 2a 05 bb
       0.06640515 -0.006754875 0.043524887 -0.0020319598
0003f0 85 57 97 3d cb 17 39 3b 88 02 c0 bd e1 b9 a8 bc
       0.0738974 0.0028242941 -0.09375483 -0.020596446

fc2.bias f4 [84]
000000 23 5b b2 3b 9b 11 c8 bc 72 47 cc ba 4e 46 83 bd
       0.0054429932 -0.024422457 -0.0015585257 -0.06409894
000010 38 f2 6a 3c 03 a2 13 3c 47 15 6c bd 89 e7 b9 3c
       0.014339976 0.009010795 -0.05763748 0.022693412
000020 63 78 b6 3d e2 fc 5b 3d d3 63 3d 3c d1 88 6f bd
       0.08909681 0.053707965 0.0115594445 -0.058480088
000030 e5 1e 87 bd 0f fe ef 3c 82 81 9f 3c 04 99 bf bd
       -0.065976895 0.02929595 0.019470934 -0.09355357
000040 f3 74 8d 3d c9 ca 83 3c a5 75 ca 3d 9e 1a d7 bc
       0.06907072 0.016087906 0.0988572 -0.02625781
000050 58 16 91 bb a0 47 cd bc b4 03 8e bd ca 23 a5 3d
       -0.0044277124 -0.025058568 -0.069343 0.08063467
000060 77 1f 9c bd 6f 00 e4 3c 2b 0e 56 3d 35 d5 81 3d
       -0.07623189 0.027832238 0.052259605 0.06339494
000070 44 a0 a1 3d b8 72 f7 ba 4e ce 7c bd 1a 3e 82 3d
       0.07891896 -0.0018878793 -0.061720185 0.06359501
000080 95 59 96 bd 81 9d 4b bd 90 23 01 bd cd d2 64 3d
       -0.07341305 -0.049710754 -0.031528056 0.055865098
000090 4b 55 2f bd bc b6 67 bd 1d b9 2f 3d 6d 25 8f bd
       -0.04280595 -0.056570753 0.042901147 -0.0698956
0000a0 9e d3 1f 3d b5 f3 10 3d 63 0f 22 3b 26 4e 90 bd
       0.039020173 0.035388667 0.002472841 -0.07046156
0000b0 64 ab 83 3d 28 ed 97 bd 95 d7 96 3d d7 21 0c bd
       0.064291745 -0.07418281 0.07365338 -0.03421196
0000c0 1c 76 a7 bd 7e 32 44 3d b1 bf 53 bc 8c 56 85 3c
       -0.081768245 0.047899716 -0.012924121 0.01627662
0000d0 8b ee f1 bc 0d 78 6d bd 03 45 73 bc bd f9 7b bd
       -0.029532691 -0.057975817 -0.014847997 -0.061517466
0000e0 92 c7 7e bd 5d 32 1e bd 64 be 5b 3d 66 11 23 ba
       -0.062202044 -0.03862225 0.053648368 -0.0006220549
0000f0 3e 9c 12 3d 6b 0e 44 3d 13 df ac 3d e8 91 f9 bb
       0.035793535 0.047865313 0.084409855 -0.0076162703
000100 6d a3 ed 3c fe 80 33 bd ee 89 af 3d 7e 14 a0 3d
       0.029008592 -0.04382419 0.0857123 0.078164086
000110 7d 03 b0 3d db c7 74 bb 58 ed 8a bd 5d 34 b0 3c
       0.08594415 -0.0037350568 -0.06783551 0.021509344
000120 19 0b 89 3d 52 46 da 3c 48 cd 12 3d eb c3 c2 3b
       0.0669157 0.02664486 0.035840303 0.0059437654
000130 4a 40 31 3c 77 c2 64 3d f0 f4 b5 3d cd f8 ab 3d
       0.01081855 0.05584952 0.08884609 0.08397064
000140 6f d9 bb 3c da 4a 66 bd 60 a8 10 bd 0a c9 92 bb
       0.022930829 -0.056223728 -0.035316825 -0.004479532

fc3.weight f4 [10, 84]
000000 93 fa ca bd d4 74 c2 3d e7 8c 78 bd d5 ac 89 bd
       -0.099110745 0.094949394 -0.06068125 -0.06722418
000010 af 50 01 3d 74 86 c2 bd d9 41 57 3d 88 db 2b bd
       0.031571086 -0.09498301 0.05255303 -0.04195741
000020 11 2d 89 bc 19 44 b7 3d ea ec 08 3e 01 60 97 3c
       -0.016745122 0.089485355 0.13371626 0.018478395
000030 9d 98 1e 3e 71 1a 0d be 51 e4 9d 3c 3f d0 14 3d
       0.15487905 -0.13779618 0.019273909 0.03633141
000040 92 4a 9b bd 8f 54 63 be 2b 4b 12 be 55 f8 85 ba
       -0.075825825 -0.22200225 -0.14286487 -0.0010221103
000050 f6 71 2e 3d 60 07 ff 3d 38 50 f1 3c 10 11 e2 bc
       0.04258915 0.124525785 0.029457197 -0.027596027
000060 dd c0 18 3d 14 7f 1a 3e 3b 3c 1f 3d 42 98 51 be
       0.037293304 0.15087539 0.0388758 -0.20468238
000070 7d d6 2e 3e 16 18 16 bd a4 bc bc 3c e2 09 33 3c
       0.17074008 -0.036644064 0.02303917 0.010927649
000080 cd 48 80 3d 4d af 41 3d 30 5c 6f 3d f1 a2 b2 bd
       0.06263886 0.04728632 0.058437526 -0.08722485
000090 aa 51 85 bd 24 6a b8 bd 17 64 04 bd 43 6c 0d be
       -0.06509717 -0.0900462 -0.032322016 -0.1381083
0000a0 4d 49 56 bd 2d 71 a7 bd 2d fc 0b 3e 67 b7 bd bd
       -0.052316 -0.081758834 0.13670416 -0.09263497
0000b0 eb 4f a5 3d 74 f9 fb bc 78 28 0d 3e d7 0b ab 3d
       0.08071884 -0.030758597 0.13784969 0.08351868
0000c0 dd c2 11 3e e1 d9 84 3b 2d 55 99 bd 42 5a 16 3d
       0.1423449 0.0040542935 -0.07486949 0.03670717
0000d0 1b 7c 05 bd 1a 7f d9 bd 45 2c 5a bd fa 16 ea bd
       -0.03258906 -0.10619946 -0.053264875 -0.11430164
0000e0 f5 9e 89 3d 5b 60 d7 3d 60 9d 7b 3d a7 dd 48 bd
       0.06719772 0.10516425 0.06142938 -0.04903951
0000f0 80 d1 8e bc 66 59 a0 bd dc 04 13 3d 5a 27 9e bd
       -0.017433882 -0.078295514 0.035893306 -0.077223495
000100 88 53 c2 3d 97 e3 69 bd ba a6 d7 bd 33 59 9f 3d
       0.094885886 -0.057101812 -0.105298474 0.07780685
000110 6b 1a 73 3d e3 3a 25 bd 81 6e 8e 3d 74 27 11 be
       0.059351366 -0.040339362 0.06954671 -0.14175206
000120 5e 95 4a 3e 58 de d7 bd 36 db 47 3d 74 ef 82 3d
       0.19783542 -0.105404556 0.04879304 0.06393328
000130 fa fd 8a bd 0a 4c fa bd e7 22 e0 bd 67 e6 82 3c
       -0.067867234 -0.122215346 -0.10944157 0.015979005
000140 a0 78 04 bd 54 0d 89 bd 76 7b b6 3d 8d 52 a5 3d
       -0.0323416 -0.06691995 0.08910267 0.08072386
000150 05 5f 13 bd 31 8e 9f 3d 45 0d 81 bd 03 45 cb bd
       -0.03597929 0.07790793 -0.06301359 -0.09925272
000160 aa 41 16 3d c7 13 80 bd cd 86 5b 3d 84 f2 d4 3d
       0.036683716 -0.06253772 0.053595353 0.10397819
000170 b9 2f f3 3d 1a 4e cc 3d e0 39 0e bc cf be 6a 3d
       0.11874337 0.09975834 -0.008680791 0.057310876
000180 b8 fa 18 bd f1 ae 1d 3d 8e aa b1 bd 97 34 95 3d
       -0.03734848 0.038496915 -0.08675109 0.07285421
000190 73 4d 5f bd c4 bd 24 3e 0a ad 2b 3e 2c e6 90 3d
       -0.05451722 0.16088015 0.16765228 0.07075152
0001a0 bb 54 f3 bc 2b 78 af 3d cd 35 37 bc 23 5c b9 bd
       -0.029703489 0.08567842 -0.011182261 -0.09050777
0001b0 1d 39 a9 3c 23 e8 cc bd 41 bb 84 bc 5b 73 02 3e
       0.020657117 -0.10005214 -0.01620257 0.12739317
0001c0 f9 9c 99 3c a4 5e 6b bd 35 fd be bd 3b 23 b1 3d
       0.018751608 -0.057463303 -0.09325639 0.08649298
0001d0 ab d7 65 bd d9 ea 58 3b b9 10 de 3d 1b 28 0b be
       -0.05611388 0.0033098964 0.10843033 -0.13589518
0001e0 b7 1e 1b 3d 27 ce ef 3d b4 82 28 3d d5 d7 3d bd
       0.03787109 0.11709242 0.041140273 -0.04634841
0001f0 0b a0 11 3e 10 dc 49 bd 0d 22 7f be e5 1c a5 3d
       0.14221208 -0.049282134 -0.24915333 0.08062152
000200 2f 36 e9 bd 18 42 cc bd 83 af ea bc 2b 84 3d bd
       -0.11387288 -0.09973544 -0.028648144 -0.046268623
000210 2b 1f db bd 97 6e 4e 3d 92 dc ed bb 4f a8 99 bd
       -0.10699304 0.050398435 -0.00725896 -0.075028054
000220 1b 1e 96 3d ff 55 81 bd ab 58 85 bd 53 e8 46 3d
       0.07329961 -0.063152306 -0.06511053 0.048561405
000230 2b 3f e9 3c 45 76 c5 bd 22 95 9b bd 5a 97 e0 bd
       0.028472504 -0.09641699 -0.07596804 -0.10966368
000240 5e 3c 01 3e 96 66 c7 bc 71 25 4d bd 11 39 36 be
       0.12620685 -0.024340909 -0.050084535 -0.17795207
000250 b9 dd f6 bd 5a 05 e7 bd 2f a2 6d 3d 8c a6 36 3d
       -0.12054009 -0.112803176 0.058016 0.044592425
000260 87 f8 6d 3d 05 fe 39 bd e4 13 c7 bc 34 55 d8 3d
       0.058098342 -0.045408268 -0.024301477 0.10563126
000270 59 02 8e 3d ac 2d d3 3d 8a 26 08 be 8a 87 96 3d
       0.069340415 0.103114456 -0.13295951 0.07350071
000280 f6 72 8a bd 8d c7 46 3e a7 8a 81 3b c6 14 c0 bd
       -0.06760208 0.1941206 0.003953296 -0.09378962
000290 1e 6f 2e 3d 63 d9 5d 3c af 9d 57 3d 64 04 e7 bd
       0.04258644 0.013540599 0.052640613 -0.11280134
0002a0 7d 8a c2 3d a4 0f ba 3d b3 04 4b 3c 0c f2 06 bd
       0.09499071 0.090850145 0.012391257 -0.032945678
0002b0 1f 41 21 3e 14 08 13 3c 09 d8 a8 3d e6 79 82 3c
       0.15747498 0.008974094 0.082443304 0.015927266
0002c0 9d fb 04 be d0 3e 17 3d f6 5d 67 bd 15 7d 26 3d
       -0.12986608 0.036925137 -0.056486093 0.04064663
0002d0 e7 b3 0e bd b5 ce 48 3e 5e a5 4d 3d 74 38 cc bd
       -0.034839537 0.19610102 0.050206535 -0.09971705
0002e0 5f 25 d5 bd e4 e9 bd 3c 60 40 0a bd 46 7a c6 bd
       -0.104075186 0.023182817 -0.0337528 -0.096912906
0002f0 01 80 b8 3d 86 ea f5 bd 7f 80 db bd e3 c5 02 3e
       0.0900879 -0.120076224 -0.10717868 0.127708
000300 18 a4 e0 bb 79 16 0a 3e 44 9b 8f 3b b0 33 bb 3c
       -0.006855499 0.13485135 0.004382523 0.022851795
000310 dc 37 cc bd 63 7e 16 bc 4a 3b c6 bd b7 73 c9 bd
       -0.09971592 -0.009185406 -0.09679277 -0.09836524
000320 15 12 a6 3d 7a 81 a7 3d bf d2 a9 bd a3 9b a8 bd
       0.081089176 0.081789926 -0.0829215 -0.0823281
000330 4a 2c ce 3d 05 ed f8 bc 18 27 b8 3c 24 19 ad bd
       0.10067041 -0.030386457 0.022479579 -0.08452061
000340 5e 1b c5 bd bc 1a c4 3d 0a 7b b6 3d 08 2b 05 be
       -0.096243605 0.09575412 0.089101866 -0.13004696
000350 1e b5 4d 3c eb 12 a6 3d 4d c9 ad 3d 33 f2 7f 3d
       0.012555389 0.08109077 0.08485661 0.06248684
000360 a7 c8 18 3d 8d de 95 3c 9a 34 bd 3d d1 99 02 3e
       0.037300732 0.018294597 0.092385486 0.12753989
000370 d4 7f 71 3d 9e 4a 4a bd 77 9b 4f bc 90 3f fa bd
       0.058959797 -0.049387567 -0.012671343 -0.12219155
000380 b9 b7 02 3e 37 e8 29 3d 85 ef 1a 3d d3 b9 3a bd
       0.12765397 0.041481223 0.03782608 -0.045587372
000390 24 f7 e6 3d a9 3b 86 bd 64 87 58 bb d6 4d ff bd
       0.11277607 -0.06554348 -0.0033039683 -0.12466018
0003a0 af bc 99 3c 0b 0e 03 3e 7c 39 68 3d 36 64 b0 bd
       0.01876673 0.12798326 0.056695446 -0.08612864
0003b0 07 3f fa 3d c0 2c a7 ba cb f4 f3 3c 03 54 6f 3d
       0.12219053 -0.0012754425 0.029779812 0.05842973
0003c0 b5 4d df bd f7 28 06 be 41 21 ab bd 6a bd d1 bd
       -0.10903493 -0.13101564 -0.08355952 -0.10241206
0003d0 df 05 4f 3c 6d 4e ac bd 24 49 35 3e 99 91 08 3d
       0.012635677 -0.08413396 0.17703682 0.033341978
0003e0 a1 23 14 3d 3d 77 2e bc bb 95 f4 3d 80 3b 8e bd
       0.03616679 -0.010648546 0.11942621 -0.069449425
0003f0 6b 7b a8 bd d9 b5 83 bd c8 39 b5 bc f0 88 80 bc
       -0.08226665 -0.06431169 -0.022122279 -0.015690297

fc3.bias f4 [10]
000000 4f 4f ed bd cb 5e 63 bc df 1a b8 bc 57 06 54 3d
       -0.115873925 -0.013877581 -0.02247375 0.05176386
000010 7f b9 cc 3d e2 58 27 3d 8d 8b 52 bd c1 f7 be bc
       0.09996318 0.04085625 -0.051402617 -0.023311498
000020 d4 99 a2 bc 08 c2 8e 3a
       -0.019848742 0.0010891566
