PyCharmWorkshop/AI/Projects/Project3/checkpoints/LeNet5/epoch-4.pth (torch, 243143 bytes, 10 tensors)

conv1.weight f4 [6, 1, 3, 3]
000000 a7 92 c9 3e e8 45 93 3d a8 0b 29 3e 8c f5 0b be
       0.393697 0.07191068 0.16508353 -0.13667887
000010 b6 bd 78 3e 06 ef 61 be 05 9b 36 3e 32 f6 e3 3e
       0.24291119 -0.22063836 0.17832573 0.4452377
000020 15 52 55 be 8c 5d c4 3d 97 0c e3 3e 5b 69 fc bd
       -0.20832093 0.09588155 0.44345543 -0.123247825
000030 4e 01 df 3e ce cd ec 3e df fe 2b bb 4c 39 66 3d
       0.43555683 0.46250767 -0.0026244444 0.056206986
000040 3a 11 fb 3d e7 f4 c0 3e 53 dc 71 be 5e 16 46 be
       0.12259145 0.37686846 -0.23619203 -0.1934447
000050 fe 55 2b bc 6b c0 b0 3d 73 25 8f 3e d0 c2 da 3d
       -0.010457514 0.08630451 0.2795826 0.10681689
000060 64 7b 85 3e f3 a1 9d 3d 27 a4 b6 3e 7d c3 a6 3c
       0.26070702 0.07696905 0.35672113 0.020356888
000070 87 1b 0b 3f 6a f8 1b 3f 14 6f 3a 3f 25 35 c0 3e
       0.5433888 0.60925925 0.7282574 0.37540546
000080 ce 52 d3 3e 06 be 19 3f f5 2a 2b 3e e6 4e 83 be
       0.41274112 0.6005558 0.16715606 -0.25646132
000090 85 3d f4 3e 45 4a 66 3e b1 fb 6d be 04 fb a5 3e
       0.47703186 0.22489269 -0.23240544 0.32418072
0000a0 04 c1 3d 3f 1f dd 12 3e 6d 31 31 3f 3e f5 49 3f
       0.74122643 0.14342164 0.6921604 0.78889835
0000b0 4c 78 92 3e 0a 9f a9 3e e3 ac bc bd 6a ef 03 3f
       0.28607404 0.3312915 -0.09212663 0.5153719
0000c0 22 2d f9 3e 41 d7 31 be 0a c6 f7 3e c6 8e 8f 3e
       0.48667246 -0.17367269 0.4839328 0.28038615
0000d0 6c f2 ae be 2f c9 a3 be
       -0.34169328 -0.31989428

conv1.bias f4 [6]
000000 b3 19 74 3e 6c b1 10 be c3 f2 81 be 25 32 dd 3e
       0.23837928 -0.14130181 -0.25380525 0.4320232
000010 fe bd 9a 3e e7 9f e9 3d
       0.30223078 0.11407452

conv2.weight f4 [16, 6, 3, 3]
000000 ed d4 05 3e 41 85 35 3d 46 e2 1a 3d d4 60 3e bb
       0.13069506 0.044316534 0.037813447 -0.0029049413
000010 4c 1c 5c bc 04 13 f2 3d 7d 08 64 3c bf 3f bc 3d
       -0.013434481 0.11820033 0.013918039 0.09191846
000020 44 c7 e9 3d be 44 a2 bc 07 f7 09 be 6b 1d c3 bc
       0.1141496 -0.01980817 -0.1347314 -0.023817739
000030 c5 ef b3 bc 05 39 18 be f0 41 0d 3e b3 7a c3 bd
       -0.021964917 -0.14865501 0.13794684 -0.095448874
000040 21 f5 e3 bd c9 43 8c bd 2c b0 f5 3d 65 76 13 be
       -0.11130739 -0.068488665 0.11996493 -0.14400633
000050 3f 9a 9a bd 33 de 94 bd 7b 20 b6 3d a2 8c 25 3e
       -0.07548951 -0.07268944 0.08892914 0.16166928
000060 7a e3 d9 bc 49 99 dc 3c c9 fb ea 3d f9 e3 53 3d
       -0.026597727 0.02692856 0.114738055 0.051731084
000070 bd 0a 03 be 45 ae 2a be 4c 6b bf 3d 31 a6 9a bd
       -0.12797065 -0.16668041 0.09346637 -0.0755123
000080 ea c6 46 3e c0 87 01 be 21 b1 f6 3d 7b c9 00 3e
       0.19411817 -0.12649441 0.120455034 0.12576859
000090 98 c1 84 3d 2c b6 d2 bc 92 c1 f6 bd 76 2c c6 bd
       0.064822376 -0.025721632 -0.12048639 -0.09676449
0000a0 6c 3c 20 be da f7 1c bd fe 59 b0 3d 2c 3a 34 bc
       -0.15648049 -0.038322307 0.08610915 -0.011000197
0000b0 15 7b 9a bc cc 3f a3 3b 98 f3 85 bc e8 3c 57 3c
       -0.018857518 0.0049819704 -0.016351506 0.01313708
0000c0 75 a1 e2 3d 0c 91 94 bd 48 e9 e7 3d a9 44 00 be
       0.11065952 -0.07254228 0.11323792 -0.12526192
0000d0 76 d9 8d bd bb 12 f3 3d 88 5d 5a 3e 4e 56 1b 3e
       -0.06926243 0.11868807 0.21324742 0.15169641
0000e0 38 a1 72 bd 9d dc 5a 3b b0 9e 6e bc 9e 85 d6 3d
       -0.05923578 0.0033395656 -0.014564201 0.10474704
0000f0 7e c3 09 3e e7 74 ac 3d 4a 96 fa bd 9f 1b 54 bd
       0.1345348 0.08420735 -0.122356966 -0.051784154
000100 4d 0e 8f bd f4 01 dc bd 5c 20 33 3e 3e 23 7e 3d
       -0.069851495 -0.1074256 0.17492813 0.06204533
000110 83 70 12 be 47 4a 10 3e 8a 9a 95 3c fd 4a 10 3e
       -0.14300732 0.14090835 0.018262167 0.14091106
000120 2e 5e 83 bc 93 99 0b be 96 3e b7 bd 9a 5f ba bd
       -0.01603612 -0.13632803 -0.08947484 -0.09100266
000130 62 fc de bc 75 74 b3 bd 92 04 ac bd 75 76 48 bd
       -0.027219955 -0.08762447 -0.08399309 -0.048941094
000140 65 71 08 3e 03 93 7c 3e 70 fd ba bd 29 8f 9c be
       0.13324507 0.24665456 -0.091303706 -0.30577973
000150 ce aa 04 3e 5c 60 a2 3d 88 c9 79 bd 4c 24 45 bd
       0.12955782 0.07928535 -0.06098321 -0.04813032
000160 18 76 18 3e c2 91 06 3d be a3 98 3e f4 cd 1e 3d
       0.14888799 0.03285385 0.29812425 0.03877063
000170 0e 83 93 be c7 bb 40 3e 0f fd f3 3c 8b ab 8b bd
       -0.28810924 0.18821631 0.029783754 -0.068198286
000180 77 5b 8d 3e 79 73 98 3e 5c ea c3 3d f4 2f a0 bd
       0.27608845 0.297756 0.09566185 -0.07821646
000190 1f 17 e3 3c c8 58 39 bd 3e 68 b4 3d 98 44 35 3d
       0.027720986 -0.045250684 0.08808945 0.04425487
0001a0 de 69 99 bd c4 ef 3c 3d 50 28 07 3e 38 70 29 3e
       -0.07490896 0.046127096 0.13198972 0.16546714
0001b0 6d 20 fa bd e2 9f bd 3d fb 30 07 bc f7 20 0c bd
       -0.12213216 0.09259011 -0.008251424 -0.034211125
0001c0 7a 7b 96 bd bf da 8d 3b c5 41 fe bc ae 5a 0e 3e
       -0.0734777 0.004329055 -0.03103722 0.13901779
0001d0 ac a2 66 3c 11 40 0c be e4 3d e8 bb 2f 71 39 3d
       0.01407687 -0.13696314 -0.007087456 0.045273956
0001e0 80 cf d0 bd e9 f0 e9 3d 83 69 63 bc 1d b4 ec bd
       -0.101958275 0.11422903 -0.013880136 -0.115577914
0001f0 7d fe d4 bc bb b9 8d bd 8a 09 80 bc 4a d5 9e 3d
       -0.026000256 -0.06920191 -0.015629549 0.077555254
000200 d3 65 fc bd dc 5a e9 3d 63 b1 9b 3d 51 67 ca bd
       -0.12324109 0.11394283 0.07602193 -0.09882987
000210 80 44 9b 3d 0e 44 4e bc b6 d7 a1 bd f1 65 02 be
       0.07581425 -0.012589468 -0.07902472 -0.127342
000220 23 fd 87 3d bf 16 d0 bc 14 6c 07 bd 0f 73 19 3d
       0.06640079 -0.025401471 -0.033062056 0.037463244
000230 f8 ba 3b 3e 41 d1 da bd 50 ce 16 3e aa 99 81 bd
       0.18333042 -0.10684443 0.1472714 -0.06328137
000240 fe 82 3d be d7 26 91 3d 1c ff c8 3d 76 e7 51 be
       -0.18507001 0.07087486 0.09814283 -0.20498452
000250 8c 2a 0b 3e 0a ec ec bc 02 af a8 3d f9 b5 61 3e
       0.13590449 -0.028921146 0.08236505 0.22042073
000260 b5 d4 14 3e 09 65 fd bd 68 65 d4 3d e6 c2 26 3d
       0.14534266 -0.123727866 0.10370904 0.040713213
000270 8e 16 f4 3c 5b f6 b5 3d 54 76 10 3b 3a 00 c6 bd
       0.029795911 0.08884879 0.0022043185 -0.09668012
000280 70 e1 41 3d 33 f9 0a 3e a4 17 ba 3d 8b 07 b7 3d
       0.047334135 0.13571624 0.0908654 0.089369856
000290 63 0e 00 3e c2 07 f3 3d 54 00 07 3e 9e 8d 3b 3c
       0.12505488 0.11866714 0.13183719 0.011447338
0002a0 53 3e ff bd a3 cb 00 3d f6 0a 32 bb a2 10 a2 3d
       -0.12463059 0.031444203 -0.0027167178 0.07913329
0002b0 4b ad 60 bd 85 ee c2 3d f0 96 0b bd 9c 00 a4 3b
       -0.054852765 0.0951815 -0.034079492 0.0050049555
0002c0 b0 85 c2 3c 29 6d c6 3d a3 b2 81 3c a7 6e e7 3d
       0.023745388 0.096887894 0.015832251 0.11300402
0002d0 75 7c 92 bd ed 5e cf bd 19 92 f1 bd cb 9a b5 bc
       -0.071526445 -0.101255275 -0.11795444 -0.022168538
0002e0 8f 31 a3 3d 23 c0 43 bb 32 b1 dd 3d 5b 71 c9 3c
       0.07968437 -0.002986916 0.10824813 0.024590185
0002f0 df cb f8 bc a4 53 ee 3d fe 6b 8f 3c 07 b1 c1 3c
       -0.03037065 0.11637047 0.01750755 0.023643984
000300 40 d1 03 be 29 43 ac 3c e7 7c d8 bd 36 50 7c bc
       -0.12872791 0.021028118 -0.10570698 -0.015399983
000310 f1 e9 07 3e 1f 52 d2 bd d2 64 d1 3d 47 c9 b5 3c
       0.13272835 -0.102695696 0.10224308 0.022190703
000320 3d 42 a8 3d fd 97 50 bb ce 9b 15 3e 1f 73 27 3e
       0.08215759 -0.0031828873 0.14610216 0.16352509
000330 84 86 a9 3d 1e 23 1f 3b 8f 10 87 3d 37 96 b3 bd
       0.0827761 0.0024282406 0.06594955 -0.087688856
000340 cd d3 ce bd 7a 86 95 3d 77 1e f5 bd ac e1 b5 3d
       -0.100989915 0.0730104 -0.11968701 0.08880934
000350 84 e3 52 3d 05 45 0b be 3c 44 4b bc 15 6e ba bd
       0.051486507 -0.13600548 -0.012406405 -0.09103028
000360 42 12 46 bc 8c ec 39 3d b7 2a bc 3c b4 d2 c6 3d
       -0.012089314 0.045391604 0.022969587 0.09708157
000370 6d 20 32 3e bf f8 6f 3d b5 4f 85 bd de cc 02 3d
       0.17395182 0.058586832 -0.065093435 0.031933658
000380 71 76 a5 3c 3e 7a 92 bd 6c f6 d7 3d 13 35 04 3e
       0.020198079 -0.07152222 0.10545048 0.12910871
000390 d4 37 60 bd da a4 07 bd fc 9c 29 bd 9d 9a 4e 3e
       -0.05474074 -0.0331162 -0.041409478 0.20176168
0003a0 36 7f 2b 3d de 17 5d 3d b4 3f 7a bc 0d fb 89 bd
       0.041869365 0.05397784 -0.015273977 -0.06737337
0003b0 6f 96 16 3d 2f 64 4a 3d 34 43 15 3d cb 16 f9 3c
       0.03676456 0.04941195 0.036441043 0.030406376
0003c0 be 7f fb 3d c3 8b fb bc cd ac d4 3d b3 33 13 bd
       0.12280224 -0.030706292 0.10384522 -0.035937976
0003d0 af 13 82 3e e3 f0 ca 3d 53 0b 59 3e ef b2 f2 bc
       0.25405642 0.09909227 0.21195726 -0.029626338
0003e0 6f 73 75 3d 02 9e 25 3d 6a 08 9f bc 19 23 af bc
       0.05992454 0.04043389 -0.019413192 -0.02137904
0003f0 10 e5 47 bd 3e 95 0d 3e 69 3f 40 3e 3b ca 25 3e
       -0.048802435 0.13826463 0.18774189 0.16190426

conv2.bias f4 [16]
000000 b8 88 67 bd 75 3d 80 bd 2f 27 4e 3b c9 05 94 bc
       -0.05652687 -0.06261722 0.003145646 -0.018069165
000010 c0 be 13 bc d6 31 a0 3d c3 7c d2 bd 5f 08 c7 3c
       -0.009017646 0.078220055 -0.10277703 0.024295984
000020 56 21 13 3e 82 29 8d bc f9 e3 d0 3d 79 0f fe bd
       0.14368185 -0.017231707 0.10199732 -0.12405295
000030 24 ee d7 bd 35 64 4e b9 fb 0d b0 3c ae 86 fd bb
       -0.105434686 -0.00019683021 0.021491041 -0.0077370023

fc1.weight f4 [120, 400]
000000 09 2f 6a bc 27 52 00 bd b6 da d1 bc c0 a0 c1 3c
       -0.014293441 -0.031328347 -0.025616985 0.023636222
000010 f3 6d 4e 3d 55 ac 50 bd 4e cb 84 bb 56 17 86 3b
       0.050397824 -0.0509456 -0.004052556 0.0040921373
000020 b0 ad ba 3c b8 1e 2c b8 4c c0 30 3d a2 ca 25 3d
       0.022787899 -4.1036605e-05 0.04315214 0.04047645
000030 93 eb 89 3b 36 7b 46 bd f8 31 81 3c 57 fd e1 3c
       0.004208991 -0.048457347 0.015770897 0.027586622
000040 21 41 8b bc c5 3a 74 bd fd 36 9a 3c c8 21 e2 3c
       -0.01699883 -0.05962636 0.018825049 0.027603999
000050 6f ef e1 3b 51 ec b9 3b ec c4 11 bc 1e 72 06 bc
       0.006894998 0.005673923 -0.0088970475 -0.008205919
000060 04 36 40 bd c0 6c 2c 3d 85 da ae 3c e9 34 53 bd
       -0.046926513 0.0420959 0.021344433 -0.05156413
000070 34 d5 c6 bc 36 ae bf 3b 43 20 22 bd 51 3a ac bc
       -0.024271585 0.005849625 -0.03958155 -0.021023901
000080 36 73 c8 3c 2d ef 32 3d 42 57 f8 bc eb 3d aa 3c
       0.024469 0.043685127 -0.030315045 0.020781478
000090 d3 ef 98 3c 6f 39 74 3d 9e b5 d9 3b ad ff ab bc
       0.018669045 0.059625085 0.006643965 -0.02099594
0000a0 0f d0 cd 3b ee 37 a2 3c a7 d9 9b 3b a3 b4 81 3d
       0.006280906 0.01980206 0.004756171 0.06333282
0000b0 2f 7c 4f 3d 91 99 2d bd 9c 64 12 bd 4e 03 2e bd
       0.05065554 -0.04238278 -0.03574048 -0.04248362
0000c0 77 8e 6d bd 41 4b 83 bc f7 8e 32 3d 43 c2 90 3c
       -0.057997193 -0.016027095 0.043593373 0.017670756
0000d0 20 94 12 bc 8d dd be 3c c6 58 b3 39 85 bc 19 bd
       -0.008946449 0.023299003 0.00034207682 -0.0375333
0000e0 3e 44 22 3d 3f f9 d2 bc 42 75 53 3d 16 0e b1 ba
       0.039615862 -0.025753615 0.051625498 -0.0013508226
0000f0 f8 ec d4 3c eb b6 29 bd 85 ed 40 bd 0d 36 7d 3d
       0.025991902 -0.04143421 -0.047101516 0.061819125
000100 6f 4d df bc 43 c4 69 3c 96 94 18 bd c5 ad 5b 3b
       -0.027258603 0.014267984 -0.037251078 0.0033520323
000110 69 b4 f1 bc 0e 0b b5 bc 06 96 e3 bc 93 63 5d bd
       -0.029504972 -0.022099998 -0.027781498 -0.05405004
000120 ee 7c 64 3c bb b7 9c bc 87 0d 71 bc 3a 35 d4 3c
       0.013945801 -0.019130578 -0.014712698 0.025904287
000130 17 f8 f7 3c d4 a3 12 bd 9c 3e d1 3c 53 ee e9 3c
       0.030269666 -0.03580077 0.02554255 0.028556025
000140 d9 09 09 bd cc 6b 47 39 e8 46 2a 3d d8 a9 a4 bb
       -0.033456657 0.00019018276 0.041571528 -0.0050251298
000150 ff e3 9f bc d8 81 18 3d cf 79 2d bd 6c 87 fe 3c
       -0.019517897 0.037233204 -0.042352494 0.031070434
000160 6e 6b 9c bc 72 23 1d 3c 61 41 74 bc 04 41 9e 3a
       -0.019094195 0.00959097 -0.014908166 0.001207382
000170 96 45 b4 3b c7 2a 2b 3d 45 21 b6 b9 54 66 0a bc
       0.0055014594 0.041788843 -0.00034738533 -0.0084472485
000180 29 02 7c bb 19 00 b0 3c 37 49 e7 bc 70 22 c3 bb
       -0.0038453436 0.021484422 -0.028233154 -0.005955033
000190 2a 77 c7 bc 78 14 ed bc 20 ca f9 3c 6f 50 2b bc
       -0.024348814 -0.028940424 0.030491889 -0.010456189
0001a0 8b 05 70 bd 7b f7 17 bd c0 30 16 bd 32 f1 88 bc
       -0.058599036 -0.03710125 -0.036667585 -0.016716573
0001b0 5d 75 ca 3b c3 71 0b 3b 46 13 5c bd 62 61 ac 3b
       0.0061785416 0.0021277524 -0.053729318 0.0052606324
0001c0 2a d2 67 3b 8d 37 23 bc 38 fc b7 3c 7d 3f f5 3c
       0.003537307 -0.009961975 0.022459134 0.0299375
0001d0 1b 3e 36 3d 06 26 01 bd 01 ea 9c bc b2 ac 41 bd
       0.044492822 -0.031530403 -0.01915455 -0.047283836
0001e0 22 84 25 3d ae d9 f7 3b 64 a1 ba bc 5c e2 4a bd
       0.040409215 0.0075637912 -0.022782035 -0.04953228
0001f0 ff a9 3d 3d 47 ad ed 3c d3 95 8a 3c cd c5 3d bc
       0.0463047 0.02901329 0.016917145 -0.011582804
000200 4e bd 64 bb 04 50 17 3b 50 4b 04 bd 22 16 d5 3c
       -0.0034902873 0.0023088465 -0.032298386 0.02601153
000210 60 03 03 3d 40 11 6a 3d 45 28 13 bd ff 14 ba 3c
       0.03198564 0.057145357 -0.035927076 0.02271509
000220 88 14 5b bc 95 f6 57 3c 10 13 39 3d 79 5a 86 bc
       -0.013371594 0.013181348 0.045184195 -0.016400563
000230 d4 e1 6b 3d 40 26 15 3d 27 b4 1a 3d 3f e5 fd 3b
       0.057588413 0.03641343 0.037769463 0.0077482755
000240 15 ea 55 3a 9b 35 4d 3d a3 7e 1e bd 01 bf c0 3c
       0.0008160186 0.05009995 -0.03869499 0.023528578
000250 b1 4f 5e 3d 68 0f 29 3d 9d fc 29 3d 8b 97 27 3c
       0.05427522 0.04127446 0.041500676 0.010229002
000260 10 25 aa bc 44 87 07 bc 22 ab 80 bc a0 a7 d9 bc
       -0.020769626 -0.008271996 -0.015706602 -0.026569188
000270 b8 2e 92 3b 7f f0 45 3c f2 70 2e bc 60 dc 12 3d
       0.0044611357 0.0120812645 -0.010647045 0.035854697
000280 40 83 2e bd 0f 84 4e bc 5e 70 db bc 90 a1 ff bc
       -0.04260564 -0.012604727 -0.02678698 -0.031204969
000290 3a c2 21 bd 62 ab b2 3c ac d4 69 3b 49 3b e2 bb
       -0.03949187 0.021810237 0.003567974 -0.00690404
0002a0 61 65 5c 3d aa e2 6f bc 4e 34 0d 3c 01 43 3d bd
       0.05380762 -0.014641443 0.008618427 -0.046206478
0002b0 e8 ad 4b 3c db ad 17 3d 8f c6 27 3d f5 62 10 3d
       0.012431599 0.037031036 0.040960845 0.035250623
0002c0 1b 72 29 bd a4 69 4b 3d ed 09 31 bc 85 52 f5 ba
       -0.041368585 0.049661294 -0.010805589 -0.0018716609
0002d0 c0 42 d8 3c cb 44 8e 3b 91 c6 4b bd e4 4d 03 bb
       0.026399016 0.004341697 -0.049749915 -0.002003544
0002e0 1e b2 2d 3d f6 9d a0 3c cd ff d9 3c d1 cf 72 3d
       0.042406194 0.019606572 0.026611233 0.05928022
0002f0 54 33 20 3d 13 da a1 3c a1 92 33 3d cf c2 28 3c
       0.03911145 0.019757306 0.043841008 0.010300352
000300 c1 cd 07 3c d4 27 2d 3c c4 90 1e bd b3 6c 44 bd
       0.008288802 0.010568578 -0.038712278 -0.047955226
000310 f5 3c 0c bd ba 98 9e bb 2c 58 ae 3b 58 a2 e5 bc
       -0.03423782 -0.004839984 0.0053205695 -0.028031513
000320 bf 7c 61 bc c8 04 36 3d d7 be 17 bb 12 4c 0e bd
       -0.013762652 0.044438154 -0.002315452 -0.034740515
000330 3b f3 5e bc 2c 49 29 bd bc dc f6 ba cc df d4 bc
       -0.013607795 -0.041329548 -0.0018834095 -0.02598562
000340 5a a9 27 3d a2 9c 04 bd 27 bb 01 bd bc fe 10 3d
       0.04093299 -0.03237594 -0.031672623 0.035399184
000350 30 2e 5b 3d 63 28 07 bc b1 9a 64 bc db c8 a4 3c
       0.053510845 -0.008249375 -0.013952897 0.020115307
000360 a6 60 1c 3d 29 68 7b bc e7 24 52 3d 55 5f 0a 3c
       0.03817811 -0.015344658 0.051304724 0.0084455805
000370 b2 25 3f bd 11 75 d1 bc 33 e4 42 3d 61 19 87 bc
       -0.04666681 -0.025568517 0.04758091 -0.016491594
000380 ee d3 67 3c 71 44 75 bc 5b 27 08 3c d8 fd 0b bd
       0.014149649 -0.014969931 0.008310164 -0.03417763
000390 9f 73 14 bc d8 5c 77 3c de 45 d3 bc 02 6f f4 bc
       -0.009060769 0.015097819 -0.025790151 -0.029838089
0003a0 36 dc a8 3b 5d 65 f7 3c 38 6f cd 3c 39 ee ad bb
       0.0051532043 0.030199701 0.025077447 -0.0053079394
0003b0 05 e7 b1 bc cc 73 35 bd 5b 2a 28 bd 10 54 84 bd
       -0.021716604 -0.044299886 -0.04105602 -0.06461346
0003c0 60 c3 41 3c b8 0b 47 3d b7 6d c4 bc 81 f8 41 3d
       0.011826366 0.04859516 -0.023978097 0.047356132
0003d0 8c 90 11 bd be da 02 bd b4 a5 1d 3d 43 34 0b bd
       -0.03553824 -0.03194689 0.038488105 -0.033985388
0003e0 f8 47 83 3c 78 66 40 bc 05 ff 5a bd b0 d4 04 3c
       0.016025528 -0.01174318 -0.05346586 0.008107349
0003f0 70 e4 60 3c 2c 67 dc bc a0 ad 3d 3d 33 38 e4 3c
       0.013726339 -0.026904665 0.04630816 0.02785883

fc1.bias f4 [120]
000000 4b b8 17 bd 80 11 05 3d 28 9a 5b 3b e6 a1 09 bd
       -0.03704099 0.032487392 0.0033508632 -0.033601664
000010 3a d4 09 3d 81 e8 17 3c eb 94 4e bc b7 82 f5 bb
       0.03364966 0.009271742 -0.012608747 -0.007492389
000020 19 0e f0 3c 79 64 da 3c 93 57 00 bd d4 be 4e bc
       0.029303597 0.026659237 -0.031333517 -0.012618739
000030 09 97 01 3d 3d 3c b6 3c fc c7 b6 bc 74 5d 06 3b
       0.03163818 0.02224552 -0.022312157 0.002050248
000040 87 35 41 bc bb 48 ea 3c 44 f6 f3 3b c4 47 15 bd
       -0.011792547 0.028599134 0.0074451286 -0.036445394
000050 b8 01 f4 bb 0c 86 0d bd 17 4c 33 bd 34 c7 be bc
       -0.007446494 -0.034551665 -0.043773737 -0.023288347
000060 2a aa 79 3b 48 16 43 bd 13 0b 1e bd c2 f8 02 3d
       0.003809581 -0.04762867 -0.03858478 0.031975515
000070 6c dc 10 3d b1 30 4b 3c 72 1a 16 bc 01 30 1a 3d
       0.03536646 0.012401746 -0.0091615785 0.037643436
000080 3b 1e 22 bc 39 0c 47 3d be 5a 08 bd ee 08 b8 ba
       -0.009894903 0.04859564 -0.033289663 -0.0014040747
000090 a6 f2 84 3b 2c fc 24 3d 76 11 80 bc 69 3c 66 3c
       0.0040572463 0.040279552 -0.015633326 0.014052489
0000a0 92 f1 2e bd 10 bf 29 3d 06 1e a6 bc 14 50 f2 3b
       -0.04271085 0.041441977 -0.020277988 0.0073948
0000b0 29 91 13 3d 7b 3c 49 3d 25 50 02 bd 31 3d 4f 3d
       0.036027107 0.049129944 -0.031814713 0.050595466
0000c0 2f 4e 1e bd 6a 14 03 3d df 31 dd 3c 39 2a 98 bb
       -0.03864878 0.03200189 0.02700132 -0.004643705
0000d0 1a a6 13 3d e3 be 09 bd 38 00 04 bd e0 83 12 bd
       0.03604708 -0.03362931 -0.03222677 -0.035770297
0000e0 87 2f 5a bc db 64 60 bc 7f f7 4e 3b 49 d9 05 bd
       -0.013316995 -0.013695921 0.0031580625 -0.032677922
0000f0 42 96 24 bd c2 15 f3 ba 1a dd cf 3b d1 8f 96 3c
       -0.04018236 -0.0018545913 0.006343496 0.018379124
000100 d3 92 3e 3d 31 70 ed bc f1 46 92 3b 7c 7b 26 bd
       0.04652674 -0.028984161 0.0044640233 -0.040645108
000110 23 2e 9e bc 7d 3a 13 bd 6a fa 00 bd f1 dd 07 bd
       -0.01930911 -0.03594445 -0.031488813 -0.033170644
000120 bd 76 49 3d 90 fb 43 3c 49 27 c7 bc e6 fe b6 bc
       0.049185503 0.011961833 -0.024310725 -0.022338342
000130 89 bc 38 bd d0 95 c5 bb 7a 71 75 3b 16 6a a5 3b
       -0.045101676 -0.006029822 0.003745167 0.005048047
000140 41 02 fb bb 4d ba 90 bc 8c f9 1c 3d 5c e5 db bc
       -0.007660181 -0.01766696 0.038323924 -0.026842766
000150 8c ee 1f bd d4 da 45 bd 61 99 a2 bc 42 c1 dc 3c
       -0.039045855 -0.048304394 -0.019848527 0.026947621
000160 cb 5b 9b bc ab 2a d0 3c b9 65 07 3c a5 cf 3c bd
       -0.018964669 0.02541097 0.008263999 -0.046096463
000170 09 32 b0 3c 58 4a 95 3c e5 93 d0 3b 8e 42 b9 3b
       0.021508234 0.018223926 0.0063652867 0.005653686
000180 2e 5e 4c bd d9 95 3c bd 23 27 34 bd 39 6e 41 3d
       -0.049894504 -0.046041343 -0.043982636 0.047224257
000190 76 7c f8 bb f7 9d 7a 3c 1f e2 df bc 02 4f 9f 3b
       -0.0075831963 0.015296451 -0.027329503 0.0048617134
0001a0 b9 5d b8 3b 50 ed 33 bd 06 27 a7 bc 7c 47 c5 bb
       0.005626407 -0.04392749 -0.02040435 -0.0060204845
0001b0 00 8d 1f 3d 3e 21 27 bb 81 87 4d 3c ce 4c 2d bd
       0.038952827 -0.0025501992 0.012544514 -0.042309575
0001c0 02 c7 e5 bc fe f7 a7 3c 54 e1 ac bc 17 a9 e9 3c
       -0.028048996 0.020503994 -0.021103539 0.028523011
0001d0 78 47 9a 3b 62 8c 24 bc 0a ad d9 3c ba a9 2e 3d
       0.004708227 -0.0100432355 0.02657177 0.042642333

fc2.weight f4 [84, 120]
000000 8a 06 8e 3d b9 93 0d 3d 22 8b 89 bc c0 6e 66 bd
       0.06934841 0.034564707 -0.016789977 -0.056257963
000010 0b 0d 83 3c 93 73 83 bc 9a 6e 3f 3d 08 81 8a 3d
       0.01599743 -0.016046321 0.046736337 0.06762892
000020 ed 44 0c 3d f1 92 85 bd 05 00 f6 bc 79 12 32 bc
       0.03424542 -0.065221675 -0.030029306 -0.010868662
000030 4e f9 1c bd 66 41 8d 3d d9 39 19 bd 6e f2 94 bd
       -0.038323693 0.068972394 -0.037408683 -0.07272802
000040 46 5d 8a 3d 13 a5 0a bd 6f 1d 94 bd 8c a2 37 3d
       0.06756072 -0.033848833 -0.072321765 0.04483275
000050 e4 e3 4c 3d 18 c7 83 bd f1 cf e8 bc 29 a9 a5 bd
       0.05002202 -0.064344585 -0.028419467 -0.08088905
000060 72 e2 86 bc f6 78 4c 3d c5 8d 89 bd 32 a4 a1 3d
       -0.0164654 0.049920045 -0.067164935 0.07892646
000070 5e e5 a3 bd bd 46 b9 3d 8d aa 09 3d 5a bb af bd
       -0.08002733 0.090466954 0.033609916 -0.08580656
000080 86 41 03 3d ff 59 92 bd 66 47 d1 3d a8 52 59 bd
       0.03204491 -0.07146072 0.10218696 -0.053057343
000090 16 85 7b bc 2e 58 b5 3d 5b 9d 99 3d 4c 2c a4 3d
       -0.015351554 0.088547096 0.07500716 0.080162615
0000a0 fb ae 3e bd 45 c3 cb bd 4b 54 90 bd 00 22 72 bc
       -0.046553593 -0.09949354 -0.070473276 -0.014778614
0000b0 5f 99 9e bc d2 d7 8e bd 04 4a bc 3d b7 db af bd
       -0.019360242 -0.06974758 0.09193805 -0.08586829
0000c0 c6 e7 69 bc 0d 74 81 3d 6f 32 97 bd e1 7d 9f 3d
       -0.0142764505 0.06320963 -0.07382666 0.07787681
0000d0 38 a0 a9 bc 9e 03 a4 bd 6b 6a a1 bd a2 66 99 bc
       -0.020706281 -0.080085024 -0.07881626 -0.018725697
0000e0 d7 71 f2 bb e7 a7 5d bc ac 29 32 3d d0 46 7d bd
       -0.0073988247 -0.013528801 0.043496773 -0.06183511
0000f0 ba 5c 8b 3c f6 d9 c6 3d 5d c9 a5 3d ac 7c 72 3c
       0.017011989 0.097095415 0.080950476 0.014800232
000100 6f 43 8a bd 78 3d 9e bc 4b 1c 20 3d 82 d1 6c 3a
       -0.06751143 -0.01931642 0.039089482 0.00090339046
000110 4d 2b bb bc 44 cc cc 3c 1a b9 9d bd 5b d4 89 bd
       -0.022847796 0.024999745 -0.07701321 -0.06729957
000120 1f 1c 45 bb 33 6f 0d bd 90 fb e1 3c 5b 15 45 3d
       -0.0030076576 -0.034529876 0.027585775 0.04811607
000130 f5 21 8f 3c 70 f7 8c 3d f3 04 fe 3c da 6e 6d bb
       0.017472247 0.068831325 0.03100822 -0.0036229403
000140 7b ed d1 bc ea 97 98 bd 4c 3d 0a 3c 25 5b 52 bd
       -0.025625935 -0.0745085 0.008437466 -0.051356453
000150 08 94 ba bd b8 06 46 bd 2e 4b 5c bc 25 90 54 3d
       -0.09110266 -0.04834625 -0.013445659 0.05189528
000160 33 60 23 bd 69 a5 e7 3c 2b d3 47 3d 7c 01 16 bd
       -0.039886665 0.028277116 0.04878537 -0.03662251
000170 ab b3 b0 3b 9a 24 4a 3d d2 0e 9b 3d 11 a2 8d 3d
       0.005392512 0.049351312 0.07571186 0.06915677
000180 28 0a fe 3c d9 af fb 3c e0 6e 95 3c 6a 30 2f b9
       0.031010702 0.0307235 0.018241346 -0.00016707336
000190 2c b5 49 3c c3 98 a5 3b b0 66 70 3d 9b ea 24 3b
       0.012311261 0.005053611 0.05869168 0.002516425
0001a0 8a 44 82 bd 80 b1 bf 3c 16 5f be 3c 0e 6a ed 3c
       -0.06360729 0.023400068 0.0232387 0.028981235
0001b0 25 81 c7 3c b5 a9 a7 bd b7 0c 1e 3d e9 b1 35 3d
       0.024353573 -0.08186666 0.038586345 0.04435912
0001c0 87 3e 90 bd 95 75 48 3c 56 1f 57 bd e3 49 96 bc
       -0.07043176 0.012235065 -0.05252012 -0.018345779
0001d0 77 e8 47 bd cc 37 83 bd 16 c0 ba 3d 61 e8 68 3d
       -0.04880568 -0.06407127 0.09118669 0.05686224
0001e0 f1 72 9c 3d a4 f1 cb ba f6 58 8e bc 43 db 4e bc
       0.07639111 -0.0015559685 -0.017376404 -0.012625518
0001f0 f0 35 56 bd 0e 53 2e bd 16 b1 5c bc 12 45 66 bc
       -0.052297533 -0.042559676 -0.013469955 -0.014054554
000200 22 a8 a3 3d 7f 88 d2 3d d4 d4 0b bc 1c c6 a2 3d
       0.07991053 0.10279941 -0.008534629 0.079479426
000210 b6 02 79 3d 35 27 ae 3d 4d 32 64 bd 0b ef b2 3d
       0.0607936 0.08503572 -0.055712033 0.08737
000220 80 be 23 bd b6 ba b4 3d 6b be 8e 3d bd f6 a0 3d
       -0.039976597 0.08824675 0.06969913 0.078595616
000230 f4 3e 36 ba aa 54 b5 bc 34 f7 ad 3c c0 de 89 3d
       -0.000695213 -0.022135098 0.02123604 0.06731939
000240 8f 8c 6d bd 44 21 9b 3d b9 20 79 bd 9f ba e4 bc
       -0.057995375 0.07574704 -0.060822222 -0.02792102
000250 d4 e3 a9 3d 82 58 af 3d 6a e1 1e bc 13 12 e3 3d
       0.08295408 0.085618034 -0.009697298 0.11087432
000260 5c 3c 94 3d 73 53 1b 3d 10 5c 0d 3c 60 5c 9a 3d
       0.07238075 0.03792138 0.008627906 0.075371504
000270 dd 67 ad 3d d1 35 ba 3d fa 0f 00 bb 82 33 f4 bc
       0.08467076 0.09092296 -0.0019540773 -0.029809717
000280 b7 bf cd 3b 29 1b 4b bd bf bb c8 bd e7 bc ea bb
       0.0062789577 -0.04958645 -0.09801435 -0.007163632
000290 ed ab 04 3d 32 df e7 bc 8f d3 83 bd f6 c7 0e bd
       0.032390524 -0.02830467 -0.06436836 -0.034858666
0002a0 75 d8 b5 bd f9 a7 cb 3d ac d0 74 bd ff 58 96 3d
       -0.088791765 0.099441476 -0.059769318 0.073411934
0002b0 81 14 b4 ba 08 cc a1 bc 42 ab 05 bd 84 99 8d ba
       -0.0013739021 -0.01975061 -0.032634027 -0.0010803198
0002c0 f4 62 5b 3d db 68 8a 3d ae 90 a7 3d 8c 70 91 3b
       0.053561166 0.06758281 0.08181892 0.0044384655
0002d0 73 7e 30 bd 84 66 a7 3c 77 31 cc 3d fc b7 2b bd
       -0.04308934 0.020434625 0.09970372 -0.041923508
0002e0 96 30 55 bd 61 fb 9c 3d 82 fc 8b 3d c9 2e 70 bd
       -0.05204829 0.07665134 0.068352714 -0.058638368
0002f0 40 b7 6e 3c 27 52 a5 3d a7 82 7a 3d 59 0c df bd
       0.014570057 0.0807231 0.061159756 -0.10891027
000300 73 11 0f bd 67 b9 ce 3c a6 66 a8 bd 13 75 50 3d
       -0.03492875 0.025234891 -0.08222704 0.0508929
000310 65 76 0a 3d 9b d7 be 3c 6a ca c6 bd fd af 4a 3d
       0.033804316 0.023296168 -0.09706576 0.04948424
000320 ca db 85 3d 84 4e 0e 3d 68 7b bf bb 4b 1b a4 3d
       0.06536062 0.034742847 -0.0058435686 0.08013018
000330 9d 00 61 3d 0f 44 81 3d 4a 2c f5 3d ac 7a 59 bd
       0.054932225 0.06311809 0.11971338 -0.053095505
000340 8e f0 56 bd 24 4c 49 bd e9 1b a9 bc 4b 48 34 bd
       -0.052475505 -0.04914488 -0.020643191 -0.044014256
000350 eb 2b 00 3d 04 65 c5 3c bb 1e a1 3d 5b 42 03 be
       0.031291883 0.02409602 0.078671895 -0.12818281
000360 2d b7 9c bd db 53 b5 3c b5 f9 21 bd d8 b2 a2 bb
       -0.076521255 0.022134712 -0.03954478 -0.0049651675
000370 79 8b af bd 72 d5 e8 bd e8 af d5 3d c1 04 35 bd
       -0.08571524 -0.113688365 0.10433942 -0.044193987
000380 2f 0b c1 3d cb 53 53 3d 59 f7 b2 3d a2 7d c7 3d
       0.09425961 0.051593583 0.08738584 0.097407594
000390 fc 1d 7b 3d 9a 6e 70 3c 0a 2e 89 bd 50 85 9d bd
       0.061307892 0.014674807 -0.066982344 -0.07691443
0003a0 18 45 89 3d 3f df 27 bc 7c 83 bd 3d 32 4f 20 bd
       0.06702632 -0.010246097 0.09253594 -0.039138027
0003b0 09 70 83 bb 09 ea 3a bd 8f ba 18 3d fc a2 a5 3d
       -0.0040111584 -0.04563335 0.03728729 0.080877274
0003c0 ca 08 e5 3d ea 38 46 bd 7a bb 08 bc 1d 98 b4 bd
       0.11183317 -0.04839412 -0.008345479 -0.08818076
0003d0 9a c6 2a 3d aa df 9e 3d bf 92 92 3d 74 a0 b0 3d
       0.041693307 0.07757504 0.07156896 0.08624354
0003e0 db 5d 96 3d 6a 23 43 b9 b4 06 59 3d af 56 3e bc
       0.0734212 -0.00018609842 0.05298491 -0.011617347
0003f0 4d 70 97 3d cc da 38 3b b0 77 d1 bd 4a ec db bc
       0.073944665 0.0028206585 -0.10227907 -0.02684607

fc2.bias f4 [84]
000000 07 50 cf 3b 01 9f d8 bc 0c e6 0f bb b9 c6 83 bd
       0.0063266787 -0.026443006 -0.0021957187 -0.06434388
000010 08 88 81 3c 8e f6 09 3c 32 c4 76 bd b5 3e b7 3c
       0.015811935 0.0084206 -0.0602457 0.022368768
000020 22 b4 b8 3d b3 22 6c 3d 0b 2a 47 3c 21 fa 70 bd
       0.090187326 0.05765028 0.01215602 -0.05883229
000030 db 22 82 bd cd 0c ec 3c d5 46 9f 3c af 18 bf bd
       -0.063543044 0.028814698 0.019442955 -0.0933088
000040 52 b5 92 3d f2 98 91 3c f0 0b c7 3d cb a2 d4 bc
       0.0716349 0.017773125 0.09719074 -0.025956532
000050 a7 9f ab bb 94 86 cd bc 5c 3b 85 bd b8 84 a9 3d
       -0.005237538 -0.025088586 -0.065054625 0.08277267
000060 c4 2f 9d bd c8 6f 02 3d be ad 74 3d 25 02 83 3d
       -0.07675126 0.031844884 0.059736006 0.063968934
000070 1e 69 a2 3d 99 fb 04 bb 4e d4 7c bd 32 79 82 3d
       0.07930206 -0.0020291565 -0.061725907 0.063707724
000080 db 4a 94 bd 39 5d 49 bd 3c 2e 02 bd 52 ce 68 3d
       -0.0724084 -0.04916117 -0.031782374 0.056837387
000090 b8 df 2b bd 1e b5 66 bd fd 36 31 3d d5 ef 8f bd
       -0.0419614 -0.05632507 0.04326533 -0.07028166
0000a0 c6 6e 11 3d 73 ca 0e 3d b7 ee c4 3b 82 18 90 bd
       0.035506032 0.03486104 0.0060099023 -0.070359245
0000b0 e5 bb 86 3d c0 eb 97 bd b3 cc 93 3d 41 ef 0e bd
       0.06578807 -0.074180126 0.07216778 -0.03489614
0000c0 92 09 a7 bd f0 e3 42 3d f1 41 38 bc 03 d2 75 3c
       -0.08156122 0.04758066 -0.01124619 0.015003684
0000d0 42 8d fa bc 2f a0 6a bd f0 a6 77 bc d4 44 7d bd
       -0.030584935 -0.05728167 -0.015115485 -0.061833218
0000e0 9e 8f 7b bd 4b 36 17 bd 19 98 5c 3d a1 13 03 3b
       -0.06141626 -0.036917012 0.05385599 0.0020000713
0000f0 21 a3 1a 3d 1c 1a 47 3d 3f 36 b2 3d cb f7 a0 bb
       0.037753228 0.048608884 0.08701753 -0.0049123517
000100 bd 6b 00 3d b4 2a 39 bd 3f b9 ad 3d 85 c3 a5 3d
       0.031352747 -0.04520674 0.084825985 0.08093933
000110 b4 1f b4 3d 4e c4 93 bb 93 ea 8a bd 0f 57 a9 3c
       0.087951094 -0.0045094853 -0.06783023 0.020671396
000120 8b 10 8a 3d b5 97 d8 3c 35 0e 0c 3d b7 8e bd 3b
       0.067414366 0.026439527 0.034193236 0.005784835
000130 06 63 21 3c 17 dc 5e 3d 1b 5c b6 3d 7e 98 aa 3d
       0.009850269 0.054409113 0.089042865 0.08329867
000140 d5 cb b6 3c f1 ec 5e bd 37 e3 1c bd fa 3a a4 bb
       0.022313992 -0.054425184 -0.038302626 -0.0050119134

fc3.weight f4 [10, 84]
000000 75 c6 c4 bd 60 c1 ea 3d 40 4a 5a bd 28 2b 88 bd
       -0.09608165 0.114626646 -0.053293467 -0.066488564
000010 72 b8 08 3d 52 03 c0 bd e6 69 88 3d a7 0d 1e bd
       0.033379026 -0.09375633 0.066608235 -0.03858724
000020 cf 76 3a bd 56 64 54 3d ec 16 04 3e 4a 36 e7 3c
       -0.04552346 0.0518535 0.12899369 0.02822413
000030 aa 66 26 3e 24 d8 27 be d3 07 9e 3c dd 5d 45 3d
       0.162501 -0.16391045 0.01929084 0.048185218
000040 04 eb ad bd 49 2e 71 be 02 6b 08 be c9 47 5d bc
       -0.08492091 -0.23552813 -0.1332207 -0.013505884
000050 41 67 7f 3d 39 e8 f6 3d dc 11 37 3b 82 1f 92 bc
       0.06235433 0.12056012 0.002793423 -0.01783729
000060 e1 43 62 3d 5d 7d 2d 3e 8f bb 66 bc b8 01 82 be
       0.055240516 0.16942354 -0.014082803 -0.25391936
000070 54 38 5b 3e 2b 72 1e bd 06 04 bd 3c a9 24 49 3d
       0.21408206 -0.038683098 0.023073208 0.049107227
000080 7c 44 af 3d 28 d7 28 3d 69 54 6f 3d cc 26 f1 bd
       0.08557984 0.041220814 0.05843011 -0.11774978
000090 a0 e6 9b bd 0b 61 c5 bd 15 33 55 bd 65 07 02 be
       -0.076123476 -0.0963765 -0.05205067 -0.12698133
0000a0 26 c3 83 bc 88 5f a4 bd bf 4c 37 3e 4f 71 bd bd
       -0.016084265 -0.08026034 0.1790037 -0.092501275
0000b0 34 39 8d 3d b1 1d fc bc 32 e2 4a 3e da 04 ab 3d
       0.06895676 -0.030775877 0.19812849 0.08350535
0000c0 75 8d 27 3e 80 15 67 3d 40 3e 9c bd aa df 8e 3d
       0.16362555 0.05641699 -0.07629061 0.06976254
0000d0 3e dd b1 bb 31 dd e7 bd 63 fb 48 bd 2b b5 fe bd
       -0.0054279855 -0.11321486 -0.049067866 -0.12436899
0000e0 9e 34 93 3d c5 bf e1 3d b0 8e 80 3d 80 67 8a bd
       0.0718777 0.11022905 0.062772155 -0.06758022
0000f0 2e ed f3 39 1e b4 c5 bd 12 18 d4 3c a4 b5 85 bd
       0.00046525284 -0.09653495 0.025890384 -0.06528786
000100 0b 3b a4 3d 55 69 81 bd 8c 1c e4 bd b1 0f 78 3d
       0.08019074 -0.063189186 -0.111382574 0.06056184
000110 82 65 70 3d ca 0e 02 bd 03 77 8e 3d f4 0a 13 be
       0.058690555 -0.031752385 0.069562934 -0.14359647
000120 81 5b 63 3e d1 5f e5 bd f4 ae b5 3d 25 31 7a 3d
       0.22202875 -0.11199916 0.0887126 0.061082024
000130 25 8e 96 bd 23 69 de bd 5d c3 24 be 41 7e 3d 3d
       -0.07351331 -0.10859897 -0.1609015 0.046262983
000140 8a 19 22 bd f8 27 85 bd c5 71 f5 3d 9d 79 bc 3d
       -0.039575137 -0.06501764 0.119845904 0.092028834
000150 4f d7 35 bd d6 e8 eb 3d 1a e7 75 bd 75 45 cb bd
       -0.044394787 0.11519019 -0.06003485 -0.09925357
000160 8c 6d 30 3d bc 22 80 bd e0 ec 41 3d e5 ed d4 3d
       0.043073222 -0.06256625 0.047345042 0.10396937
000170 55 60 0e 3e 88 e5 b5 3d bc e8 e0 3c cb ed ac 3d
       0.13903935 0.0888167 0.027454726 0.08443793
000180 51 6c 6d bd c7 d6 25 3d e1 ab b1 bd 0a ff 94 3d
       -0.057964627 0.04048803 -0.086753614 0.07275207
000190 74 94 6f bd a2 5d 34 3e 9f e2 71 3e 80 b5 a1 3d
       -0.058491185 0.17613843 0.23621605 0.078959465
0001a0 2f 41 8f 3a 89 e0 05 3e 95 42 3b bd ce 39 6e bd
       0.001092946 0.13073935 -0.045717794 -0.058160596
0001b0 3f 42 a1 3c 35 e5 b1 bd b0 0e bd bc 52 d3 14 3e
       0.019684909 -0.08686296 -0.023078293 0.14533737
0001c0 08 f4 21 3d ae 67 6b bd 9b 0b d9 bd d2 72 fc 3d
       0.039539367 -0.057471924 -0.10597917 0.12326588
0001d0 94 90 2a bd cc 0e 74 3b b9 14 de 3d 88 0f 15 be
       -0.041641787 0.0037240265 0.10843796 -0.14556706
0001e0 da 4e f9 3c ab 4d b9 3d 66 35 41 3d 11 be aa bd
       0.030433107 0.09048017 0.047170065 -0.083370335
0001f0 08 c7 22 3e 5c bc 4c bd 7e b2 8b be 54 42 95 3d
       0.15896237 -0.04998432 -0.27284616 0.07288042
000200 96 24 eb bd 5d 42 cc bd 28 5c 3d 3d 03 e6 3b bd
       -0.114815876 -0.09973595 0.046230465 -0.045873653
000210 34 bb ad bd 2c 4a 08 3d c1 f4 32 3b 11 32 39 bd
       -0.08482972 0.03327386 0.002730653 -0.045213763
000220 cf ba c2 3d 19 6d 87 bd a6 ee 9a bd 3c 54 ff 3c
       0.09508287 -0.066126056 -0.0756505 0.031168096
000230 a5 7d ac 3c b2 f3 de bd a9 56 9c bd 1c 0e 1e be
       0.021056006 -0.10886325 -0.076337166 -0.1543507
000240 1d 0d 28 3e ee 8e 02 bd 5d 26 9e bd b0 fb 69 be
       0.16411252 -0.03187459 -0.07722161 -0.22849917
000250 93 f7 1c be 87 a8 ec bd b8 1b a6 3d 66 bb 48 3d
       -0.15328817 -0.115555815 0.08110756 0.049006842
000260 8b 31 39 3d 55 c2 11 bc 33 15 c7 bc 50 10 00 3e
       0.045213263 -0.00889643 -0.0243021 0.12506223
000270 72 6e cd 3d 56 f9 a2 3d ad 3d ba bd e8 b1 a1 3d
       0.100308314 0.07957713 -0.09093795 0.07895261
000280 49 22 8f bd 64 ac 72 3e 10 3f 89 3b b1 5d cc bd
       -0.06988961 0.23698574 0.004188426 -0.09978808
000290 72 01 88 3d f0 3d b5 3b 18 b1 af 3d 97 66 fd bd
       0.06640901 0.005531065 0.085787 -0.12373083
0002a0 8c e7 f0 3d 79 42 20 3e 13 cc 0a 3c 00 be 07 bd
       0.11762914 0.15650357 0.008471507 -0.033140182
0002b0 26 b6 36 3e 9d 87 20 3c e2 ea 9b 3d e7 c2 82 3c
       0.17842922 0.009797958 0.0761316 0.015962077
0002c0 6e 20 34 be 0d f5 3b 3d d2 80 7a bd f1 72 be 3d
       -0.17590496 0.045887996 -0.06115801 0.09299267
0002d0 63 9c 23 bd 9f 94 70 3e 65 74 4d 3d bd 68 c3 bd
       -0.039944064 0.23494194 0.05015983 -0.095414616
0002e0 3d 1b fa bd 1a ff 8a 3d 5b 4b 2f bd 90 4c ed bd
       -0.122122265 0.06786938 -0.042796474 -0.11586869
0002f0 59 64 ee 3d b5 c6 07 be f4 9d fb bd 05 51 33 3e
       0.116402335 -0.13259394 -0.122859865 0.17511375
000300 90 9d 60 bc ce 39 43 3e d1 e2 6e 3c b6 c3 f5 bb
       -0.013709441 0.1906502 0.014580444 -0.007500137
000310 2d 18 23 be 2e 7e 08 bc 1f 3f 03 be af 7a dc bd
       -0.15927191 -0.008330865 -0.12817048 -0.107655875
000320 9c a4 8a 3d ef c8 d8 3d 40 9f a8 bd 25 03 96 bd
       0.06769678 0.105852 -0.082334995 -0.073248185
000330 4c c4 20 3e 9e 90 22 bd 00 44 d7 bc bd 41 de bd
       0.15699881 -0.0396887 -0.026277542 -0.10852382
000340 35 4d ff bd a1 f2 ba 3d 57 cf 8b 3d 95 82 38 be
       -0.12465898 0.09128309 0.06826656 -0.18018563
000350 cb e1 5f 3c ba 13 a6 3d 8f a7 18 3e aa 64 7f 3d
       0.013664673 0.08109231 0.14907669 0.06235186
000360 4f 94 72 3d a0 da b3 ba 20 61 f3 3d 08 56 11 3e
       0.05922347 -0.0013721772 0.118837595 0.14192975
000370 01 22 75 3d 9f 60 55 bd 77 01 20 bc d8 90 25 be
       0.05984688 -0.0520941 -0.009765974 -0.16168535
000380 42 c4 08 3e 0c 59 80 3d 87 4c 0c 3d e4 5b e0 bd
       0.13356116 0.06266984 0.03425267 -0.10955027
000390 6d 6b 22 3e 5c 48 9c bd f9 aa 6d b9 31 35 0a be
       0.15861292 -0.07630989 -0.00022665774 -0.13496853
0003a0 80 3e fa 3c 8c 52 37 3e 94 09 a0 3d f8 91 93 bd
       0.03054738 0.17902583 0.07814327 -0.07205576
0003b0 73 17 db 3d c5 46 3e 3c f9 f3 f3 3c f9 e0 b4 3d
       0.10697832 0.011613552 0.029779421 0.08831973
0003c0 4b eb 5a bd 9e b5 4b be 9e 70 88 bd 72 64 eb bd
       -0.05344705 -0.198935 -0.06662105 -0.11493768
0003d0 6f c8 2d 3d 69 fd fd bd 1c 8d 4c 3e 4a 30 98 3d
       0.042427476 -0.1240185 0.19975704 0.074310854
0003e0 c9 2e 8c 3d 74 86 16 bc 1e 0e ea 3d 2d ce 7e bd
       0.06844861 -0.00918733 0.11428474 -0.062208343
0003f0 5b 68 c7 bd f1 13 f3 bd 6c a3 c0 bc 87 92 80 bc
       -0.09736701 -0.11869038 -0.023515426 -0.01569487

fc3.bias f4 [10]
000000 59 22 f1 bd e8 ea ae bc c6 e4 c7 bc 0b 73 40 3d
       -0.117741294 -0.021352246 -0.02440108 0.046984714
000010 9d 71 b8 3d 5d 38 6c 3d 81 94 63 bd 60 68 bf bc
       0.09006045 0.05767094 -0.055561546 -0.0233652
000020 37 80 49 bc 57 b6 e1 3b
       -0.012298635 0.0068881917
