PyCharmWorkshop/AI/Projects/Project3/checkpoints/LeNet5/epoch-5.pth (torch, 243143 bytes, 10 tensors)

conv1.weight f4 [6, 1, 3, 3]
0	0x3eca8687	0.3955576
1	0x3da0a6b2	0.078442946
2	0x3e2ce542	0.1688433
3	0xbe0795e2	-0.1324077
4	0x3e818c68	0.25302434
5	0xbe6430b4	-0.22284204
6	0x3e37fcbd	0.17967506
7	0x3ee56500	0.4480362
8	0xbe5d57ff	-0.21615599
9	0x3dd1d9ba	0.10246606
10	0x3ee7ac4a	0.45248634
11	0xbdf98447	-0.12183433
12	0x3ee32812	0.4436651
13	0x3ef284a8	0.47366834
14	0x3b098baf	0.00209878
15	0x3d5e0167	0.054200556
16	0x3e00b2f6	0.12568268
17	0x3ec4d075	0.3844029
18	0xbe7ee2c2	-0.24891189
19	0xbe52b470	-0.20576644
20	0xbc815cd3	-0.015791332
21	0x3db1da51	0.08684219
22	0x3e912e2d	0.28355542
23	0x3de69d5f	0.11260485
24	0x3e8ba812	0.27276665
25	0x3db22274	0.08697978
26	0x3eb9df10	0.36302996
27	0x3cb3dabc	0.021954887
28	0x3f0eb410	0.55743504
29	0x3f21691f	0.6305103
30	0x3f3e0a31	0.742343
31	0x3ec92387	0.39284918
32	0x3ed76247	0.42067167
33	0x3f1d30cf	0.614026
34	0x3e326864	0.17422634
35	0xbe867736	-0.26262826
36	0x3ef9b8d7	0.48773834
37	0x3e68eb3e	0.22745988
38	0xbe72cc66	-0.23710784
39	0x3eab2d14	0.3343283
40	0x3f4131c6	0.75466573
41	0x3e182ac3	0.14860062
42	0x3f335c92	0.70063126
43	0x3f4e2dd2	0.80538666
44	0x3e9aad75	0.30210462
45	0x3eadc967	0.3394272
46	0xbda4b539	-0.08042378
47	0x3f0755d4	0.5286534
48	0x3efd4834	0.4946915
49	0xbe2cef96	-0.1688827
50	0x3efb16d7	0.49040863
51	0x3e8d555e	0.27604192
52	0xbeb3a6da	-0.35088235
53	0xbea9485c	-0.33063018

conv1.bias f4 [6]
0	0x3e72f817	0.23727451
1	0xbe0cc209	-0.13745894
2	0xbe7fa1ca	-0.24964061
3	0x3ee23ec8	0.44188523
4	0x3e9fe050	0.31225824
5	0x3df985b4	0.12183705

conv2.weight f4 [16, 6, 3, 3]
0	0x3e0879d0	0.13327718
1	0x3d31e5ab	0.04343192
2	0x3d1239df	0.03569972
3	0xbb0957cc	-0.0020956872
4	0xbc7a3376	-0.015271058
5	0x3df4d514	0.11954704
6	0x3c6d9298	0.014500283
7	0x3dbf4550	0.09339392
8	0x3dee8918	0.11647242
9	0xbc93b529	-0.01803072
10	0xbe0c5344	-0.13703638
11	0xbcd8b37f	-0.026452778
12	0xbcb9043b	-0.022585025
13	0xbe1b8684	-0.15188032
14	0x3e0fa73d	0.1402864
15	0xbdc436b9	-0.0958075
16	0xbde10b56	-0.1098849
17	0xbd8511d5	-0.06497542
18	0x3df26118	0.118349254
19	0xbe15c69b	-0.14626543
20	0xbd98818d	-0.07446585
21	0xbd96dd5e	-0.07366441
22	0x3db87629	0.09006912
23	0x3e2a17ea	0.16610685
24	0xbcdbc892	-0.026829038
25	0x3ceac1c6	0.028656852
26	0x3ded4412	0.11585249
27	0x3d6e76f7	0.058218922
28	0xbe04d23c	-0.12970823
29	0xbe2eb878	-0.17062557
30	0x3dbfad66	0.09359245
31	0xbda41001	-0.08010865
32	0x3e52931b	0.20563929
33	0xbe016d53	-0.1263936
34	0x3e01fcc3	0.12694077
35	0x3e0ce5d0	0.13759542
36	0x3d8d1d15	0.068903126
37	0xbd02db62	-0.0319475
38	0xbdfced9d	-0.12350009
39	0xbdc5d4ea	-0.09659751
40	0xbe236059	-0.15954722
41	0xbcfdb1fa	-0.030968655
42	0x3db06c6f	0.08614432
43	0xbbe0ae0f	-0.006856687
44	0xbc63d89f	-0.013906627
45	0x3c0969e5	0.008387064
46	0xbc82cfa6	-0.015968155
47	0x3c3d9123	0.011570248
48	0x3de2c1d5	0.11072127
49	0xbd9ba9eb	-0.07600769
50	0x3ded9646	0.11600928
51	0xbdff1f5b	-0.124571525
52	0xbd8b7c75	-0.06810848
53	0x3dfde943	0.12398007
54	0x3e5b65e1	0.21425582
55	0x3e17126c	0.14753121
56	0xbd706164	-0.05868663
57	0x3bb978d8	0.0056601577
58	0xbc68ace8	-0.01420138
59	0x3ddb1d93	0.10699
60	0x3e0ab4a5	0.13545473
61	0x3dae3b1d	0.08507369
62	0xbdfe7b0a	-0.124258116
63	0xbd6d4c1f	-0.057933923
64	0xbd9f8491	-0.07788957
65	0xbdde462f	-0.1085323
66	0x3e393fc9	0.18090738
67	0x3d7caa8b	0.06168608
68	0xbe140d78	-0.14458263
69	0x3e162d41	0.146657
70	0x3cb07882	0.021541838
71	0x3e0c4c9b	0.13701098
72	0xbcad517b	-0.021157017
73	0xbe0f7866	-0.14010772
74	0xbdba0848	-0.09083611
75	0xbdbd4c68	-0.09243089
76	0xbcd04471	-0.02542326
77	0xbdb36ec8	-0.08761364
78	0xbdb422f1	-0.08795727
79	0xbd510770	-0.051032484
80	0x3e06a8ef	0.1315038
81	0x3e726953	0.2367299
82	0xbdd943c5	-0.10608629
83	0xbe9e8d7b	-0.30967316
84	0x3df7560a	0.120769575
85	0x3d9a2077	0.075257234
86	0xbd7e9545	-0.062154073
87	0xbd4c3da0	-0.049863458
88	0x3e19c977	0.15018259
89	0x3cd6f8f3	0.026241755
90	0x3e93ad70	0.2884326
91	0x3cb01505	0.021494398
92	0xbe93c48c	-0.2886089
93	0x3e49e900	0.19717789
94	0x3d08457c	0.03326939
95	0xbd8a9bf7	-0.06768029
96	0x3e914af0	0.28377485
97	0x3e9a420b	0.30128512
98	0x3db1514d	0.08658085
99	0xbda96317	-0.08270853
100	0x3cc41c63	0.023939317
101	0xbd40c2f5	-0.047060926
102	0x3daa20c6	0.08307032
103	0x3d374616	0.044744574
104	0xbd92e429	-0.07172424
105	0x3d4eebf9	0.05051801
106	0x3e0f41df	0.13989972
107	0x3e2b37ad	0.16720457
108	0xbe001960	-0.1250968
109	0x3dc2c358	0.09509915
110	0xbbc130e8	-0.0058957227
111	0xbd18dd2d	-0.037320305
112	0xbd8ded0e	-0.0692998
113	0x3bf1985e	0.0073729
114	0xbd06ae18	-0.032880872
115	0x3e12b9d2	0.14328697
116	0x3c83b9f8	0.016079888
117	0xbe10dd04	-0.14146811
118	0xbbaf49ea	-0.0053493874
119	0x3d39632e	0.0452606
120	0xbdd9320e	-0.1060525
121	0x3df0120c	0.11722192
122	0xbc75ca8f	-0.015001907
123	0xbdeb400b	-0.114868246
124	0xbca0f3ac	-0.019647442
125	0xbd8ecb7d	-0.06972406
126	0xbc92a26c	-0.017899714
127	0x3da03bce	0.07823907
128	0xbe003e8e	-0.12523863
129	0x3de5f176	0.11227696
130	0x3d9a7913	0.07542624
131	0xbdd2e565	-0.1029766
132	0x3d9c09b6	0.0761904
133	0xbc5b75e3	-0.013394806
134	0xbda72ac5	-0.081624545
135	0xbe0b762e	-0.136193
136	0x3d924885	0.07142738
137	0xbc9f3bc0	-0.01943767
138	0xbd26ca9b	-0.040720563
139	0x3d2f2aa5	0.04276528
140	0x3e3c5c62	0.18394616
141	0xbddcaa3f	-0.10774659
142	0x3e1e147f	0.15437506
143	0xbd84f303	-0.06491663
144	0xbe48c01d	-0.19604535
145	0x3d9be796	0.07612531
146	0x3dcc52e3	0.09976747
147	0xbe5ada65	-0.21372373
148	0x3e11c3d6	0.14234862
149	0xbce7e0b2	-0.028305385
150	0x3da803be	0.08203839
151	0x3e6cc547	0.2312213
152	0x3e1784fa	0.1479682
153	0xbe029b59	-0.12754573
154	0x3dd0830f	0.101812474
155	0x3d3266ae	0.043554954
156	0x3cc4f1ae	0.024041023
157	0x3db38161	0.087649114
158	0x3b27e9db	0.0025621566
159	0xbdcc23c1	-0.09967757
160	0x3d3fecee	0.046856813
161	0x3e09f716	0.13473162
162	0x3db7cfc8	0.08975178
163	0x3db89d96	0.09014432
164	0x3e01e0cc	0.1268341
165	0x3deea823	0.11653163
166	0x3e078027	0.1323248
167	0x3c5676ca	0.013089845
168	0xbe02198d	-0.1270506
169	0x3cfb7429	0.030695038
170	0xbb3b871a	-0.0028614462
171	0x3da15fbb	0.07879587
172	0xbd5b3759	-0.05351958
173	0x3dc25ec3	0.094907306
174	0xbd142bae	-0.03617447
175	0x3bb8d5f2	0.0056407386
176	0x3cbe84e4	0.023256727
177	0x3dbfcf79	0.09365744
178	0x3c7fd6bf	0.015615164
179	0x3de4e662	0.111767545
180	0xbd968813	-0.07350173
181	0xbdd16f75	-0.10226337
182	0xbdf5a4c2	-0.11994316
183	0xbcc56706	-0.024096977
184	0x3d9e0d91	0.07717431
185	0xbbe6a3a0	-0.0070385486
186	0x3ddc7bcf	0.10765802
187	0x3cbfbe94	0.023406304
188	0xbd07d876	-0.033165418
189	0x3de78613	0.113048695
190	0x3c7470ed	0.014919502
191	0x3caf1cf1	0.021376105
192	0xbe090ffb	-0.13385002
193	0x3cab5572	0.020914767
194	0xbdde8921	-0.10865999
195	0xbc9e9fe9	-0.01936336
196	0x3e07910e	0.13238928
197	0xbddc0073	-0.10742273
198	0x3dcbd47f	0.0995264
199	0x3cc33a2f	0.023831455
200	0x3da8edfc	0.08248517
201	0xbc0f2bb6	-0.008738449
202	0x3e141019	0.14459266
203	0x3e2628de	0.16226527
204	0x3d9d407f	0.07678317
205	0x39fe6b3a	0.00048526545
206	0x3d827365	0.06369666
207	0xbdb618f5	-0.08891479
208	0xbdd42273	-0.10358133
209	0x3d92aa7a	0.07161422
210	0xbdfb8370	-0.12280929
211	0x3db37396	0.08762281
212	0x3d5082aa	0.05090586
213	0xbe0f431f	-0.13990448
214	0xbc673ea8	-0.0141140595
215	0xbdbef431	-0.093239196
216	0xbc70ecdc	-0.014704909
217	0x3d38e20a	0.045137443
218	0x3cbac650	0.02279964
219	0x3dc89fe8	0.09796125
220	0x3e33ec68	0.1757065
221	0x3d6c6048	0.05770901
222	0xbd83cfd6	-0.06436126
223	0x3cfb63f9	0.03068732
224	0x3c9fd100	0.019508839
225	0xbda11bb3	-0.07866611
226	0x3dcde95f	0.10054278
227	0x3e010694	0.12600166
228	0xbd6f0614	-0.058355406
229	0xbd06d369	-0.03291646
230	0xbd3866c2	-0.045019872
231	0x3e4d03ec	0.20021027
232	0x3d250ce8	0.04029551
233	0x3d5642c4	0.052309766
234	0xbc633a56	-0.013868889
235	0xbd873be8	-0.06603223
236	0x3d11659b	0.03549729
237	0x3d4b6142	0.0496533
238	0x3d113b6f	0.03545707
239	0x3cf466bb	0.029834142
240	0x3df96b1a	0.12178631
241	0xbd0a301c	-0.033737287
242	0x3dcf9e07	0.10137563
243	0xbd3187b7	-0.04334232
244	0x3e824d63	0.25449666
245	0x3dcfd874	0.10148707
246	0x3e5d1cd9	0.21593036
247	0xbcd9b40b	-0.026575109
248	0x3d536504	0.051610008
249	0x3d2dfeee	0.042479448
250	0xbcb75f48	-0.0223843
251	0xbcbfd09f	-0.023414908
252	0xbd68c4a1	-0.056828145
253	0x3e0797da	0.1324152
254	0x3e38de88	0.18053639
255	0x3e1fa237	0.15589224

conv2.bias f4 [16]
0	0xbd609776	-0.054831944
1	0xbd837734	-0.064192206
2	0x3ac1676d	0.0014755555
3	0xbca07697	-0.019587798
4	0xbc20c258	-0.00981196
5	0x3d9e0832	0.07716407
6	0xbdd12c66	-0.102135465
7	0x3cb76bbc	0.022390239
8	0x3e1335b0	0.14375949
9	0xbc99b511	-0.018763097
10	0x3dcd7061	0.100312
11	0xbdfd1e43	-0.123592876
12	0xbdd53c0f	-0.10411846
13	0x382acd16	4.072216e-05
14	0x3c94d359	0.018167185
15	0xbc12e941	-0.008966745

fc1.weight f4 [120, 400]
0	0xbc73ad98	-0.014872931
1	0xbd04cba8	-0.032420784
2	0xbcc93ea2	-0.024565998
3	0x3cc76ecb	0.024344822
4	0x3d4dd9ea	0.050256647
5	0xbd55b7f4	-0.052177384
6	0xbb8030f4	-0.0039120857
7	0x3b98e680	0.0046661496
8	0x3cb95848	0.022625104
9	0x39c9b35a	0.00038471335
10	0x3d2f368c	0.04277663
11	0x3d26abff	0.040691372
12	0x3b42336b	0.0029632698
13	0xbd47e69e	-0.048803918
14	0x3c7fc156	0.01561006
15	0x3ce12cca	0.027487177
16	0xbc908a6b	-0.017644128
17	0xbd7873db	-0.060657363
18	0x3c9e8c59	0.019354032
19	0x3ce2b017	0.027671857
20	0x3bda6eee	0.006666056
21	0x3bbee1a5	0.005825239
22	0xbc0f639d	-0.008751777
23	0xbc197388	-0.009365924
24	0xbd3ef409	-0.04661945
25	0x3d2975ab	0.041371983
26	0x3c9ce590	0.019152433
27	0xbd56b37c	-0.052417263
28	0xbcc481b9	-0.023987638
29	0x3c0a47d1	0.008439974
30	0xbd238eb9	-0.039931033
31	0xbcb3e3c8	-0.0219592
32	0x3cc55e1a	0.024092723
33	0x3d361fa4	0.04446377
34	0xbcec5141	-0.028847339
35	0x3caee727	0.021350456
36	0x3c8d811f	0.017273484
37	0x3d776861	0.060402278
38	0x3bcb7960	0.0062095374
39	0xbc95d3fd	-0.01828956
40	0x3be9fd12	0.007140764
41	0x3ca672e0	0.020318449
42	0x3ba83605	0.0051333928
43	0x3d80c96d	0.06288419
44	0x3d6140dc	0.054993495
45	0xbd2f4b14	-0.04279621
46	0xbd1f8b27	-0.038951065
47	0xbd2c79ea	-0.042108454
48	0xbd7d73dc	-0.06187807
49	0xbc616632	-0.013757275
50	0x3d3127b9	0.043250773
51	0x3c81a803	0.015827185
52	0xbc010b66	-0.007876253
53	0x3cd5bac9	0.026090043
54	0x39ae2de8	0.0003322207
55	0xbd20cfd7	-0.03926071
56	0x3d1b5569	0.03792325
57	0xbcc1def1	-0.023665877
58	0x3d59a8dc	0.053139552
59	0xbb124ea2	-0.00223247
60	0x3ccb9e61	0.024855794
61	0xbd287c77	-0.041134324
62	0xbd4187e4	-0.047248736
63	0x3d80dd98	0.06292266
64	0xbcdac7fd	-0.02670669
65	0x3c640720	0.013917714
66	0xbd13d264	-0.036089316
67	0x3b37ca0c	0.0028044013
68	0xbce72a02	-0.028218273
69	0xbcb2129f	-0.021737395
70	0xbceac8e7	-0.02866025
71	0xbd59a6bb	-0.053137522
72	0x3c589a27	0.0132203465
73	0xbc991e80	-0.018691301
74	0xbc7d2cca	-0.015452573
75	0x3cd35c04	0.025800712
76	0x3cee44a9	0.029085474
77	0xbd10ed80	-0.035382748
78	0x3cdb8a5f	0.026799379
79	0x3ce89b9f	0.028394518
80	0xbd0d4d95	-0.034497816
81	0xba06fdd7	-0.00051495194
82	0x3d2b53e2	0.041828044
83	0xbba3106d	-0.0049763233
84	0xbca27ff7	-0.019836409
85	0x3d14eb33	0.036357116
86	0xbd2e58e4	-0.04256524
87	0x3cff143a	0.031137574
88	0xbc9dff34	-0.01928673
89	0x3c17c814	0.009264011
90	0xbc7726c7	-0.015084929
91	0x3aa66f01	0.0012697877
92	0x3ba63c99	0.005073142
93	0x3d2f3903	0.04277898
94	0xba0c6b97	-0.00053566083
95	0xbc150728	-0.009095944
96	0xbb3cb12d	-0.0028792128
97	0x3ca8544b	0.020548007
98	0xbce2625d	-0.027634794
99	0xbbc9c559	-0.006157559
100	0xbcc7a666	-0.024371337
101	0xbcf880a6	-0.030334782
102	0x3ce12691	0.02748421
103	0xbc0a0d97	-0.008426092
104	0xbd68dfd1	-0.056854073
105	0xbd1d5481	-0.038410667
106	0xbd26d671	-0.04073185
107	0xbc873196	-0.016503137
108	0x3c063769	0.008191922
109	0x3b1e81d0	0.002418626
110	0xbd629583	-0.055318367
111	0x3b5f2a5c	0.0034052348
112	0x3b93f7e7	0.0045156362
113	0xbc3e2cf5	-0.011607398
114	0x3cb3274b	0.021869322
115	0x3cf0573c	0.029338472
116	0x3d383d57	0.044980373
117	0xbd02b8dd	-0.03191458
118	0xbc9f65cb	-0.019457718
119	0xbd3e253e	-0.046422236
120	0x3d277a31	0.040888015
121	0x3c06dc04	0.008231167
122	0xbcb50cf5	-0.022100905
123	0xbd4c0041	-0.04980493
124	0x3d3e1766	0.046409033
125	0x3ce2ab4f	0.027669577
126	0x3c7a9dfc	0.0152964555
127	0xbc137d5b	-0.009002055
128	0xbaf42b09	-0.0018628548
129	0x3a9f7a7f	0.0012167244
130	0xbd1023f7	-0.03519055
131	0x3cd9ed02	0.026602272
132	0x3d0eee0a	0.03489498
133	0x3d6d5804	0.057945266
134	0xbd15fd58	-0.03661856
135	0x3ca98c19	0.020696687
136	0xbc35b1b5	-0.011089732
137	0x3c41bf36	0.011825373
138	0x3d3eeea7	0.046614315
139	0xbc8e3329	-0.01735838
140	0x3d6a5799	0.057212446
141	0x3d16642f	0.036716636
142	0x3d16cfaa	0.036819138
143	0x3c353319	0.011059546
144	0xb926ea1c	-0.00015918206
145	0x3d4e8031	0.05041522
146	0xbd111ff3	-0.03543086
147	0x3cc1ae30	0.02364263
148	0x3d5fe750	0.054663956
149	0x3d2ea2ed	0.042635847
150	0x3d2a02ee	0.0415067
151	0x3c2c8ef0	0.010532126
152	0xbca95652	-0.020671044
153	0xbc09a7bc	-0.008401807
154	0xbc7988e3	-0.01523039
155	0xbce032de	-0.027368005
156	0x3b8a4578	0.004219707
157	0x3c46b600	0.012128353
158	0xbc189bf1	-0.009314523
159	0x3d1083c1	0.0352819
160	0xbd32b5ce	-0.043630414
161	0xbc439f27	-0.0119398
162	0xbcce0f8e	-0.025153901
163	0xbcf3c267	-0.029755784
164	0xbd24eb9b	-0.040263753
165	0x3cb7fd0b	0.022459527
166	0x3b877944	0.004134329
167	0xbbf52709	-0.00748146
168	0x3d5b8b1e	0.05359947
169	0xbc7e4258	-0.015518747
170	0x3c0cdf57	0.00859817
171	0xbd39c42c	-0.0453531
172	0x3c30416b	0.010757784
173	0x3d18d8ca	0.03731612
174	0x3d34de03	0.04415704
175	0x3d0d9072	0.034561582
176	0xbd3580c2	-0.044312246
177	0x3d47e2b7	0.048800196
178	0xbc123d0d	-0.008925688
179	0xb8905676	-6.88256e-05
180	0x3ccf586f	0.025310723
181	0x3b4362da	0.0029813559
182	0xbd4c91b5	-0.049943645
183	0xbb05c22f	-0.0020409932
184	0x3d2ccde3	0.042188536
185	0x3c9b063e	0.018923875
186	0x3cda1c95	0.026624957
187	0x3d754bd3	0.059886765
188	0x3d1c7cb4	0.038204864
189	0x3c9f9233	0.019478893
190	0x3d39857d	0.04529332
191	0x3c4c9d90	0.012488738
192	0x3c06c311	0.008225218
193	0x3c33d941	0.01097709
194	0xbd12e4df	-0.0358628
195	0xbd4bd138	-0.049760073
196	0xbd0ef63c	-0.034902796
197	0xbbbac5d3	-0.005699852
198	0x3b5b866b	0.0033496867
199	0xbceaf5c2	-0.02868164
200	0xbc624f40	-0.01381284
201	0x3d363d7a	0.044492222
202	0xbb484c9a	-0.0030563236
203	0xbd0f1df8	-0.03494069
204	0xbc480075	-0.01220714
205	0xbd294f5b	-0.041335445
206	0xbacfdd01	-0.0015858711
207	0xbccf8f91	-0.025337012
208	0x3d278c94	0.04090555
209	0xbd019bfb	-0.031642895
210	0xbd01ab87	-0.03165772
211	0x3d1107c4	0.035407797
212	0x3d5fb38c	0.05461459
213	0xbbf71ed7	-0.007541518
214	0xbc48a785	-0.012246971
215	0x3ca3346e	0.019922461
216	0x3d1fee11	0.039045397
217	0xbc5eab08	-0.013590582
218	0x3d4ecb67	0.05048695
219	0x3c3062e6	0.010765767
220	0xbd3f52be	-0.04670977
221	0xbcd7567d	-0.026286358
222	0x3d425075	0.04744001
223	0xbc8a3de4	-0.016875215
224	0x3c782866	0.0151463505
225	0xbc773dee	-0.015090449
226	0x3bcd12c2	0.0062583396
227	0xbd0e3467	-0.034717944
228	0xbbdb1f4f	-0.006687082
229	0x3c7c1595	0.015386005
230	0xbce7018f	-0.028198985
231	0xbd044fa3	-0.03230251
232	0x3babfd70	0.005248718
233	0x3d00fe45	0.03149249
234	0x3ccbd94d	0.02488389
235	0xbbe85e97	-0.007091354
236	0xbcb6e642	-0.022326592
237	0xbd32ec0a	-0.043682136
238	0xbd2a226f	-0.041536745
239	0xbd8686a3	-0.06568649
240	0x3c38be4f	0.011275842
241	0x3d4d2f3c	0.050093874
242	0xbcd3583b	-0.025798908
243	0x3d4546a3	0.048163068
244	0xbd138b63	-0.0360216
245	0xbd05483d	-0.032539595
246	0x3d20eb10	0.039286673
247	0xbd10c0e3	-0.0353402
248	0x3c8d6c38	0.017263517
249	0xbc4eaa79	-0.012613886
250	0xbd5e321d	-0.05424701
251	0x3bd5783d	0.0065145777
252	0x3c5ebce2	0.013594838
253	0xbcd0e134	-0.02549801
254	0x3d403865	0.046928782
255	0x3cdb11dd	0.026741916

fc1.bias f4 [120]
0	0xbd177a05	-0.0369816
1	0x3d0595e0	0.032613635
2	0x3b65041d	0.0034945079
3	0xbd09d627	-0.033651497
4	0x3d0a5529	0.03377262
5	0x3c179d6d	0.009253842
6	0xbc4ade37	-0.012382082
7	0xbbf0bb32	-0.007346534
8	0x3ceefbed	0.029172862
9	0x3cda92fe	0.02668142
10	0xbcfe528f	-0.031045226
11	0xbc4cb779	-0.012494915
12	0x3d017f29	0.03161541
13	0x3cb63c10	0.022245437
14	0xbcb7ee34	-0.022452451
15	0x3ae51c9b	0.0017479839
16	0xbc415588	-0.011800177
17	0x3ceb5c7d	0.028730625
18	0x3bf66c61	0.007520244
19	0xbd14fe0b	-0.036375087
20	0xbbf13a4c	-0.007361686
21	0xbd0d20ea	-0.034455217
22	0xbd327455	-0.043567974
23	0xbcbe9c26	-0.023267817
24	0x3b75f32a	0.003752897
25	0xbd42dc0c	-0.047573134
26	0xbd1c8dc9	-0.038221154
27	0x3d035ca1	0.03207076
28	0x3d115ecf	0.035490807
29	0x3c4a6851	0.0123539725
30	0xbc15e967	-0.009149886
31	0x3d18a785	0.037269134
32	0xbc227368	-0.00991521
33	0x3d4771ff	0.0486927
34	0xbd07180c	-0.032981917
35	0xbab6e835	-0.0013954701
36	0x3b85340a	0.0040650414
37	0x3d253284	0.04033138
38	0xbc821c2e	-0.015882578
39	0x3c6518ea	0.013982991
40	0xbd2f0561	-0.04272974
41	0x3d2a2176	0.041535817
42	0xbca5064f	-0.02014461
43	0x3bf25201	0.0073950295
44	0x3d145350	0.036212265
45	0x3d4a240a	0.049350776
46	0xbd020aaf	-0.03174847
47	0x3d507fdd	0.05090319
48	0xbd1cc664	-0.038275138
49	0x3d02ab9e	0.03190195
50	0x3ce210ba	0.027595866
51	0xbba7b176	-0.0051175905
52	0x3d136af9	0.03599069
53	0xbd095a9e	-0.033533685
54	0xbd02ec54	-0.03196366
55	0xbd137bc0	-0.03600669
56	0xbc5a2358	-0.013314091
57	0xbc68bacf	-0.014204695
58	0x3b41afc3	0.0029554225
59	0xbd04d85d	-0.032432903
60	0xbd23e1ed	-0.04001038
61	0xbb057e9c	-0.0020369655
62	0x3bcae533	0.0061918735
63	0x3c98698c	0.018605016
64	0x3d3eab07	0.046549823
65	0xbced7378	-0.028985724
66	0x3b89aa15	0.0042011836
67	0xbd284100	-0.041077614
68	0xbc9fe619	-0.019518899
69	0xbd12c3b0	-0.035831153
70	0xbd008eee	-0.03138631
71	0xbd07f44d	-0.033191968
72	0x3d49aa8f	0.049234923
73	0x3c46eac6	0.012140935
74	0xbcc2f827	-0.023799969
75	0xbcb76eb6	-0.022391658
76	0xbd38e98d	-0.045144606
77	0xbbb4827a	-0.005508718
78	0x3b7552a2	0.0037433286
79	0x3ba0a968	0.0049030073
80	0xbbffdaa3	-0.007808046
81	0xbc90c592	-0.017672334
82	0x3d1d6259	0.03842387
83	0xbce0218f	-0.027359752
84	0xbd1ff623	-0.039053094
85	0xbd45b66c	-0.048269674
86	0xbca3a065	-0.019973943
87	0x3cddb593	0.02706412
88	0xbc9a9b2c	-0.01887282
89	0x3cd2a5ac	0.025713764
90	0x3c0a6d48	0.008448906
91	0xbd3c9ee4	-0.046049967
92	0x3cb0234a	0.021501202
93	0x3c942cfd	0.018087858
94	0x3bd38d75	0.006456072
95	0x3bc54255	0.0060198703
96	0xbd4c16f0	-0.049826562
97	0xbd3bf009	-0.045883212
98	0xbd34214f	-0.043977078
99	0x3d42362f	0.047414955
100	0xbbf0d5f0	-0.007349722
101	0x3c826bc5	0.01592053
102	0xbcdf988b	-0.027294418
103	0x3ba48e68	0.005021859
104	0x3bb7f0d0	0.005613424
105	0xbd338522	-0.043828137
106	0xbca71d8c	-0.020399831
107	0xbbc5cbba	-0.006036249
108	0x3d1d6baf	0.038432773
109	0xbb1958c9	-0.0023398867
110	0x3c53c98f	0.012926473
111	0xbd2defb1	-0.042464916
112	0xbce8ecbb	-0.028433194
113	0x3ca9392a	0.02065714
114	0xbcad0574	-0.021120764
115	0x3ce90c5c	0.028448276
116	0x3b9bde87	0.004756752
117	0xbc24377a	-0.010022992
118	0x3cd9c2a1	0.026582064
119	0x3d2dd363	0.042437922

fc2.weight f4 [84, 120]
0	0x3d8d5fac	0.069030136
1	0x3d177e13	0.036985468
2	0xbc6becf6	-0.014399758
3	0xbd5f3a31	-0.054498855
4	0x3c93858b	0.018008014
5	0xbc83d13a	-0.016090978
6	0x3d41dd27	0.047330048
7	0x3d8c5d4b	0.06853732
8	0x3d135af2	0.035975404
9	0xbd822a97	-0.063557796
10	0xbce37c33	-0.027769184
11	0xbc1b45c6	-0.0094770845
12	0xbd1cfa1e	-0.038324468
13	0x3d8d4157	0.06897228
14	0xbd0e23fd	-0.03470229
15	0xbd93865b	-0.07203361
16	0x3d8a54a5	0.06754426
17	0xbcf6112a	-0.030037481
18	0xbd8f90f6	-0.07010071
19	0x3d3e78e4	0.04650201
20	0x3d4fc49f	0.05072462
21	0xbd820f1c	-0.06350538
22	0xbcd65dbc	-0.026167743
23	0xbda4cd0a	-0.080469206
24	0xbc85823b	-0.01629745
25	0x3d4c98e0	0.04995048
26	0xbd8aed30	-0.06783521
27	0x3da6c397	0.081427746
28	0xbda2b998	-0.079455554
29	0x3dbdc245	0.092655696
30	0x3d08e013	0.03341682
31	0xbdae9052	-0.08523621
32	0x3d032792	0.03202016
33	0xbd8ea9ad	-0.06965957
34	0x3dd88c19	0.105735965
35	0xbd5951d0	-0.053056538
36	0xbc69c9d3	-0.01426931
37	0x3dbbd815	0.09172074
38	0x3d970cc1	0.073754795
39	0x3da4069d	0.08009074
40	0xbd3eadbc	-0.046552405
41	0xbdce70a9	-0.10080082
42	0xbd8d4606	-0.068981215
43	0xbc722211	-0.01477863
44	0xbc9c582e	-0.019085016
45	0xbd8dac8c	-0.06917676
46	0x3dc19301	0.09451867
47	0xbdad92cb	-0.08475264
48	0xbc3c6166	-0.011497831
49	0x3d8a42e9	0.06751043
50	0xbd903cb7	-0.070428304
51	0x3da044ee	0.07825647
52	0xbcb0617b	-0.021530857
53	0xbda2eeb1	-0.07955683
54	0xbda2849d	-0.0793545
55	0xbca7011c	-0.020386271
56	0xbbf24d8e	-0.007394499
57	0xbc5c4103	-0.013443234
58	0x3d3c5959	0.045983646
59	0xbd7c4e07	-0.06159785
60	0x3c886f24	0.016654558
61	0x3dc9284d	0.0982214
62	0x3da860e0	0.082216024
63	0x3c7d91be	0.015476642
64	0xbd8a42d7	-0.0675103
65	0xbc9e3d78	-0.01931642
66	0x3d220ec3	0.03956486
67	0xb75fdc72	-1.3343162e-05
68	0xbcbc8f3d	-0.02301752
69	0x3ccc4564	0.024935432
70	0xbd9d0645	-0.076672114
71	0xbd84f779	-0.06492514
72	0xbabe1443	-0.0014501888
73	0xbd066aea	-0.032816805
74	0x3cfa4b89	0.030553596
75	0x3d450262	0.048097976
76	0x3caf2ece	0.021384623
77	0x3d8df3f3	0.06931295
78	0x3d064e36	0.03278943
79	0xbb85770c	-0.0040730294
80	0xbcd2bd39	-0.025724994
81	0xbd96908b	-0.07351788
82	0x3c36b41c	0.01115134
83	0xbd51d71e	-0.051230542
84	0xbdba5a02	-0.09099199
85	0xbd462312	-0.04837329
86	0xbc705845	-0.014669483
87	0x3d5701fe	0.052492134
88	0xbd2ad01e	-0.041702382
89	0x3ce34b7f	0.02774596
90	0x3d570205	0.05249216
91	0xbd18f21d	-0.037340272
92	0x3bb344d4	0.0054708514
93	0x3d4ca5a3	0.04996265
94	0x3d9b379b	0.07578965
95	0x3d91e518	0.07123774
96	0x3cfef790	0.031123906
97	0x3cf272b6	0.029595714
98	0x3c98b8ca	0.018642802
99	0x3ae071aa	0.0017123718
100	0x3c6bd9d0	0.014395192
101	0x3c09b9cb	0.008406113
102	0x3d716b35	0.05894013
103	0x3b2e6d52	0.0026615453
104	0xbd82661c	-0.06367132
105	0x3ccd163b	0.025035014
106	0x3cbe9721	0.023265423
107	0x3cff03d2	0.031129751
108	0x3cb94849	0.022617476
109	0xbda9a07d	-0.08282564
110	0x3d234d0e	0.039868407
111	0x3d3a0039	0.04541037
112	0xbd908886	-0.0705729
113	0x3c5dbdac	0.013533991
114	0xbd5403f6	-0.05176159
115	0xbc8336f4	-0.016017415
116	0xbd48aacc	-0.04899101
117	0xbd82707e	-0.063691124
118	0x3dbb8b0b	0.0915738
119	0x3d657481	0.05601931
120	0x3da47936	0.08030932
121	0xbb374944	-0.0027967254
122	0xbc84f1a9	-0.016228514
123	0xbc336a55	-0.0109506445
124	0xbd4d8d75	-0.050183732
125	0xbd2ed303	-0.042681705
126	0xbc5b71bb	-0.013393815
127	0xbc61f83a	-0.013792092
128	0x3daa6bae	0.083213195
129	0x3ddc8379	0.10767264
130	0xbb8115c4	-0.0039393622
131	0x3da6d8bb	0.08146807
132	0x3d79042d	0.060794998
133	0x3dae2735	0.08503572
134	0xbd58bb25	-0.05291285
135	0x3db7af77	0.08969014
136	0xbd23a275	-0.039949853
137	0x3db8b3e8	0.090186894
138	0x3d93ddb9	0.072200246
139	0x3da34181	0.07971478
140	0x3b2ee235	0.0026685123
141	0xbcb3adea	-0.021933515
142	0x3cb95282	0.02262235
143	0x3d90215d	0.070376135
144	0xbd626d28	-0.05527988
145	0x3d9b65ae	0.07587753
146	0xbd8257ac	-0.06364378
147	0xbcca4bbe	-0.02469432
148	0x3db2091b	0.08693143
149	0x3db3a7af	0.087722175
150	0xbc1cd04d	-0.009571147
151	0x3de83221	0.11337686
152	0x3d955b21	0.07292772
153	0x3d1c423e	0.03814911
154	0x3c06fb54	0.008238632
155	0x3d9a81ec	0.07544312
156	0x3db4fa35	0.08836786
157	0x3dbda196	0.09259336
158	0xbb28376d	-0.0025667802
159	0xbceef8db	-0.029171398
160	0x3bce957f	0.0063044424
161	0xbd50262a	-0.050817646
162	0xbdc87340	-0.09787607
163	0xbbeacc22	-0.007165448
164	0x3d18adc3	0.037275087
165	0xbcc9ba66	-0.024625015
166	0xbd767059	-0.060165737
167	0xbcfadf6b	-0.030624112
168	0xbdb34d9a	-0.08755036
169	0x3dd0efd0	0.102019906
170	0xbd7f258c	-0.062291667
171	0x3d9c4ae0	0.07631469
172	0xb9b23cb6	-0.0003399604
173	0xbca1bbc1	-0.019742848
174	0xbcedbe69	-0.029021459
175	0xba48fc25	-0.0007666967
176	0x3d5b6428	0.053562313
177	0x3d8af0e1	0.06784225
178	0x3dac5e80	0.08416462
179	0x3bf50668	0.0074775703
180	0xbd3281ba	-0.04358075
181	0x3cb44500	0.022005558
182	0x3dd19815	0.102340855
183	0xbd1efdbf	-0.03881621
184	0xbd553add	-0.05205809
185	0x3d9cfc98	0.07665366
186	0x3d954bc5	0.072898425
187	0xbd696f93	-0.05699117
188	0x3c877e53	0.016539728
189	0x3da4f2d4	0.08054128
190	0x3d7af2b5	0.06126662
191	0xbde3b67c	-0.111187905
192	0xbd0728e6	-0.03299799
193	0x3ccf9d0a	0.025343437
194	0xbda2c54d	-0.079477884
195	0x3d514cd0	0.051098645
196	0x3d14d170	0.036332548
197	0x3cc47111	0.023979696
198	0xbdca89a7	-0.09889536
199	0x3d4fef82	0.05076552
200	0x3d8b9c3e	0.0681691
201	0x3d0b1baa	0.03396193
202	0xbb4418a1	-0.0029921907
203	0x3daa1a8d	0.083058454
204	0x3d60a29f	0.054842588
205	0x3d83470a	0.06410034
206	0x3e0072cf	0.12543796
207	0xbd5ae4ee	-0.05344098
208	0xbd57a59d	-0.052648176
209	0xbd3f5299	-0.04670963
210	0xbc9ff192	-0.01952437
211	0xbd27a664	-0.040930167
212	0x3cffa2a0	0.031205475
213	0x3ce21b58	0.02760093
214	0x3da22251	0.079167016
215	0xbe02bc1a	-0.12767068
216	0xbd9e5329	-0.07730705
217	0x3cab44cf	0.020906834
218	0xbd282897	-0.041054334
219	0xbb4be3c2	-0.0031111096
220	0xbdafc3a2	-0.08582236
221	0xbdea4459	-0.114388175
222	0x3ddcad23	0.10775211
223	0xbd3467b7	-0.044044223
224	0x3dc2e900	0.095170975
225	0x3d542b62	0.051799186
226	0x3db2ec55	0.08736483
227	0x3dc99e60	0.09844661
228	0x3d8301dd	0.0639684
229	0x3ca1c998	0.019749448
230	0xbd8df485	-0.06931404
231	0xbd9e11b9	-0.07718224
232	0x3d8f1b2b	0.06987604
233	0xbc2e2af2	-0.010630356
234	0x3dc11037	0.09426921
235	0xbd1a11c3	-0.037614595
236	0xbb6b5df3	-0.0035914152
237	0xbd42a251	-0.04751808
238	0x3d2203f0	0.039554536
239	0x3da81058	0.08206242
240	0x3de92549	0.11384065
241	0xbd4876d5	-0.048941452
242	0xbbeac20d	-0.007164246
243	0xbdb4ab16	-0.088216946
244	0x3d279ae6	0.040919207
245	0x3d9ec073	0.077515505
246	0x3d9160dc	0.070985526
247	0x3db0b486	0.08628182
248	0x3d976286	0.07391839
249	0x3afabde4	0.0019130078
250	0x3d63f5ce	0.05565434
251	0xbc3fc1eb	-0.0117039485
252	0x3d977697	0.07395666
253	0x3b38d9e5	0.0028206047
254	0xbdd3cacf	-0.10341417
255	0xbcdaec22	-0.026723925

fc2.bias f4 [84]
0	0x3bd8e5d7	0.006619196
1	0xbcd9eb6f	-0.026601521
2	0xbb0ccb77	-0.002148358
3	0xbd83c872	-0.06434716
4	0x3c847b18	0.016171977
5	0x3c09b343	0.008404556
6	0xbd77d51b	-0.060505968
7	0x3cb69527	0.022287918
8	0x3db91651	0.0903746
9	0x3d6f9816	0.05849465
10	0x3c4465af	0.011987134
11	0xbd72807e	-0.05920457
12	0xbd81ac62	-0.063317075
13	0x3cea1c65	0.028577993
14	0x3c9f0c72	0.019415114
15	0xbdbf38a9	-0.09336979
16	0x3d938b5b	0.07204314
17	0x3c905dc4	0.017622836
18	0x3dc6302b	0.09677156
19	0xbcd481bc	-0.025940768
20	0xbbb0dad1	-0.0053971787
21	0xbccf8351	-0.025331171
22	0xbd83e389	-0.06439883
23	0x3da9cfca	0.08291586
24	0xbd9d2da1	-0.07674719
25	0x3d031951	0.032006565
26	0x3d78608c	0.06063895
27	0x3d82f29b	0.063939296
28	0x3da1ee4d	0.079067804
29	0xbb0107c7	-0.0019688474
30	0xbd7c0fe9	-0.06153861
31	0x3d81c2b2	0.06335963
32	0xbd937d44	-0.07201627
33	0xbd49e026	-0.04928603
34	0xbd027978	-0.031854123
35	0x3d69b318	0.057055563
36	0xbd2a8d03	-0.041638386
37	0xbd659c99	-0.056057546
38	0x3d314c28	0.04328552
39	0xbd8f9657	-0.07011097
40	0x3d100ac5	0.03516652
41	0x3d0f79f5	0.035028417
42	0x3bdaf7d3	0.006682375
43	0xbd8facad	-0.07015357
44	0x3d86e96a	0.06587489
45	0xbd97eb30	-0.07417905
46	0x3d932fa5	0.07186822
47	0xbd0ef29c	-0.03489934
48	0xbda6d479	-0.08145995
49	0x3d42a741	0.047522787
50	0xbc347202	-0.01101351
51	0x3c72c4d7	0.014817438
52	0xbcfad8ff	-0.03062105
53	0xbd69e563	-0.057103526
54	0xbc785553	-0.015157062
55	0xbd7e12df	-0.062029716
56	0xbd7b4eee	-0.06135457
57	0xbd1634a7	-0.036671307
58	0x3d5cbf7b	0.053893548
59	0x3b379a01	0.0028015377
60	0x3d1a5425	0.037677903
61	0x3d467688	0.048452884
62	0x3db302bb	0.08740755
63	0xbb8e864d	-0.004349506
64	0x3d02cf66	0.03193607
65	0xbd3a2466	-0.04544487
66	0x3dad8eaf	0.0847448
67	0x3da661f7	0.08124154
68	0x3db5015c	0.0883815
69	0xbb9f693c	-0.00486484
70	0xbd8aea26	-0.067829415
71	0x3ca9b23d	0.020714873
72	0x3d8912f4	0.06693068
73	0x3cd89b19	0.026441144
74	0x3d0aab1b	0.033854585
75	0x3bc37f22	0.005966083
76	0x3c1e92d2	0.009678559
77	0x3d5ce3d1	0.0539282
78	0x3db66707	0.0890637
79	0x3dab0a20	0.083515406
80	0x3cb7ba82	0.022427801
81	0xbd5d2337	-0.05398866
82	0xbd1e4de8	-0.038648516
83	0xbb9e65fd	-0.0048339353

fc3.weight f4 [10, 84]
0	0xbdc37b6c	-0.09545025
1	0x3defefb7	0.11715644
2	0xbd5f1efa	-0.0544729
3	0xbd881d93	-0.06646266
4	0x3d049a7c	0.03237389
5	0xbdbe9de9	-0.09307463
6	0x3d8799c1	0.06621123
7	0xbd1974d3	-0.037464928
8	0xbd44c650	-0.048040688
9	0x3d46fbf2	0.048580118
10	0x3e04a2ed	0.12952776
11	0x3cefff7d	0.029296631
12	0x3e28cbdf	0.1648402
13	0xbe2c06f1	-0.16799523
14	0x3c9e4fe4	0.019325204
15	0x3d3c19fb	0.045923214
16	0xbdb35d89	-0.08758075
17	0xbe7230b0	-0.23651385
18	0xbe071eec	-0.1319539
19	0xbc8b4483	-0.017000442
20	0x3d80b344	0.06284192
21	0x3dff3ce4	0.12462786
22	0xba09ee2e	-0.0005261627
23	0xbc9d74ec	-0.019220792
24	0x3d714de9	0.05891219
25	0x3e2fdd17	0.17174183
26	0xbca33862	-0.019924346
27	0xbe83bdb3	-0.25730667
28	0x3e6285ee	0.22121403
29	0xbd23c696	-0.03998431
30	0x3cb72347	0.022355689
31	0x3d640e6d	0.05567782
32	0x3dab1eea	0.08355506
33	0x3d2e1798	0.04250297
34	0x3d6f4fcd	0.058425713
35	0xbdfdb45d	-0.12387917
36	0xbd9f3fbd	-0.07775829
37	0xbdc61f56	-0.096739456
38	0xbd5f4c25	-0.054515976
39	0xbe028acd	-0.12748261
40	0xbc5dee51	-0.013545589
41	0xbda3de88	-0.08001429
42	0x3e3a3a8e	0.181864
43	0xbdbcdf7e	-0.09222315
44	0x3d855a45	0.06511358
45	0xbcfc3163	-0.030785268
46	0x3e4ddb4e	0.2010319
47	0x3dab04d9	0.08350534
48	0x3e2a8ddb	0.16655676
49	0x3d806adc	0.06270382
50	0xbd9a3bc9	-0.07530934
51	0x3d90a807	0.07063299
52	0xbb596e7a	-0.0033177421
53	0xbdecf0a8	-0.11569339
54	0xbd4f6f4e	-0.050643258
55	0xbdffd897	-0.12492483
56	0x3d958c50	0.07302153
57	0x3de65fb3	0.11248722
58	0x3d81188b	0.06303509
59	0xbd8b3b18	-0.067983806
60	0x3b5e9354	0.0033962326
61	0xbdc8aa1d	-0.097980715
62	0x3cb7107f	0.022346733
63	0xbd8b797d	-0.068102814
64	0x3d9978c7	0.074937396
65	0xbd7ccd20	-0.06171906
66	0xbde7dc6b	-0.11321338
67	0x3d776186	0.06039574
68	0x3d686828	0.056739956
69	0xbcfdd01e	-0.030983027
70	0x3d8e77b8	0.06956428
71	0xbe1410b9	-0.14459504
72	0x3e674313	0.2258418
73	0xbde89477	-0.113564424
74	0x3db70c4e	0.08937894
75	0x3d75dc50	0.06002456
76	0xbd97f2cb	-0.07419356
77	0xbddaa8b9	-0.106767125
78	0xbe2e2a5a	-0.17008343
79	0x3d511a10	0.051050246
80	0xbd2883dc	-0.041141376
81	0xbd82ef81	-0.06393338
82	0x3dfdb68e	0.12388335
83	0x3db7611e	0.089540705
84	0xbd3a79c6	-0.04552629
85	0x3dfaf449	0.12253625
86	0xbd71e48f	-0.05905586
87	0xbdcb457e	-0.09925364
88	0x3d398e3f	0.045301672
89	0xbd806df7	-0.06270974
90	0x3d4ac73c	0.04950641
91	0x3dd4eacf	0.10396349
92	0x3e10cf7b	0.14141648
93	0x3da7241f	0.081611864
94	0x3cf47244	0.029839642
95	0x3daccff8	0.084381044
96	0xbd7802b7	-0.060549464
97	0x3d1c1130	0.03810233
98	0xbdb1ac2b	-0.086754166
99	0x3d951b26	0.07280569
100	0xbd72b09e	-0.059250467
101	0x3e30fc03	0.17283635
102	0x3e789cf9	0.2427863
103	0x3da13a84	0.07872489
104	0x3baf40bf	0.0053482945
105	0x3e09e653	0.13466768
106	0xbd607cef	-0.054806646
107	0xbd621ee3	-0.055205237
108	0x3c9e41d6	0.019318502
109	0xbdbc7000	-0.0920105
110	0xbd0262ac	-0.031832382
111	0x3e152448	0.14564621
112	0x3d34f497	0.04417857
113	0xbd6afdd0	-0.05737096
114	0xbde228d8	-0.110429466
115	0x3dfe6357	0.12421291
116	0xbd1dc1c4	-0.038514867
117	0x3b479d23	0.003045865
118	0x3dde1137	0.10843127
119	0xbe18765a	-0.14888898
120	0x3cfb0089	0.030639904
121	0x3da4aa54	0.080403
122	0x3d4007ab	0.046882313
123	0xbdb39f29	-0.08770592
124	0x3e2104ab	0.15724437
125	0xbd4f5e90	-0.05062729
126	0xbe8edbd4	-0.2790209
127	0x3d8efa18	0.06981295
128	0xbded47b3	-0.11585941
129	0xbdcc4310	-0.09973729
130	0x3d679be6	0.05654516
131	0xbd3be73c	-0.04587482
132	0xbdac6ad0	-0.0841881
133	0x3cdea43a	0.027177919
134	0x3b85f87a	0.0040884586
135	0xbd2b8220	-0.041872144
136	0x3dca5c87	0.098809294
137	0xbd8971ca	-0.06711157
138	0xbda1715f	-0.07882952
139	0x3cd43d98	0.025908276
140	0x3cae3984	0.02126766
141	0xbde1b0d4	-0.110200554
142	0xbd9d0034	-0.07666054
143	0xbe253806	-0.16134652
144	0x3e28dbf9	0.16490163
145	0xbd085a32	-0.033289142
146	0xbdabcac3	-0.08388283
147	0xbe76c41d	-0.24098249
148	0xbe26df55	-0.16296132
149	0xbdef45da	-0.11683245
150	0x3da833e1	0.0821302
151	0x3d4821bf	0.048860308
152	0x3d2c836e	0.04211753
153	0xbaa4e168	-0.0012579383
154	0xbcc715d9	-0.02430241
155	0x3dfe0b85	0.12404541
156	0x3dd4f816	0.10398881
157	0x3d915686	0.07096581
158	0xbdaea936	-0.08528368
159	0x3da42076	0.08014004
160	0xbd9932df	-0.07480406
161	0x3e7696ea	0.24081007
162	0x3af9ae90	0.0019049216
163	0xbdd23e64	-0.10265806
164	0x3d9060a1	0.070496805
165	0x3ba6c14c	0.0050889608
166	0x3db671b1	0.08908404
167	0xbe02108b	-0.12701623
168	0x3df7ee94	0.12106052
169	0x3e25b4fa	0.16182318
170	0x3c03d41d	0.008046177
171	0xbd07c041	-0.033142332
172	0x3e3ad855	0.18246587
173	0x3c268ab0	0.010164902
174	0x3d9af88e	0.07566939
175	0x3c82cb64	0.015966125
176	0xbe3832e1	-0.17988159
177	0x3d39c05c	0.045349464
178	0xbd812b8c	-0.06307134
179	0x3dc4aede	0.09603666
180	0xbd2dee93	-0.04246385
181	0x3e720e72	0.23638323
182	0x3d4d718c	0.050157115
183	0xbdc21d33	-0.094782256
184	0xbdf200a8	-0.118165314
185	0x3d94be3f	0.07262849
186	0xbd3e1b8a	-0.046412982
187	0xbdf5472b	-0.11976465
188	0x3df1db65	0.11809424
189	0xbe0ab5a2	-0.1354585
190	0xbdfdd7b9	-0.123946615
191	0x3e3789d8	0.17923677
192	0xbc813d9f	-0.015776454
193	0x3e48affa	0.1959838
194	0x3c4470b1	0.011989758
195	0xbc8393c8	-0.016061679
196	0xbe2ad709	-0.16683592
197	0xbbf7e191	-0.0075647314
198	0xbe0bc0f5	-0.13647826
199	0xbdd61d44	-0.10454801
200	0x3d86f82e	0.06590305
201	0x3dd605c8	0.104503214
202	0xbda8b5c5	-0.08237795
203	0xbda26138	-0.07928699
204	0x3e26eb7f	0.16300772
205	0xbd2f3ca3	-0.042782437
206	0xbcfeee65	-0.031119535
207	0xbde75032	-0.11294593
208	0xbe01cf4a	-0.12676731
209	0x3dbcada6	0.09212808
210	0x3d8b0380	0.06787777
211	0xbe41ea3b	-0.18937008
212	0x3c8bbc2b	0.017057499
213	0x3da616dd	0.081098296
214	0x3e1d56d1	0.15365149
215	0x3d7f63b2	0.062350936
216	0x3d73fa7d	0.059565056
217	0xbac3f155	-0.0014949242
218	0x3dfa2121	0.1221335
219	0x3e14392e	0.14474937
220	0x3d7718cc	0.060326383
221	0xbd5ccc36	-0.05390569
222	0xbc18ec88	-0.009333737
223	0xbe290afb	-0.16508095
224	0x3e0dc291	0.13843752
225	0x3d7e018f	0.062013205
226	0x3d087788	0.03331712
227	0xbde831af	-0.113376014
228	0x3e28ae82	0.1647282
229	0xbd94a0d1	-0.07257236
230	0x3b62a63d	0.003458395
231	0xbe075327	-0.13215314
232	0x3ccc7cdc	0.024961881
233	0x3e375ccc	0.17906493
234	0x3d9ee3bb	0.0775828
235	0xbd945023	-0.07241847
236	0x3de1a90d	0.11018572
237	0x3c0e1739	0.008672529
238	0x3cf3f3de	0.02977937
239	0x3db5fa00	0.08885574
240	0xbd51df8c	-0.05123858
241	0xbe5363ea	-0.20643583
242	0xbd8bc4ea	-0.06824668
243	0xbdf1416c	-0.11780056
244	0x3d2fc9cd	0.04291706
245	0xbe024aa4	-0.12723786
246	0x3e4bad17	0.19890247
247	0x3da1259c	0.078685015
248	0x3d8fd013	0.07022109
249	0xbc462670	-0.012094125
250	0x3de94435	0.113899626
251	0xbd816e79	-0.06319899
252	0xbdc95843	-0.09831288
253	0xbe014416	-0.12623629
254	0xbcb530b3	-0.022117948
255	0xbc809298	-0.015694901

fc3.bias f4 [10]
0	0xbdf0ee31	-0.117641814
1	0xbcbb6a64	-0.02287788
2	0xbccb42f7	-0.024812205
3	0x3d3ef975	0.04662462
4	0x3db7db42	0.08977367
5	0x3d7294e1	0.059224013
6	0xbd65d888	-0.056114703
7	0xbcc6dbcf	-0.024274735
8	0xbc27b888	-0.010236867
9	0x3bec97f4	0.0072202627
