PyCharmWorkshop/AI/Projects/Project3/checkpoints/LeNet5/epoch-9.pth (torch, 243143 bytes, 10 tensors)

conv1.weight f4 [6, 1, 3, 3]
000000 5a d9 cc 3e 5c 04 c1 3d 9a df 33 3e 89 68 ef bd
       0.40009576 0.094246596 0.17565766 -0.116898604
000010 45 de 91 3e 2e 85 68 be 87 34 3d 3e a3 54 e9 3e
       0.2848989 -0.22707054 0.18477069 0.45572385
000020 e7 9f 74 be 21 62 fc 3d 92 98 f4 3e 6d e5 fa bd
       -0.23889123 0.12323404 0.47772652 -0.12250791
000030 e3 7b ec 3e 82 26 00 3f 44 76 5d 3c fa 16 26 3d
       0.46188268 0.5005876 0.013516966 0.040549256
000040 e8 99 06 3e 94 d9 d0 3e 4c 23 96 be 06 04 7c be
       0.13144648 0.40791 -0.29323804 -0.2461091
000050 42 06 03 bd e3 5e a6 3d 59 77 96 3e ec 5c 04 3e
       -0.03198839 0.08123567 0.2938793 0.12926072
000060 40 19 a0 3e 09 03 f9 3d e0 30 c4 3e 36 72 82 3c
       0.31269264 0.12158782 0.3831854 0.0159236
000070 6d 77 17 3f 30 9a 2f 3f 50 17 46 3f fc 17 e0 3e
       0.59166604 0.68594646 0.7737932 0.437683
000080 30 91 e0 3e 97 22 26 3f ad fa 46 3e f8 8a 91 be
       0.4386077 0.6489653 0.19431563 -0.28426337
000090 4c 16 06 3f 59 3d 6f 3e e5 46 86 be 44 e4 b7 3e
       0.5237777 0.23363246 -0.26225963 0.3591634
0000a0 03 12 48 3f 3e ff 16 3e 53 a5 38 3f b5 6c 59 3f
       0.78152484 0.14745805 0.72127265 0.849315
0000b0 3b 68 b1 3e 6a 67 b7 3e aa c5 54 bd fa 2d 10 3f
       0.34649834 0.35821086 -0.05194632 0.56320155
0000c0 2e ea 04 3f 93 2f 1b be 91 40 03 3f a8 34 87 3e
       0.5191983 -0.15154867 0.51270396 0.2640736
0000d0 2f 5c c1 be 1a 7c ba be
       -0.37765643 -0.36422807

conv1.bias f4 [6]
000000 2a fe 6d 3e 65 33 03 be 68 fe 6f be a6 27 ef 3e
       0.23241487 -0.12812574 -0.23436892 0.46709937
000010 49 52 ae 3e a0 58 15 3e
       0.34047154 0.14584589

conv2.weight f4 [16, 6, 3, 3]
000000 dc 04 12 3e bb dd 23 3d 81 68 dd 3c f4 0f 92 ba
       0.14259666 0.04000638 0.02702737 -0.001114367
000010 f2 3f be bc b7 04 f8 3d e5 2d 60 3c 83 8b c5 3d
       -0.02322385 0.12110274 0.013682817 0.096457504
000020 7b 94 f6 3d 32 94 33 bc 2f 09 15 be 1b ad 14 bd
       0.12040039 -0.0109606255 -0.14554285 -0.0362979
000030 b7 49 e7 bc 62 1a 2b be a9 40 10 3e c6 3c ce bd
       -0.028233392 -0.16709283 0.14087166 -0.10070185
000040 8b 50 dd bd 8e fe 7c bd 04 58 e4 3d fe ca 1e be
       -0.10806378 -0.0617662 0.111496 -0.15507123
000050 3c 2a 93 bd ce 6a a2 bd b0 e3 ba 3d 97 a6 37 3e
       -0.0718579 -0.079305276 0.09125459 0.17934643
000060 9e cf de bc 97 05 0d 3d 97 c3 f0 3d 09 d9 a5 3d
       -0.027198609 0.03442916 0.11756056 0.08098037
000070 82 b1 0b be 70 23 3f be bd a3 b3 3d 7b df d2 bd
       -0.13641933 -0.18665862 0.08771465 -0.10296532
000080 7c 46 71 3e 59 5f 08 be e6 10 12 3e 39 5b 2a 3e
       0.23562044 -0.13317622 0.14264259 0.16636361
000090 fb 6f a8 3d 0e 9c 63 bd f6 f3 0c be 6b 21 d6 bd
       0.082244836 -0.055568747 -0.13764939 -0.10455593
0000a0 0b ab 36 be 36 90 a1 bc 20 7b a7 3d fa 96 13 3b
       -0.17838685 -0.019722085 0.08177781 0.002252041
0000b0 0e 01 5e bc 29 7c af 3c ec 92 5f bc 78 37 d2 3b
       -0.013550056 0.021421509 -0.013645869 0.006415304
0000c0 66 64 de 3d 16 4f ba bd a9 3b fe 3d ac 82 01 be
       0.10858993 -0.09097116 0.12413723 -0.12647504
0000d0 11 43 8b bd 38 5e 0d 3e 70 84 5d 3e 47 f8 0e 3e
       -0.06799901 0.13805473 0.21632552 0.13961898
0000e0 4f c7 6c bd 6a f5 47 3c 15 0c 57 bc 64 ee e7 3d
       -0.057807263 0.012204507 -0.013125439 0.11324766
0000f0 7b 70 0b 3e 20 db ae 3d 9a 78 04 be f2 4b 99 bd
       0.13617127 0.085378885 -0.12936631 -0.074851885
000100 58 93 c2 bd 10 19 e7 bd 99 4b 4c 3e 0f 22 77 3d
       -0.0950076 -0.11284077 0.19950713 0.060335215
000110 f6 c3 1c be 1f 46 26 3e 67 37 f2 3c 77 98 01 3e
       -0.15309128 0.16237687 0.029567434 0.12655817
000120 08 f0 08 bd 68 ff 16 be 17 be be bd e1 81 cb bd
       -0.033432037 -0.14745867 -0.093136005 -0.09936882
000130 76 a5 c8 bc 79 0c b4 bd bc 7f d8 bd cc 04 70 bd
       -0.02449296 -0.087914415 -0.105712384 -0.058598325
000140 f2 f5 03 3e 59 ea 59 3e 86 da 0b be 03 fb a4 be
       0.1288679 0.21280803 -0.13657579 -0.32222757
000150 0c d0 d2 3d cb f7 7f 3d 8f ed 88 bd 6d 21 7b bd
       0.10293588 0.062492173 -0.06685936 -0.061311174
000160 08 78 14 3e 6a ef 4b 3c b1 31 87 3e 15 fc 7d bc
       0.14498913 0.0124472175 0.264051 -0.015501996
000170 39 a5 95 be e9 7c 62 3e 29 78 18 3d 2d 95 96 bd
       -0.29227617 0.22117962 0.03722397 -0.07352672
000180 c7 c8 9b 3e 97 f7 9d 3e 8e f3 86 3d b7 c2 c8 bd
       0.30426618 0.3085296 0.06589423 -0.09802764
000190 9c 8a 70 3c 2b f9 54 bd 1f 0d 92 3d 30 52 3d 3d
       0.014681485 -0.051995438 0.07131409 0.04622096
0001a0 5f 87 7b bd 2c 97 7f 3d 35 86 1f 3e 84 7f 2e 3e
       -0.061408397 0.062400028 0.1557854 0.17040831
0001b0 3d cb 09 be 0e 4c d1 3d 5e 40 2e bb 2b fa 38 bd
       -0.13456436 0.102195844 -0.0026588659 -0.045160454
0001c0 1e 5e 64 bd cd 6a 64 3c 19 1a 15 bd af 9d 20 3e
       -0.05575382 0.013941479 -0.03640184 0.15685152
0001d0 6d b1 a7 3c 35 11 1f be db 34 25 bb f5 f0 21 3d
       0.020470345 -0.15533908 -0.0025208506 0.039536435
0001e0 46 fb e8 bd a3 3f 04 3e 75 6d 95 bc c4 90 de bd
       -0.113760516 0.129149 -0.01824067 -0.108674556
0001f0 96 a6 a0 ba 66 d4 99 bd ce 64 d0 bc c0 6e a1 3d
       -0.0012256678 -0.07511215 -0.025438692 0.07882452
000200 5c 59 08 be 2d 3b e3 3d 01 22 9b 3d 10 82 ea bd
       -0.13315338 0.11095271 0.07574845 -0.11450589
000210 21 c7 9f 3d ca d4 a5 bc ca c5 bc bd 8f 6c 27 be
       0.07801653 -0.020243067 -0.09217413 -0.16350006
000220 be 5e a4 3d 40 bf 6c bc b4 dc 6d bd 16 b1 7b 3d
       0.08025883 -0.014449894 -0.058071807 0.06144818
000230 51 84 3e 3e e6 e3 d2 bd f1 6c 34 3e 26 a0 9c bd
       0.18605162 -0.102973744 0.17619683 -0.076477334
000240 52 ce 6b be a5 a5 b8 3d 25 6f c2 3d 2a 65 67 be
       -0.23027924 0.09015969 0.094938554 -0.22597185
000250 83 7f 2c 3e 19 4d d3 bc a3 9a af 3d 96 7e 85 3e
       0.16845517 -0.025793599 0.085744165 0.2607314
000260 2c 55 17 3e 08 28 10 be 5e f6 bc 3d 34 a2 3a 3d
       0.14778584 -0.1407777 0.09226678 0.045564845
000270 d6 78 a5 3b 77 62 ad 3d 11 74 44 3b e6 f2 d8 bd
       0.005049805 0.08466046 0.0029976408 -0.10593204
000280 bc d0 3b 3d 94 4c 04 3e 92 53 ae 3d e7 d4 be 3d
       0.04585336 0.12919837 0.085120335 0.09317952
000290 41 52 07 3e 82 05 e3 3d b0 a9 0b 3e a0 0e 96 3c
       0.13214971 0.11085035 0.1363895 0.01831752
0002a0 73 70 08 be 94 0a f3 3c 83 36 bd ba 2b df a2 3d
       -0.13324146 0.02966813 -0.0014435801 0.07952722
0002b0 d7 18 48 bd 15 d0 bf 3d 20 cb 26 bd 0f 5b 4c 3c
       -0.048851814 0.093658604 -0.04072106 0.012472882
0002c0 79 8f bb 3c da d5 b2 3d 25 da 90 3c 7e fe e0 3d
       0.022895562 0.08732195 0.017682144 0.109860405
0002d0 4a 2e a2 bd 87 d6 d6 bd f1 95 01 be 2c 51 e1 bc
       -0.07918985 -0.104901366 -0.12654854 -0.027504526
0002e0 bf 8a 94 3d da 2d a1 bc eb 81 db 3d 9e 11 95 3c
       0.07253026 -0.019675184 0.10718139 0.018196877
0002f0 7b 30 2d bd 64 76 d2 3d c0 4e 00 3c 8e 4e 5e 3c
       -0.042282563 0.102764875 0.007831275 0.013568534
000300 79 45 14 be 8e 7d e7 3c 89 6b eb bd 61 5f b4 bc
       -0.14479627 0.028258111 -0.1149512 -0.022018136
000310 11 19 0a 3e f4 41 f6 bd ad d5 bb 3d 85 35 09 3d
       0.13486125 -0.12024298 0.09171615 0.033498306
000320 e8 7d ab 3d 11 3d 93 bc 78 21 1a 3e 34 54 25 3e
       0.08373624 -0.017973455 0.1505183 0.16145402
000330 b5 3e 7e 3d 9e 7a 85 bb 68 c1 78 3d 68 c2 bf bd
       0.06207152 -0.004073455 0.06073132 -0.09363252
000340 ce 5e eb bd a2 ea 84 3d b0 4e 06 be 88 a4 ac 3d
       -0.11492692 0.06490065 -0.13115954 0.08429819
000350 65 c0 4a 3d 7c 48 16 be d8 6c 8f bc 0c b6 cd bd
       0.049499888 -0.14676088 -0.017507955 -0.10044488
000360 46 c0 a2 bc dc 72 37 3d a0 de bc 3c eb 35 d1 3d
       -0.019867074 0.044787273 0.023055375 0.10215362
000370 f5 2b 39 3e d3 dc 61 3d 3a a1 82 bd a0 27 d9 3c
       0.18083175 0.055142235 -0.06378408 0.026508152
000380 6e 4d 96 3c f7 c5 c5 bd a3 5f ad 3d cf 32 ec 3d
       0.018347468 -0.096568994 0.08465507 0.115331285
000390 f0 55 8a bd 4f ed f2 bc 64 32 5a bd a6 28 47 3e
       -0.067546725 -0.029654173 -0.053270712 0.194491
0003a0 2c dc 11 3d a4 8d 48 3d bd 4c ed bb 91 ba 70 bd
       0.035610363 0.048963204 -0.007241814 -0.058771674
0003b0 3f 6f f7 3c 28 18 59 3d 18 21 06 3d 7d 7e ea 3c
       0.030204413 0.053001553 0.032746404 0.028624767
0003c0 1f 8e f4 3d e1 e1 2f bd e1 10 c3 3d 5c 5e 77 bd
       0.1194117 -0.042940024 0.09524704 -0.060392722
0003d0 12 d2 81 3e 2b 7c db 3d 06 3f 6d 3e 36 7f 23 bc
       0.25355583 0.107170425 0.23168573 -0.00997906
0003e0 0d c5 d2 3c d3 68 54 3d 06 2b 04 bd 53 8e e3 bc
       0.025728727 0.05185778 -0.032267593 -0.027777826
0003f0 af d1 99 bd 50 11 e7 3d aa 64 1f 3e 5b 4d 10 3e
       -0.07510697 0.11282599 0.15565744 0.14092009

conv2.bias f4 [16]
000000 ed 47 4e bd a4 4d 8d bd 58 03 7a bb 0e ae c8 bc
       -0.050361563 -0.068995744 -0.0038148966 -0.024497058
000010 8c 43 5c bc 8c 07 93 3d c9 f2 cb bd 73 e1 99 3c
       -0.013443839 0.07179174 -0.09958417 0.01878426
000020 ad 19 13 3e 64 c8 bb bc 21 fb c2 3d 98 ba f9 bd
       0.14365263 -0.022922702 0.09520555 -0.12193793
000030 63 46 cc bd c9 3c 0f 3a 30 b2 02 3c ba ef 47 bc
       -0.09974363 0.0005464075 0.0079770535 -0.012203151

fc1.weight f4 [120, 400]
000000 d1 03 88 bc 04 64 19 bd d5 e8 b9 bc 73 39 d1 3c
       -0.016603382 -0.037448898 -0.02269403 0.02554009
000010 30 87 48 3d ce b7 62 bd 7d 47 77 bb b2 ef ea 3b
       0.04895705 -0.05535107 -0.003773182 0.007169687
000020 83 da a9 3c 6f 5e 90 3a 6d b2 28 3d 42 e0 2e 3d
       0.020734077 0.0011014472 0.041185785 0.042694338
000030 07 36 bf ba 24 5d 51 bd 90 4b 8a 3c d2 05 d5 3c
       -0.0014588245 -0.051114216 0.016881734 0.026003752
000040 96 00 a2 bc 1d b6 81 bd 6e 9e 9c 3c 1e e0 e4 3c
       -0.01977567 -0.063335635 0.019118514 0.027938899
000050 24 b6 8f 3b ed 86 86 3b 3f 03 ed bb 1c 8d 50 bc
       0.0043857265 0.00410544 -0.007233053 -0.012728956
000060 a5 66 3c bd 31 cf 26 3d a9 bc 70 3c e8 4c 67 bd
       -0.045996327 0.040724937 0.014693418 -0.056469828
000070 9d 62 c8 bc 1c 25 45 3c 49 dc 23 bd d6 7b ad bc
       -0.024461085 0.012032773 -0.040005002 -0.021177214
000080 35 87 b7 3c c8 c6 42 3d 47 ff e1 bc ba a8 b4 3c
       0.022403339 0.047552854 -0.027587546 0.022053111
000090 9b f8 58 3c 19 14 7d 3d 70 c0 00 3c e0 82 6f bc
       0.013242866 0.061786745 0.007858381 -0.014618605
0000a0 d1 6d 17 3c 2a e1 a0 3c e0 af e8 3b 36 d9 8b 3d
       0.009242491 0.019638617 0.007101044 0.06828539
0000b0 20 07 84 3d b9 cf 38 bd e9 9a 54 bd 93 33 40 bd
       0.064466715 -0.045119975 -0.051905546 -0.046924185
0000c0 2e d6 87 bd ec 2b 13 bc 11 14 30 3d 37 28 15 3c
       -0.066326484 -0.00898264 0.042987887 0.009103826
0000d0 c3 37 b9 bb 5e 46 07 3d 8f bc 61 bb 94 59 28 bd
       -0.0056523993 0.03302609 -0.0034444665 -0.041101053
0000e0 11 b6 f9 3c d2 85 9c bc 62 63 66 3d 0d df ee bb
       0.030482324 -0.01910678 0.056247123 -0.0072897733
0000f0 13 8a bd 3c 51 6f 23 bd 6c 74 39 bd de 78 86 3d
       0.023137128 -0.03990108 -0.045277044 0.06566022
000100 b6 46 ee bc e9 50 35 3c e7 90 05 bd 26 53 25 ba
       -0.029086452 0.011066654 -0.032608893 -0.00063066406
000110 81 e3 c3 bc c0 58 a4 bc 21 81 10 bd 25 dc 5e bd
       -0.023912193 -0.02006185 -0.035279397 -0.054409165
000120 bd a4 2e 3c 91 07 7a bc f9 51 83 bc ee 02 d3 3c
       0.010659394 -0.015260593 -0.016030299 0.025758233
000130 8c 98 d4 3c 52 b9 0f bd e3 00 ef 3c 92 ad d7 3c
       0.025951646 -0.035088845 0.029175228 0.026327882
000140 3f f4 11 bd d1 42 7f bb cd f5 2c 3d 2d 14 d9 bb
       -0.03563332 -0.0038949738 0.0422266 -0.0066247196
000150 1e 2b bd bc 10 b3 0d 3d 5a f8 2c bd 0b 6c f9 3c
       -0.023091849 0.034594595 -0.042229034 0.030447027
000160 45 63 a5 bc 5f 10 ab 3b 95 11 88 bc 1b ec 80 3a
       -0.020188937 0.0052204574 -0.016609946 0.000983599
000170 c6 41 20 3b 16 65 38 3d 57 f2 36 bb 4b 41 57 bc
       0.0024453267 0.045018278 -0.0027915442 -0.013138126
000180 92 9b 79 bb 55 d3 89 3c 82 c5 ca bc 41 5f ea bb
       -0.0038087112 0.016824404 -0.024752382 -0.0071524684
000190 83 46 ca bc d7 50 0d bd 60 db 84 3c 39 12 a1 bb
       -0.024691826 -0.034500923 0.016217887 -0.0049155024
0001a0 64 32 65 bd 68 23 26 bd f2 6d 59 bd 30 f1 9e bc
       -0.05595626 -0.04056111 -0.053083368 -0.019402117
0001b0 e2 f3 1b 3c d8 53 f3 b8 89 ed 68 bd f5 c1 2b bb
       0.009518595 -0.0001160276 -0.056867156 -0.0026208137
0001c0 98 6b c2 3b 75 07 93 bc fd 8a 86 3c f8 27 e4 3c
       0.0059332363 -0.017947892 0.016423697 0.02785109
0001d0 9a 1d 3c 3d a7 2d 11 bd 3c d0 cc bc 8b 5c 50 bd
       0.045926668 -0.035443928 -0.025001638 -0.050869506
0001e0 a6 7b 1f 3d 9a 75 98 3b 80 f3 da bc cd 3c 4b bd
       0.03893628 0.004652691 -0.026727438 -0.04961853
0001f0 37 28 41 3d d0 d3 c4 3c 06 18 dc 3b d6 aa 82 ba
       0.047157492 0.024026781 0.006716731 -0.0009969126
000200 82 fd c0 3a 11 41 5a bb 6a 93 2e bd 6e 1d c4 3c
       0.0014723989 -0.0033302943 -0.042621054 0.023939814
000210 dd 27 2e 3d 04 f9 64 3d e4 88 24 bd 3a 0f 6b 3c
       0.042518485 0.055901542 -0.04016961 0.014346892
000220 52 f1 02 bc 2f 13 1e 3c 67 a3 3f 3d 0f d8 98 bc
       -0.007992106 0.009648128 0.046786692 -0.018657712
000230 de a3 58 3d a4 13 24 3d e6 7a 11 3d 43 81 97 3c
       0.05289065 0.040057793 0.035517596 0.018494254
000240 5a c8 65 39 26 a0 36 3d 77 cd f7 bc 94 ab e3 3c
       0.00021913779 0.044586323 -0.03024934 0.027791776
000250 fb 42 66 3d 9a ee 3f 3d f2 c9 28 3d 6e 7d 32 3c
       0.05621622 0.046858408 0.041208215 0.010894163
000260 d0 f1 9f bc 88 fd 0b bc 62 36 6e bc d3 1d ed bc
       -0.019524485 -0.008544333 -0.014539333 -0.028944885
000270 f8 52 6a 3b e4 63 39 3c 0f 8c c0 bb b9 83 0d 3d
       0.003575502 0.01131532 -0.0058760713 0.03454945
000280 b8 cc 39 bd 75 66 40 bc 29 1a b0 bc 2b b5 d2 bc
       -0.04536125 -0.011743178 -0.02149685 -0.025721153
000290 a3 2e 29 bd 6e 28 c9 3c 67 bc 0d 3c 0b 5a cd bb
       -0.041304242 0.024555411 0.008650876 -0.0062668375
0002a0 4f eb 5b 3d 38 cb 9b bc d3 2e cc 3b 8c cc 37 bd
       0.053691205 -0.0190178 0.006231168 -0.044872805
0002b0 c9 87 f3 3b 52 a0 1f 3d e4 9f 53 3d 60 ce 08 3d
       0.0074319583 0.038971253 0.051666155 0.03339994
0002c0 53 38 54 bd d9 1b 2e 3d 95 fd 00 bc 80 d7 7c 3a
       -0.051811527 0.042507026 -0.007872959 0.0009645149
0002d0 73 84 c4 3c 48 23 a8 3a 94 2e 4b bd 34 7d 0c b9
       0.023988938 0.0012827897 -0.049604967 -0.00013398082
0002e0 8c a2 2b 3d dd 28 95 3c c7 09 e7 3c ee ee 77 3d
       0.041903064 0.018207962 0.028202904 0.060530595
0002f0 bb 79 0e 3d f0 6a 83 3c 1b 89 3f 3d fd 0d 6f 3c
       0.03478406 0.016042203 0.046761613 0.014590737
000300 02 2f cf 3b 50 34 41 3c 3e 95 ef bc 99 b2 6a bd
       0.0063227424 0.011792257 -0.029245969 -0.05729923
000310 38 62 2c bd fb 21 27 bc b8 a7 18 3b 9b c3 f6 bc
       -0.042085856 -0.010200973 0.0023293328 -0.030122569
000320 a8 3c 64 bc a6 9e 39 3d b8 0c 9e bb fc 8d 10 bd
       -0.013930477 0.045317315 -0.0048232935 -0.035291657
000330 c9 ad 1f bc d8 b2 2a bd cb 39 ce b9 7b 1f c1 bc
       -0.009746023 -0.041674465 -0.0003933444 -0.023574581
000340 60 58 32 3d 41 e9 f7 bc 97 01 02 bd 2c e8 15 3d
       0.043541312 -0.030262591 -0.031739797 0.03659837
000350 31 1e 71 3d 39 5e 24 bb b2 86 2d bc 46 38 a2 3c
       0.058866683 -0.0025080575 -0.010591196 0.019802224
000360 f3 4d 2a 3d c6 c3 0e bc 77 4f 58 3d d4 8b 87 3c
       0.041578244 -0.008713668 0.05281016 0.016546167
000370 0b 1b 3f bd cb 2e e7 bc 3e b6 36 3d 30 73 69 bc
       -0.04665665 -0.028220555 0.044607393 -0.014248654
000380 b4 4f 93 3c cf 12 7a bc 84 35 df b8 e0 6d 1b bd
       0.017982341 -0.015263273 -0.00010643437 -0.03794658
000390 f8 95 1e bb 9b e6 44 3c c3 7d 01 bd 65 75 2c bd
       -0.0024198275 0.012017871 -0.031614076 -0.042104144
0003a0 1c a3 a6 3b ab ab 03 3d 14 26 a7 3c 1e 2e 25 bc
       0.005085362 0.032146137 0.0204039 -0.010081796
0003b0 45 13 c6 bc b0 ff 2b bd ab dc 33 bd 93 ea 98 bd
       -0.02417911 -0.04199189 -0.043911617 -0.074666165
0003c0 26 c6 06 3c 71 e0 5f 3d b7 1c 06 bd c3 eb 42 3d
       0.008225953 0.054657403 -0.03274223 0.04758812
0003d0 d1 31 27 bd 76 98 20 bd 2d b4 11 3d 45 d8 2f bd
       -0.040818993 -0.039207898 0.03557222 -0.04293086
0003e0 6d da b7 3c 7c 4d 6e bc 42 ad 61 bd d0 b0 fb 3a
       0.02244302 -0.014544841 -0.055096872 0.0019202475
0003f0 93 42 4b 3c 6f 5f c2 bc b5 f0 38 3d 27 57 d7 3c
       0.012406009 -0.023727147 0.04515143 0.026286675

fc1.bias f4 [120]
000000 e2 55 16 bd b2 b0 06 3d e3 09 84 3b 55 d5 09 bd
       -0.036702998 0.032883354 0.004029499 -0.033650715
000010 b3 12 0b 3d 7a da 16 3c 09 29 47 bc e2 0a ee bb
       0.03395338 0.009207362 -0.01215578 -0.007264481
000020 40 5c ef 3c a4 46 d9 3c ed 11 f9 bc 05 23 47 bc
       0.029218793 0.026522942 -0.030404055 -0.012154345
000030 5a 46 01 3d 0c 3c b6 3c 1d 93 bc bc 20 e5 5f 3a
       0.031561233 0.02224543 -0.023019368 0.0008540917
000040 8d a4 41 bc 32 1a f0 3c 4c 66 04 3c 8a 15 16 bd
       -0.011819017 0.029309366 0.00808103 -0.036641635
000050 ad 54 f0 bb 33 55 0b bd 81 8d 2e bd 8f 0e bf bc
       -0.007334313 -0.0340168 -0.042615417 -0.023322372
000060 a5 64 56 3b fd 87 42 bd c5 39 19 bd 68 b0 06 3d
       0.0032713797 -0.04749297 -0.03740861 0.032883078
000070 e1 f8 10 3d df be 45 3c 83 ce 16 bc 30 4e 15 3d
       0.0353936 0.012069433 -0.00920451 0.03645152
000080 e8 9e 24 bc 7e e3 45 3d 44 42 03 bd 1c 69 c0 ba
       -0.010047652 0.048312657 -0.032045618 -0.0014679763
000090 87 5c 6b 3b 52 64 24 3d eb 76 84 bc a8 cb 63 3c
       0.0035913305 0.040134735 -0.016169986 0.013903536
0000a0 b5 16 2f bd 20 c0 2a 3d 52 55 a1 bc 17 2e f2 3b
       -0.042746264 0.04168713 -0.019694004 0.0073907482
0000b0 2d 59 15 3d 21 6f 49 3d 46 75 01 bd 94 6c 52 3d
       0.036461998 0.049178246 -0.03160598 0.05137308
0000c0 73 b1 1a bd ac a8 01 3d 2d b6 ed 3c a4 e8 d1 bb
       -0.037766885 0.031655 0.029017532 -0.0064059068
0000d0 5e dc 12 3d c1 b3 07 bd 6c e6 02 bd 1e 7d 13 bd
       0.03585469 -0.03313041 -0.03195803 -0.036007993
0000e0 95 c0 58 bc 81 e7 7d bc 97 2d 03 3b 1c 80 02 bd
       -0.013229509 -0.015497089 0.0020016187 -0.031860456
0000f0 c5 4e 22 bd f3 fb 22 bb 82 ea b1 3b d4 a5 9d 3c
       -0.0396259 -0.0024869412 0.005429567 0.019244112
000100 a3 f2 3e 3d d7 86 ed bc 20 de 3a 3b 53 93 2a bd
       0.046618115 -0.02899496 0.0028513744 -0.041644406
000110 1d 4c a3 bc 6e 8b 12 bd 4c 62 fe bc 85 86 05 bd
       -0.019933755 -0.0357775 -0.031052731 -0.03259899
000120 c1 4e 49 3d a4 b3 55 3c d1 3b b7 bc 5d 12 b8 bc
       0.04914737 0.013043318 -0.02236739 -0.022469694
000130 52 1d 3b bd b4 3a 81 bb 04 c3 79 3b 2a 5c 92 3b
       -0.04568226 -0.0039437655 0.0038110623 0.004466553
000140 9b 93 05 bc 2b ce 8e bc 0f 28 1f 3d 96 50 ee bc
       -0.008152868 -0.017432293 0.038856562 -0.02909116
000150 50 4a 20 bd 18 35 45 bd a7 67 a7 bc 6b 29 df 3c
       -0.03913337 -0.048146337 -0.020435167 0.02724143
000160 66 55 99 bc b5 dc d8 3c 59 06 18 3c 1d 56 3c bd
       -0.018717479 0.026472429 0.009278857 -0.04598056
000170 36 8f af 3c 9e 25 8e 3c 7b 93 e0 3b 2c bd e2 3b
       0.021430593 0.017351922 0.0068535185 0.0069195237
000180 32 45 4c bd e0 29 3b bd d6 c9 33 bd d4 47 42 3d
       -0.049870677 -0.045694232 -0.043893658 0.047431782
000190 0a ce e3 bb ca 64 90 3c c6 4d e2 bc 2c 4a a8 3b
       -0.006952052 0.017626185 -0.027624976 0.005135795
0001a0 9f 5e c0 3b 1c 55 32 bd 07 f2 a6 bc 0e 0d cd bb
       0.0058706547 -0.043538198 -0.02037908 -0.0062576598
0001b0 9b 59 16 3d 60 8d 3f bb d5 03 66 3c 77 69 2e bd
       0.03670655 -0.0029228553 0.014039 -0.042581048
0001c0 96 2c f1 bc 03 eb ab 3c b9 ec ae bc 9d e6 eb 3c
       -0.029440206 0.020986086 -0.021353113 0.028796488
0001d0 b2 76 96 3b 0c ba 21 bc 45 86 d8 3c d2 3d 2d 3d
       0.0045917863 -0.009871017 0.026431212 0.042295285

fc2.weight f4 [84, 120]
000000 cc 04 8d 3d 1b 70 25 3d eb 43 55 bc 20 73 50 bd
       0.068856806 0.040390115 -0.013016681 -0.05089104
000010 2b 38 86 3c 4a 63 85 bc 91 f9 46 3d fd 62 8e 3d
       0.016384205 -0.016282696 0.04857785 0.06952474
000020 39 4b 25 3d 57 64 8b bd ab ff f4 bc 4f ca 00 bc
       0.04035494 -0.06806248 -0.029907068 -0.007860734
000030 8f fd 1c bd 41 41 8d 3d d6 32 e4 bc 35 38 94 bd
       -0.03832775 0.06897212 -0.027856272 -0.07237283
000040 00 39 8a 3d f7 3a eb bc 61 7a 97 bd d6 67 4e 3d
       0.06749153 -0.02871464 -0.07396389 0.050391994
000050 ce 4a 46 3d 2f c5 83 bd e1 6a d1 bc 97 e3 a2 bd
       0.048411183 -0.06434094 -0.02556366 -0.079535656
000060 d8 1c 91 bc a4 2e 50 3d 87 ae 8e bd 5c a0 a1 3d
       -0.01771395 0.05082573 -0.06966882 0.07891914
000070 58 25 ad bd 4d af c3 3d e1 2a 04 3d 39 d8 ad bd
       -0.084543884 0.0955492 0.032267455 -0.08488507
000080 13 34 fc 3c 69 52 86 bd de 3e e1 3d 0e 41 59 bd
       0.03078655 -0.06558687 0.10998319 -0.053040557
000090 2f 96 80 bc f4 d8 c0 3d 87 64 89 3d 5f d8 a3 3d
       -0.015696613 0.094163805 0.06708627 0.08000254
0000a0 07 ad 3e bd e6 90 d7 bd cd 2b 8e bd ef 74 72 bc
       -0.04655173 -0.10525684 -0.06941948 -0.014798387
0000b0 a8 30 b6 bc 21 b2 90 bd fa 58 bf 3d 8d 10 c4 bd
       -0.022239998 -0.070652254 0.09343143 -0.09573469
0000c0 e3 ff 2d bc 22 aa 8d 3d 18 07 8d bd fc 23 9f 3d
       -0.01062009 0.06917216 -0.06886119 0.07770535
0000d0 4b 34 cf bc 8d 37 a3 bd b6 f9 a1 bd b3 51 c4 bc
       -0.02529349 -0.0796958 -0.07908957 -0.023964738
0000e0 bd ac f2 bb a2 c1 48 bc e6 74 3b 3d 2a bc 79 bd
       -0.007405846 -0.012253197 0.04576578 -0.060970463
0000f0 e0 5d 6e 3c ea fb c8 3d 7f 04 a9 3d 77 e3 20 3c
       0.014548749 0.09813674 0.08252811 0.009819857
000100 c9 46 8a bd 0d 3d 9e bc 20 f3 1a 3d 99 6f 99 bb
       -0.067517824 -0.01931622 0.03782952 -0.004682493
000110 a9 59 b2 bc 61 b3 bf 3c 95 a8 9e bd df 6a 7d bd
       -0.021771269 0.023400964 -0.07746998 -0.0618695
000120 83 dc dd 39 91 ae fa bc 3a 42 01 3d 28 bc 44 3d
       0.000423167 -0.030600818 0.0315573 0.048031002
000130 14 4e d4 3c a2 73 8b 3d f4 a4 0c 3d 5f 77 ad bb
       0.025916137 0.068091646 0.034337 -0.005293771
000140 3b 43 e1 bc e3 36 94 bd 64 17 82 3c 6c 67 5c bd
       -0.027497878 -0.07237031 0.015880294 -0.05380957
000150 32 69 ba bd 88 df 45 bd 6a d4 c3 bc e0 79 59 3d
       -0.09102096 -0.04830888 -0.023904998 0.053094745
000160 7e 71 57 bd b9 90 d1 3c 91 78 6c 3d 18 77 22 bd
       -0.05259847 0.025581704 0.05773217 -0.039664358
000170 31 0a b6 3b f0 ae 42 3d 83 0c 9e 3d cd 18 8e 3d
       0.005555414 0.047530115 0.0771723 0.06938324
000180 b9 42 fe 3c ea 73 ce 3c 56 0f 9b 3c b5 c8 8d 3b
       0.031037675 0.025201757 0.018928211 0.0043269047
000190 e2 bb 8e 3c e2 b4 3f 3c 0f 0e 6d 3d 41 eb 11 3b
       0.017423574 0.011700841 0.057874735 0.0022265466
0001a0 ab c0 82 bd 0f 5e eb 3c 70 02 bf 3c a4 13 09 3d
       -0.06384405 0.028731374 0.023316592 0.033465996
0001b0 db db 98 3c d8 83 b6 bd 1d fd 23 3d 6a 6c 3f 3d
       0.018659523 -0.08911866 0.04003631 0.04673425
0001c0 60 2d 91 bd e5 8d 55 3c de b7 4c bd b0 4b 33 bc
       -0.07088733 0.013034319 -0.049980037 -0.010943338
0001d0 20 6b 4e bd 36 37 80 bd 7c cb bc 3d 6e 3e 58 3d
       -0.05039513 -0.06260531 0.09218499 0.052793913
0001e0 b2 46 bb 3d 85 79 0f bc 19 fe 88 bc ab 57 f3 bb
       0.091443434 -0.008757 -0.016722726 -0.0074262223
0001f0 9a 83 42 bd 71 c9 30 bd 83 24 14 bc bb fa 49 bc
       -0.047488786 -0.04316086 -0.009041908 -0.012327845
000200 d1 70 b9 3d ea 49 f1 3d ca 10 f6 b9 e2 00 ad 3d
       0.09054721 0.11781676 -0.00046933285 0.08447434
000210 3c 2e 79 3d 35 27 ae 3d 3f 50 3a bd 6f b3 b4 3d
       0.06083511 0.08503572 -0.045486685 0.08823287
000220 bc 63 23 bd 16 49 b8 3d 40 7b 91 3d ac 4a aa 3d
       -0.039890036 0.08998315 0.07103586 0.08315024
000230 b9 fe 8c 3b 5a 8c d7 bc 9f 98 b9 3c 18 3e 98 3d
       0.0043028262 -0.026312042 0.022655783 0.074337184
000240 d1 69 4b bd b7 27 99 3d f2 18 96 bd ba 3b b5 bc
       -0.04966146 0.07478278 -0.07328977 -0.022123206
000250 fc c0 b9 3d 8e ea ba 3d 2d 93 10 bc 17 1d fd 3d
       0.09070012 0.09126769 -0.008824152 0.12359064
000260 72 08 97 3d 5f 20 1d 3d f8 21 df 3b 88 ff 9a 3d
       0.07374658 0.03836095 0.0068094693 0.0756827
000270 4e 9c bf 3d 19 61 c0 3d 44 80 00 bc 82 3e e1 bc
       0.09355985 0.0939352 -0.007843081 -0.027495626
000280 77 e1 d4 3b 13 ac 62 bd a6 da d2 bd 8a 71 ec bb
       0.006496604 -0.055339884 -0.1029561 -0.0072156833
000290 a1 7a 1d 3d 3d 76 4c bc 10 46 5a bd d9 c6 10 bd
       0.038447026 -0.012479362 -0.053289473 -0.035345886
0002a0 44 d9 b1 bd 7c 9b cd 3d 02 d8 92 bd 5c 8f a6 3d
       -0.08684018 0.10039422 -0.071701065 0.081328124
0002b0 4d 0b f4 ba 12 c4 bd bc 21 51 ca bc 38 eb b4 ba
       -0.001861909 -0.023164783 -0.024696888 -0.0013803011
0002c0 56 37 5b 3d b4 25 89 3d 63 84 b3 3d 13 ca fc 3b
       0.05351957 0.066966444 0.08765485 0.007714519
0002d0 f8 e7 3d bd 67 51 a5 3c b4 a7 d6 3d a6 02 20 bd
       -0.0463638 0.020180417 0.104812056 -0.039065026
0002e0 89 de 55 bd 6e 02 9d 3d cc f1 9d 3d 01 c5 63 bd
       -0.05221418 0.07666479 0.07712135 -0.0556078
0002f0 9a e1 9f 3c a9 0a a4 3d 75 40 81 3d 73 49 f3 bd
       0.019516755 0.08009846 0.06311122 -0.11879244
000300 d7 a4 e2 bc 5a ec 97 3c ff f6 93 bd 6c f9 52 3d
       -0.027666492 0.018545318 -0.07224845 0.0515074
000310 ed b3 28 3d 29 39 67 3c 3b 59 d5 bd 6f b2 4f 3d
       0.041187216 0.014112749 -0.1041741 0.050707277
000320 f1 11 98 3d c1 98 c9 3c 32 f6 a1 39 fc 56 b9 3d
       0.07425297 0.024608972 0.00030891743 0.09049794
000330 f4 87 63 3d 96 75 8a 3d 4d be 04 3e 80 13 6c bd
       0.055549577 0.06760709 0.12963219 -0.057635784
000340 1d 9c 5f bd c5 75 46 bd ec 18 ad bc 16 85 f4 bc
       -0.05459224 -0.048452158 -0.021130048 -0.029848617
000350 eb 3d fb 3c 11 8e 04 3d 95 fb a3 3d e2 b0 09 be
       0.030669173 0.032362048 0.0800697 -0.13446382
000360 fa 8c a3 bd 44 c3 80 3c 87 b7 4e bd 07 75 4d bb
       -0.079858735 0.01571811 -0.050467994 -0.0031350271
000370 1a 20 b8 bd 6e d9 f8 bd 0a 8d ef 3d c1 17 35 bd
       -0.08990498 -0.121508464 0.11696823 -0.044212107
000380 69 51 c2 3d 3d e0 5e 3d 77 6b b2 3d 30 21 c9 3d
       0.09488184 0.05441307 0.087119035 0.09820783
000390 70 f4 89 3d b6 a6 d6 3c b7 98 9e bd fc 88 a2 bd
       0.06736076 0.02620254 -0.07743972 -0.07936284
0003a0 26 76 94 3d 25 69 5e bc e1 25 c2 3d 36 9f 25 bd
       0.072490975 -0.013574873 0.09479881 -0.04043504
0003b0 fb 9f 68 bb f2 6e 51 bd 81 12 44 3d 10 e3 a8 3d
       -0.0035495746 -0.051131196 0.04786921 0.08246434
0003c0 3b 25 f8 3d a1 8f 4b bd 9c f0 9e bb 6c cb b5 bd
       0.12116476 -0.049697522 -0.00485046 -0.0887669
0003d0 90 63 17 3d f0 23 9e 3d 7a 66 8e 3d 16 15 b2 3d
       0.036960185 0.07721698 0.069531396 0.08695428
0003e0 70 b2 9d 3d a6 b2 d3 3b 52 3b 75 3d 78 ef 4e bc
       0.0770005 0.0064605055 0.059871025 -0.012630336
0003f0 7e 85 97 3d b6 d8 38 3b af 80 d9 bd 1b 71 dd bc
       0.073985085 0.0028205342 -0.106202476 -0.027031472

fc2.bias f4 [84]
000000 26 69 d3 3b 74 d0 e9 bc da 37 14 bb ad d4 83 bd
       0.0064517437 -0.028541781 -0.0022616298 -0.06437049
000010 f5 17 87 3c 91 1f 0d 3c ad 14 79 bd 57 a5 b4 3c
       0.016490916 0.008613483 -0.060810734 0.022051496
000020 ca 95 ba 3d c4 d8 79 3d 45 87 41 3c da 7b 76 bd
       0.09110601 0.06099774 0.011812036 -0.060176708
000030 75 67 81 bd f1 30 e2 3c a4 23 9e 3c 99 34 be bd
       -0.06318561 0.027611228 0.019304104 -0.09287376
000040 97 42 95 3d d9 32 96 3c 82 66 c4 3d fe 0b d4 bc
       0.07288092 0.018334793 0.09589864 -0.025884625
000050 72 26 cf bb 63 e0 d3 bc 88 15 7f bd 46 11 a9 3d
       -0.0063217217 -0.025863832 -0.062276393 0.08255248
000060 8c 94 9d bd 8e ce 02 3d 7b 0a 81 3d 7e cb 83 3d
       -0.07694349 0.031935267 0.06300827 0.064352974
000070 bd 44 a2 3d 8e 7e ca ba a3 cc 7b bd d5 de 80 3d
       0.07923267 -0.0015449093 -0.061474454 0.06292502
000080 90 46 93 bd 60 b2 4a bd 81 2c 03 bd e1 2a 6b 3d
       -0.07191193 -0.049486518 -0.032024864 0.05741394
000090 7f 99 26 bd 3a 4e 62 bd ed c5 31 3d 51 5e 8e bd
       -0.04067373 -0.055250384 0.043401647 -0.06951583
0000a0 94 34 0e 3d c3 71 0f 3d c6 eb f5 3b 36 16 8f bd
       0.03471811 0.0350206 0.007504913 -0.06986658
0000b0 8f ed 87 3d cf e9 97 bd ee f8 90 3d ce 3f 0f bd
       0.066371076 -0.07417642 0.070787296 -0.03497296
0000c0 fa 1e a7 bd 95 fa 44 3d 58 69 41 bc 3b ff 5d 3c
       -0.08160205 0.048090536 -0.011804901 0.013549621
0000d0 03 bf fa bc 3a 35 68 bd 80 d6 7c bc 53 71 7d bd
       -0.03060866 -0.056691386 -0.015432 -0.061875653
0000e0 ea 68 7b bd 7c 6b 14 bd bc 37 5c 3d 95 2e 91 3b
       -0.06137935 -0.036235318 0.05376409 0.004430602
0000f0 09 c1 1a 3d 9d 2a 45 3d 22 6a b4 3d 55 15 1f bb
       0.03778175 0.048136342 0.08809306 -0.002427419
000100 b7 e6 08 3d c7 32 3e bd 7f b3 ad 3d 63 29 a8 3d
       0.03342315 -0.046435144 0.08481502 0.08211019
000110 46 a1 b7 3d e2 97 d7 bb b3 e9 8a bd 9c 07 aa 3c
       0.08966307 -0.006579385 -0.06782856 0.020755582
000120 66 57 87 3d 81 22 df 3c 71 4b 08 3d 59 66 b5 3b
       0.06608467 0.027238132 0.03327507 0.0055358824
000130 68 07 16 3c b9 45 57 3d d4 1d b6 3d b1 2c ab 3d
       0.009157039 0.052556727 0.08892408 0.083581336
000140 53 c1 b7 3c 6e db 58 bd 41 ed 20 bd 23 0b a3 bb
       0.022431051 -0.05294364 -0.039288763 -0.004975693

fc3.weight f4 [10, 84]
000000 69 b0 c0 bd c8 d3 fd 3d 0e 66 64 bd 32 c7 87 bd
       -0.094086476 0.1239391 -0.05576139 -0.0662979
000010 5d f5 02 3d 74 80 bd bd 6b a8 74 3d 42 34 14 bd
       0.031972278 -0.09253016 0.05973093 -0.03618265
000020 89 ef 53 bd 7d 5e 35 3d b3 e1 02 3e 14 bf fe 3c
       -0.05174211 0.044279564 0.1278141 0.031096973
000030 b3 9b 2e 3e 07 c8 33 be 89 81 a0 3c 55 9c 39 3d
       0.17051582 -0.17556773 0.019593017 0.045315105
000040 8e b6 bc bd 40 41 70 be 69 5e 05 be 0a f9 d8 bc
       -0.09214507 -0.23462391 -0.13024296 -0.026485939
000050 a6 11 89 3d 64 59 0d 3e fa ac 68 bb be 5a d1 bc
       0.06692819 0.13803631 -0.0035503493 -0.025555965
000060 6e dd 8f 3d da 37 39 3e a9 89 fc bc 31 8d 8b be
       0.07024656 0.18087712 -0.03082736 -0.27256158
000070 87 e9 73 3e e6 25 37 bd f2 cc a4 3c 33 40 93 3d
       0.23819552 -0.044713877 0.020117257 0.071899794
000080 83 53 a6 3d d5 5d 49 3d 42 5d 6f 3d 40 4b 0c be
       0.08121397 0.04916175 0.058438547 -0.1370058
000090 78 ed a4 bd c2 fb bf bd 74 ce 86 bd 94 22 02 be
       -0.08053106 -0.09374191 -0.065823466 -0.12708503
0000a0 6e 45 2a bc e5 70 a1 bd 4e 0d 44 3e 1a ea b6 bd
       -0.01039253 -0.07882861 0.191457 -0.0893137
0000b0 25 df 6f 3d 77 36 fc bc 7b 1f 5d 3e 7e 05 ab 3d
       0.058562417 -0.03078769 0.2159404 0.08350657
0000c0 d9 20 32 3e c9 ee a1 3d a4 0a 9a bd a0 a1 8f 3d
       0.17395343 0.07906873 -0.07521561 0.070132494
0000d0 36 c1 46 3a be 07 fe bd cd fc 57 bd 67 86 00 be
       0.0007581891 -0.124038205 -0.052731324 -0.1255127
0000e0 6e ae 90 3d fe f1 fb 3d 49 94 82 3d 7b d1 8e bd
       0.0706452 0.12302016 0.063759394 -0.06973549
0000f0 33 22 34 3c ed 73 d8 bd bd aa 71 3c 5c 68 86 bd
       0.010994482 -0.10568986 0.01475018 -0.06562874
000100 fd 61 8e 3d 3b c5 4f bd 55 e5 ed bd 0d c5 79 3d
       0.069522835 -0.050725203 -0.11616007 0.060978938
000110 03 51 67 3d ff 55 13 bd 87 7c 8e 3d bc 1e 12 be
       0.056473743 -0.035970684 0.069573455 -0.14269537
000120 84 74 77 3e d7 79 eb bd 7c 78 b7 3d 8d 0b 67 3d
       0.24165541 -0.114978485 0.089585274 0.0564075
000130 bf bc 9b bd 3b 3a cc bd 27 05 46 be 9b cd 80 3d
       -0.0760436 -0.09972044 -0.19337903 0.06289216
000140 16 f0 41 bd 10 7b 83 bd e9 ed 07 3e 5f 87 b3 3d
       -0.047348104 -0.06419957 0.1327435 0.08766054
000150 6e a2 41 bd e2 2d 12 3e f1 54 6c bd b2 41 cb bd
       -0.047274046 0.14275315 -0.057698194 -0.0992464
000160 f2 54 55 3d 07 08 81 bd c4 b0 5d 3d c3 f0 d4 3d
       0.052082963 -0.06300359 0.054123655 0.10397484
000170 9f 5a 17 3e f0 4d 95 3d 90 7d 17 3d af d8 b4 3d
       0.14780663 0.07290256 0.03698498 0.088303916
000180 4c 95 85 bd 0f a0 03 3d 3b af b1 bd 90 22 a5 3d
       -0.06522617 0.032135066 -0.08676001 0.08063233
000190 d7 c8 5a bd 07 55 3e 3e 5e 9a 89 3e 83 ee ac 3d
       -0.053414192 0.18587123 0.26875585 0.0844393
0001a0 20 1c 9f 3c 0b 3f 15 3e d4 fd 82 bd 4e 6f 37 bd
       0.01942259 0.1457483 -0.0639607 -0.044783883
0001b0 0a f5 96 3c 8e e1 be bd 83 80 23 bd e7 3b 14 3e
       0.01842739 -0.09320365 -0.03991748 0.14475976
0001c0 0b 95 70 3d 06 64 69 bd dc f9 f2 bd 9d 5a 09 3e
       0.05873589 -0.056980155 -0.11864063 0.13413472
0001d0 77 5f c8 bc a8 4d 88 3b b5 7b de 3d 7f 47 18 be
       -0.024459584 0.004159648 0.10863439 -0.14871024
0001e0 87 ea ff 3c c6 18 84 3d 94 3d 2e 3d 5b 41 b8 bd
       0.031239761 0.06450038 0.042539194 -0.089968406
0001f0 52 31 23 3e b9 25 59 bd 3a 55 95 be a1 af 99 3d
       0.15936783 -0.05301449 -0.29166585 0.07504202
000200 39 27 f7 bd 22 46 cc bd 21 db ae 3d 0a ec 3b bd
       -0.12068028 -0.09974314 0.08537889 -0.0458794
000210 d2 98 ab bd f6 5b ae 3c 92 73 0f 3c 3c ac fd bc
       -0.083787575 0.021284085 0.008755581 -0.030965917
000220 be 40 e8 3d 25 04 8f bd 05 b2 a7 bd ac bd 99 3c
       0.113404736 -0.069832124 -0.081882514 0.0187672
000230 c1 d8 8e 3c 27 83 ea bd 83 2b 9f bd 48 37 39 be
       0.01743734 -0.114507966 -0.07771971 -0.18087494
000240 83 4e 31 3e 73 55 15 bd 3a fc c6 bd 75 da 85 be
       0.17315106 -0.036458444 -0.09716077 -0.26143232
000250 7c 63 30 be 33 1d eb bd 43 b3 b9 3d b2 43 47 3d
       -0.1722545 -0.11480179 0.090673946 0.048648544
000260 63 54 0f 3d 7e 7f d5 3c fa 16 c7 bc a6 42 05 3e
       0.034992587 0.02606177 -0.024302948 0.13013706
000270 21 d5 00 3e 15 96 5e 3d 40 7e 91 bd 27 b1 af 3d
       0.12581302 0.054342348 -0.071041584 0.08578711
000280 98 c0 a6 bd 3f f4 83 3e 69 a0 70 bb bf f2 e6 bd
       -0.08142203 0.25772282 -0.0036716706 -0.11276769
000290 83 b7 a4 3d 14 b6 36 3b 77 33 bc 3d 70 b8 05 be
       0.080428146 0.0027879523 0.09189504 -0.13058639
0002a0 2c e5 04 3e 0e 0b 2f 3e 38 54 1b 3c c6 d2 07 bd
       0.12978047 0.17094061 0.0094805285 -0.033159994
0002b0 8d 1d 44 3e 54 45 26 3c 44 72 a5 3d 23 15 83 3c
       0.19151898 0.010148365 0.08078435 0.01600129
0002c0 de c6 3f be b4 0c 20 3d 9e d9 99 bd b9 0e cd 3d
       -0.18728206 0.039074615 -0.0751221 0.10012574
0002d0 1d 5e 5a bd ef fa 7b 3e 6b 64 4d 3d 06 9b d7 bd
       -0.05331241 0.24607442 0.050144594 -0.10527615
0002e0 ca a5 e9 bd f6 06 98 3d 5b ca 68 bd 0f 99 08 be
       -0.11408575 0.07423203 -0.056833606 -0.13339637
0002f0 86 c0 f9 3d f7 49 1a be 29 5a 0c be 8e d9 42 3e
       0.12194924 -0.15067278 -0.13706268 0.19028303
000300 89 67 b8 bc 11 cd 4c 3e be 8b 88 bb cb f6 16 bd
       -0.022510307 0.20000102 -0.004167049 -0.036856454
000310 fd 7e 3e be e4 0a cf bb 32 3d 1f be 90 6a db bd
       -0.1860313 -0.006318437 -0.15550688 -0.107136846
000320 c0 bf 6a 3d 25 e9 c6 3d 53 e3 a8 bd 03 3d ca bd
       0.057311773 0.097124375 -0.08246484 -0.09874918
000330 2a a2 36 3e e0 10 47 bd e3 73 24 bd 95 f9 00 be
       0.17835298 -0.048600078 -0.04014958 -0.12595208
000340 ed d7 07 be 7a d9 cc 3d c4 d4 85 3d 96 b0 5d be
       -0.13265963 0.10002418 0.065347224 -0.21649393
000350 04 35 c3 3c de 25 a6 3d 09 59 25 3e 48 5a 7f 3d
       0.02382899 0.08112691 0.16147245 0.06234196
000360 8f 3d 74 3d 3a 3c 76 3b 95 35 02 3e 07 54 17 3e
       0.05962902 0.003757252 0.12715752 0.14778148
000370 4e a8 85 3d a9 73 80 bd 75 e0 a2 bb 82 2b 34 be
       0.06526242 -0.062720604 -0.004970605 -0.17594722
000380 e8 70 19 3e 73 df 7e 3d db 18 f8 3c 87 ca 03 be
       0.14984477 0.062224817 0.03028529 -0.12870227
000390 a9 89 35 3e 26 63 7b bd 20 55 56 3c 6c 25 04 be
       0.17728294 -0.061373852 0.013081819 -0.129049
0003a0 50 14 07 3c 80 26 37 3e fe cf 99 3d 19 a8 a2 bd
       0.008244589 0.1788578 0.075103745 -0.07942218
0003b0 1c c4 e5 3d 57 29 60 bb 88 f1 f3 3c da ce b6 3d
       0.112190455 -0.0034204328 0.029778257 0.089261726
0003c0 33 6a 69 bd 69 e6 64 be 8b 00 9b bd 92 e1 f9 bd
       -0.056986045 -0.2235352 -0.07568463 -0.12201227
0003d0 84 5e 34 3d 9d ac 03 be 6a eb 4b 3e 50 74 bc 3d
       0.04403545 -0.12858815 0.19914022 0.09201872
0003e0 07 ef 99 3d f3 ac f4 bc dd ff f4 3d 2c 44 8a bd
       0.07516294 -0.029867625 0.119628645 -0.06751284
0003f0 45 50 d6 bd 4f f4 0c be 63 39 b7 bc 29 93 80 bc
       -0.10464529 -0.13765071 -0.022366231 -0.015695171

fc3.bias f4 [10]
000000 53 17 f0 bd c5 c4 cc bc ca aa e1 bc 9d 70 3d 3d
       -0.11723199 -0.02499617 -0.027547259 0.046249975
000010 0b 0a b4 3d 35 54 80 3d eb bc 6e bd 5d 5a d8 bc
       0.08790978 0.06266061 -0.058285635 -0.026410276
000020 55 56 94 bb 42 79 14 3c
       -0.004526893 0.009062113
