PyCharmWorkshop/AI/Projects/Project3/checkpoints/LeNet5/epoch-7.pth (torch, 243143 bytes, 10 tensors)

conv1.weight f4 [6, 1, 3, 3]
0.39704075 0.08676813 0.17309149 -0.12553735 0.27012295 -0.22601984 0.18047974 0.45199528
-0.22853242 0.11347395 0.46611255 -0.12155057 0.45396614 0.48845792 0.008119849 0.046958867
0.12856132 0.39756224 -0.27220085 -0.22653563 -0.023081638 0.08451332 0.28972042 0.122950494
0.29416323 0.1061155 0.3748727 0.019983754 0.57740843 0.6637599 0.76027817 0.41879642
0.4327644 0.63210845 0.18462475 -0.27313316 0.50479394 0.22771677 -0.25146928 0.34591398
0.76878357 0.14826517 0.71046287 0.8299178 0.32725605 0.3504302 -0.06357705 0.5488953
0.50914764 -0.15780039 0.5034541 0.27068427 -0.36353123 -0.3462473
00000000: ed48 cb3e 7db3 b13d e53e 313e dd8c 00be
00000010: 8e4d 8a3e bf71 67be aecf 383e ed6b e73e
00000020: 6704 6abe 0865 e83d 4ea6 ee3e 81ef f8bd
00000030: 406e e83e 2817 fa3e 1d09 053c f157 403d
00000040: 94a5 033e 478d cb3e e95d 8bbe f5f8 67be
00000050: b415 bdbc 5215 ad3d 3c56 943e 78cd fb3d
00000060: 909c 963e 1553 d93d 51ef bf3e f8b4 a33c
00000070: 0ad1 133f 2bec 293f 97a1 423f 7c6c d63e
00000080: 4c93 dd3e dcd1 213f 450e 3d3e 1cd8 8bbe
00000090: 2d3a 013f 962e 693e 95c0 80be a31b b13e
000000a0: 00cf 443f d3d2 173e e5e0 353f 7e75 543f
000000b0: 1b8e a73e 966b b33e af34 82bd 6784 0c3f
000000c0: 8057 023f 6d96 21be 5ee2 003f 2197 8a3e
000000d0: c420 babe 5347 b1be

conv1.bias f4 [6]
0.23457721 -0.13180119 -0.2413642 0.45637277 0.32819673 0.13472575
00000000: 0235 703e e4f6 06be 2d28 77be b1a9 e93e
00000010: 6709 a83e 8cf5 093e

conv2.weight f4 [16, 6, 3, 3]
0.13795067 0.041442536 0.030832687 -0.0017933314 -0.019488562 0.120421804 0.013914389 0.09455867
0.11809736 -0.014557136 -0.14196102 -0.0323619 -0.02581008 -0.15986046 0.14104125 -0.09850201
-0.10952708 -0.06339828 0.11464245 -0.15091403 -0.072802275 -0.07678922 0.09061873 0.17296652
-0.027541224 0.03104577 0.11632021 0.069102086 -0.13426965 -0.17979251 0.08986737 -0.0920354
0.22185303 -0.13022518 0.13346617 0.15129025 0.075150445 -0.04513011 -0.13162386 -0.101364456
-0.16966772 -0.024512626 0.083155386 -0.0037396026 -0.014144525 0.014653369 -0.015639225 0.008217106
0.10921957 -0.083559364 0.12016632 -0.12566377 -0.06840929 0.13075636 0.21481532 0.14239033
-0.05944174 0.008135067 -0.013918214 0.10908192 0.13547014 0.08416991 -0.1287615 -0.06813971
-0.08873053 -0.112486996 0.18924575 0.060299758 -0.1512164 0.15387507 0.02402401 0.1281642
-0.028582804 -0.14495853 -0.09336821 -0.09664149 -0.02593634 -0.08895357 -0.09766442 -0.056604754
0.12889804 0.22051065 -0.12639624 -0.3201215 0.10788995 0.065519415 -0.06890497 -0.058693793
0.14344472 0.012376532 0.2726581 -0.0016097049 -0.29457366 0.20687048 0.033447616 -0.07473938
0.2926164 0.3011362 0.0696229 -0.091827326 0.017576477 -0.050599534 0.076341994 0.0442618
-0.06734414 0.055826645 0.14726502 0.16743648 -0.13127698 0.09819512 -0.0042085815 -0.042564128
-0.06226266 0.01111663 -0.03577146 0.15040264 0.018501205 -0.15028986 -0.0046771644 0.042334896
-0.11177709 0.12312272 -0.016484749 -0.11309616 -0.010064741 -0.072629444 -0.022603894 0.078429975
-0.128959 0.1109059 0.07542753 -0.10907834 0.07645848 -0.016916675 -0.08724964 -0.15409517
0.07436377 -0.0164403 -0.053115413 0.052044813 0.18625565 -0.10786341 0.16459115 -0.07099123
-0.21713173 0.08188315 0.097432636 -0.22396463 0.15495683 -0.026791368 0.080607176 0.24612445
0.14758618 -0.13593027 0.09584397 0.04482962 0.013038164 0.0856363 0.003618638 -0.1034149
0.046005666 0.1320178 0.08664613 0.09123739 0.12967998 0.11289833 0.13436301 0.016246866
-0.13023552 0.030646883 -0.001492856 0.077806085 -0.051701117 0.09423769 -0.038995523 0.009450676
0.023396134 0.09081831 0.01774808 0.11142097 -0.077173464 -0.10413765 -0.123419024 -0.025460064
0.07511571 -0.013247319 0.108057864 0.021221275 -0.037968956 0.10500112 0.009934224 0.016772425
-0.14105569 0.024993008 -0.110950135 -0.019570608 0.13579664 -0.11317453 0.09258587 0.026949912
0.08275758 -0.014329256 0.14844772 0.16251457 0.07018638 0.00017000263 0.06254566 -0.0918672
-0.1095597 0.067987785 -0.12807363 0.08576794 0.050699376 -0.14343219 -0.014835232 -0.09643149
-0.018243589 0.04526763 0.022608342 0.09995393 0.17864756 0.05587201 -0.06488493 0.02825095
0.01876526 -0.08853998 0.09259451 0.11997091 -0.063135706 -0.031369317 -0.050004892 0.19618963
0.038106687 0.050166823 -0.009730421 -0.062352236 0.03268079 0.050942678 0.033366464 0.029168539
0.11972037 -0.03881441 0.09795725 -0.0527317 0.25571766 0.1043727 0.22461689 -0.01911072
0.036358308 0.044723373 -0.029281726 -0.025648728 -0.06682188 0.122910276 0.16650783 0.14723559
00000000: f142 0d3e a6bf 293d d594 fc3c 370e ebba
00000010: 7aa6 9fbc b59f f63d 2df9 633c faa7 c13d
00000020: 07dd f13d 0e81 6ebc 3b5e 11be e98d 04bd
00000030: a96f d3bc 76b2 23be 1e6d 103e 6cbb c9bd
00000040: bc4f e0bd f5d6 81bd a9c9 ea3d 3589 1abe
00000050: 5c19 95bd ab43 9dbd 5096 b93d 231e 313e
00000060: 229e e1bc b353 fe3c 4a39 ee3d 6585 8d3d
00000070: fc7d 09be 871b 38be 620c b83d 0e7d bcbd
00000080: 712d 633e c059 05be 5bab 083e d5eb 1a3e
00000090: 7ae8 993d 5ada 38bd 68c8 06be 2b98 cfbd
000000a0: 60bd 2dbe b4ce c8bc 5f4d aa3d 1f14 75bb
000000b0: 70be 67bc af14 703c d51d 80bc 0aa1 063c
000000c0: 83ae df3d 2c21 abbd c219 f63d 01ae 00be
000000d0: 2b1a 8cbd ffe4 053e 8cf8 5b3e c5ce 113e
000000e0: 2f79 73bd f248 053c 3809 64bc 5766 df3d
000000f0: afb8 0a3e 4661 ac3d 0eda 03be d58c 8bbd
00000100: 5ab8 b5bd 955f e6bd a3c9 413e e1fc 763d
00000110: 79d8 1abe 6d91 1d3e 00ce c43c 7a3d 033e
00000120: 7c26 eabc 0270 14be d537 bfbd f9eb c5bd
00000130: 7378 d4bc 4a2d b6bd 4904 c8bd 63da 67bd
00000140: d9fd 033e 8bcd 613e 046e 01be f7e6 a3be
00000150: 68f5 dc3d 0b2f 863d 0d1e 8dbd e768 70bd
00000160: 2ce3 123e f0c6 4a3c d899 8b3e bcfc d2ba
00000170: 5cd2 96be dbd5 533e 5e00 093d f610 99bd
00000180: d1d1 953e 862e 9a3e 7396 8e3d f70f bcbd
00000190: 8bfc 8f3c 7541 4fbd 3159 9c3d dc4b 353d
000001a0: b9eb 89bd 7baa 643d a4cc 163e 7874 2b3e
000001b0: 796d 06be 861a c93d 24e8 89bb b957 2ebd
000001c0: 2207 7fbd 8722 363c 1885 12bd 2603 1a3e
000001d0: d78f 973c 96e5 19be e642 99bb 5b67 2d3d
000001e0: 63eb e4bd c427 fc3d 060b 87bc f69e e7bd
000001f0: 95e6 24bc bfbe 94bd cd2b b9bc e59f a03d
00000200: d40d 04be a222 e33d c079 9a3d 7764 dfbd
00000210: 4396 9c3d d794 8abc f0af b2bd 20cb 1dbe
00000220: 084c 983d cfad 86bc 8c8f 59bd f12c 553d
00000230: cdb9 3e3e 7ee7 dcbd 958a 283e da63 91bd
00000240: c857 5ebe 5ab2 a73d c38a c73d fc56 65be
00000250: 01ad 1e3e 9279 dbbc 6015 a53d 0c08 7c3e
00000260: d520 173e 4e31 0bbe d849 c43d 439f 373d
00000270: 069e 553c 1662 af3d ac26 6d3b 31cb d3bd
00000280: 7070 3c3d ad2f 073e 8773 b13d abda ba3d
00000290: d4ca 043e 3d37 e73d 7596 093e 2618 853c
000002a0: 765c 05be 2c0f fb3c efab c3ba cc58 9f3d
000002b0: 8dc4 53bd b1ff c03d c5b9 1fbd 02d7 1a3c
000002c0: 40a9 bf3c f3fe b93d 6c64 913c ad30 e43d
000002d0: 1f0d 9ebd 1f46 d5bd 1dc3 fcbd a091 d0bc
000002e0: 44d6 993d 480b 59bc 714d dd3d 3dd8 ad3c
000002f0: 5685 1bbd d40a d73d 28c3 223c 5366 893c
00000300: e770 10be 23be cc3c d339 e3bd 8a52 a0bc
00000310: 460e 0b3e 0cc8 e7bd a99d bd3d 10c6 dc3c
00000320: ce7c a93d 41c5 6abc ae02 183e 386a 263e
00000330: e0bd 8f3d bc42 3239 f017 803d df24 bcbd
00000340: d660 e0bd 2e3d 8b3d bc25 03be 1aa7 af3d
00000350: 26aa 4f3d e3df 12be 790f 73bc df7d c5bd
00000360: 9473 95bc 8d6a 393d 2135 b93c a5b4 cc3d
00000370: 63ef 363e 0cda 643d 64e2 84bd 896e e73c
00000380: 9ab9 993c 7354 b5bd 31a2 bd3d 4fb3 f53d
00000390: 4b4d 81bd 1d7d 00bd eed1 4cbd efe5 483e
000003a0: c215 1c3d ba7b 4d3d 586c 1fbc 0f65 7fbd
000003b0: 4bdc 053d 45a9 503d 46ab 083d dcf2 ee3c
000003c0: f42f f53d dcfb 1ebd d09d c83d 32fd 57bd
000003d0: 6ded 823e 5bc1 d53d f801 663e 168e 9cbc
000003e0: 73ec 143d db2f 373d 3be0 efbc 481d d2bc
000003f0: e9d9 88bd 62b8 fb3d 0781 2a3e edc4 163e

conv2.bias f4 [16]
-0.052663606 -0.06706666 -0.001394709 -0.022172257 -0.0120047415 0.07402842 -0.10095008 0.020305416
0.14396451 -0.020820972 0.09737256 -0.12272873 -0.101655975 1.5815313e-06 0.012583918 -0.010994197
00000000: cbb5 57bd 3f5a 89bd abce b6ba 98a2 b5bc
00000010: 89af 44bc 369c 973d eabe cebd 8b57 a63c
00000020: 6f6b 133e be90 aabc 446b c73d 3359 fbbd
00000030: 0231 d0bd 0045 d435 c72c 4e3c 0121 34bc

fc1.weight f4 [120, 400]
-0.015990425 -0.035273805 -0.023109376 0.02533379 0.04940252 -0.05413449 -0.0039108535 0.0067225466
0.021679105 0.00071069726 0.041886583 0.042197812 0.0006359605 -0.050135955 0.015883815 0.026666775
-0.01840935 -0.06242941 0.019538708 0.02777918 0.005973057 0.005262566 -0.008147953 -0.011568567
-0.046212368 0.040577013 0.015552142 -0.054838963 -0.022634108 0.01245474 -0.040074185 -0.022161257
0.021884827 0.046345104 -0.02723358 0.021712922 0.014501398 0.061399955 0.007092619 -0.015785344
0.0081333015 0.019338395 0.007876059 0.065250814 0.060114957 -0.04425357 -0.04597098 -0.0429996
-0.06472929 -0.011413225 0.042616248 0.011531821 -0.0061833267 0.03091122 -0.0011179767 -0.04094046
0.033550847 -0.019609435 0.055567518 -0.004797888 0.023068683 -0.040092364 -0.04528021 0.064233564
-0.027447205 0.012072371 -0.033034 0.0010673255 -0.025815058 -0.02102905 -0.031781305 -0.05212347
0.01210005 -0.017369485 -0.016457995 0.025550958 0.026961468 -0.03499567 0.028957019 0.027552009
-0.0354029 -0.0027441394 0.042560834 -0.0052473014 -0.02105124 0.035012055 -0.042356603 0.031124841
-0.01985222 0.007351902 -0.016180757 0.0015862248 0.004099337 0.044323172 -0.0018864876 -0.011228581
-0.002343558 0.01922053 -0.026066462 -0.007131214 -0.024677778 -0.03305797 0.020591872 -0.0053408872
-0.055063106 -0.040327307 -0.048921555 -0.01764144 0.010837163 0.0017383192 -0.056588583 -0.00048058914
0.006883739 -0.014860932 0.019308947 0.027677156 0.04574449 -0.032962758 -0.022096017 -0.048059616
0.03989433 0.007892094 -0.022990702 -0.04947135 0.045925636 0.025238145 0.010558057 -0.003159904
0.0005697969 -0.0017436116 -0.039819557 0.025402017 0.041417792 0.057455152 -0.038883165 0.016761433
-0.008498717 0.010591798 0.04736154 -0.01883296 0.05464456 0.03962001 0.03566866 0.014895607
-0.0008919686 0.04821398 -0.030604461 0.025303254 0.054303303 0.044779576 0.04118132 0.010737276
-0.019633153 -0.008584971 -0.014797612 -0.02866642 0.0031475036 0.011587397 -0.0069064437 0.035191763
-0.044895653 -0.011667641 -0.023351042 -0.026963921 -0.041323718 0.023302589 0.006069395 -0.0076534227
0.053126533 -0.018016692 0.0075031933 -0.044277724 0.009261796 0.03852954 0.048612863 0.033454485
-0.04941129 0.045954328 -0.006326201 0.002264326 0.024162702 0.0012494377 -0.04993132 -0.0010645405
0.041678015 0.01824263 0.027526943 0.060722318 0.036158536 0.01713167 0.04619895 0.014389505
0.008174254 0.011852905 -0.032286495 -0.053832993 -0.03767535 -0.0070468374 0.0027750933 -0.030117817
-0.013843477 0.04475078 -0.004359477 -0.03458901 -0.009784733 -0.04145299 -0.0010086949 -0.024966212
0.04203284 -0.03051375 -0.03157519 0.03585599 0.057195824 -0.005177183 -0.011001605 0.019776992
0.040253494 -0.010175209 0.051648717 0.014230542 -0.04671081 -0.027211819 0.04665448 -0.015394117
0.016395457 -0.015593461 0.002029942 -0.036249753 -0.002848018 0.014306745 -0.03094837 -0.03858479
0.006062954 0.033297185 0.023112657 -0.009583795 -0.023137407 -0.04141436 -0.042829633 -0.069938265
0.009158888 0.05357821 -0.029183691 0.04807791 -0.038639616 -0.035832714 0.039350577 -0.038413398
0.020164162 -0.014350362 -0.05522105 0.0030281781 0.013341891 -0.023301147 0.04689544 0.025824746
00000000: 5afe 82bc 447b 10bd e04f bdbc cf88 cf3c
00000010: 4c5a 4a3d 21bc 5dbd 9e26 80bb cf48 dc3b
00000020: 6198 b13c 164e 3a3a 4491 2b3d 9dd7 2c3d
00000030: 96b6 263a 5c5b 4dbd c61e 823c 4874 da3c
00000040: 35cf 96bc fbb5 7fbd a40f a03c 2a91 e33c
00000050: a2b9 c33b 9a71 ac3b fe7e 05bc 168a 3dbc
00000060: 2e49 3dbd 1534 263d 69ce 7e3c d29e 60bd
00000070: 2a6b b9bc f70e 4c3c d424 24bd 868b b5bc
00000080: cf47 b33c 5dd4 3d3d f518 dfbc 4cdf b13c
00000090: 4697 6d3c 857e 7b3d 3369 e83b 4450 81bc
000000a0: 8a41 053c 8e6b 9e3c 960a 013c 38a2 853d
000000b0: 1a3b 763d 3b43 35bd 114c 3cbd 5920 30bd
000000c0: ca90 84bd 89fe 3abc 608e 2e3d f7ef 3c3c
000000d0: 819d cabb 8739 fd3c 1389 92ba 2fb1 27bd
000000e0: 9d6c 093d f7a3 a0bc c49a 633d 9a37 9dbb
000000f0: 89fa bc3c e437 24bd be77 39bd e38c 833d
00000100: f6d8 e0bc 32cb 453c a94e 07bd 80e5 8b3a
00000110: 1a7a d3bc 1d45 acbc 1d2d 02bd 6b7f 55bd
00000120: 4a3f 463c 734a 8ebc ebd2 86bc 3e50 d13c
00000130: 4cde dc3c 9f57 0fbd 4537 ed3c c0b4 e13c
00000140: a202 11bd 05d7 33bb 4554 2e3d 8ef1 abbb
00000150: a673 acbc cd68 0f3d 1e7e 2dbd 86f9 fe3c
00000160: 1fa1 a2bc 39e8 f03b 828d 84bc dfe8 cf3a
00000170: bb53 863b 378c 353d 0544 f7ba 15f8 37bc
00000180: 6196 19bb 5f74 9d3c 5589 d5bc f5ac e9bb
00000190: 0d29 cabc cb67 07bd 49b0 a83c 9c02 afbb
000001a0: da89 61bd 3f2e 25bd f861 48bd c884 90bc
000001b0: 5b8e 313c 50d8 e33a 6ec9 67bd 95f7 fbb9
000001c0: fd90 e13b 447b 73bc cc2d 9e3c 34bb e23c
000001d0: 935e 3b3d f503 07bd b502 b5bc 29da 44bd
000001e0: 3d68 233d d74d 013c ff56 bcbc 78a2 4abd
000001f0: 851c 3c3d 3ac0 ce3c b3fb 2c3c 6416 4fbb
00000200: 6c5e 153a e689 e4ba d519 23bd e417 d03c
00000210: b4a5 293d 1856 6b3d f443 1fbd 464f 893c
00000220: 343e 0bbc 3989 2d3c 2dfe 413d 9447 9abc
00000230: f9d2 5f3d 9748 223d 4d19 123d b40c 743c
00000240: 00d3 69ba 067c 453d 35b6 fabc c548 cf3c
00000250: 246d 5e3d ca6a 373d bead 283d 66eb 2f3c
00000260: b5d5 a0bc faa7 0cbc af71 72bc d7d5 eabc
00000270: 5946 4e3b 11d9 3d3c 734f e2bb 3d25 103d
00000280: 81e4 37bd a229 3fbc af4a bfbc 71e3 dcbc
00000290: 0f43 29bd 12e5 be3c c7e1 c63b 90c9 fabb
000002a0: 359b 593d be97 93bc 59dd f53b 8f5c 35bd
000002b0: cabe 173c 27d1 1d3d 481e 473d 9207 093d
000002c0: 7e63 4abd 9b3a 3c3d 054c cfbb 1665 143b
000002d0: dcf0 c53c 2cc4 a33a c984 4cbd 0d88 8bba
000002e0: 91b6 2a3d 9171 953c 2f80 e13c f7b7 783d
000002f0: f91a 143d b757 8c3c 1c3b 3d3d f5c1 6b3c
00000300: 4eed 053c b032 423c d83e 04bd fc7f 5cbd
00000310: 7851 1abd 28e9 e6bb 57de 353b a4b9 f6bc
00000320: c0cf 62bc 984c 373d f2d9 8ebb 35ad 0dbd
00000330: 2550 20bc 9cca 29bd 2f36 84ba f185 ccbc
00000340: a12a 2c3d f9f7 f9bc fd54 01bd bbdd 123d
00000350: 2b46 6a3d 5ca5 a9bb 1340 34bc 5c03 a23c
00000360: d9e0 243d ebb5 26bc 9b8d 533d 3827 693c
00000370: d653 3fbd 52eb debc c518 3f3d 9b37 7cbc
00000380: c44f 863c b77b 7fbc c708 053b 9f7a 14bd
00000390: d0a5 3abb d666 6a3c 7087 fdbc 160b 1ebd
000003a0: bfab c63b a162 083d c156 bd3c 5a05 1dbc
000003b0: a98a bdbc 1ba2 29bd 206e 2fbd cb3b 8fbd
000003c0: 290f 163c d374 5b3d a312 efbc 58ed 443d
000003d0: 9344 1ebd 53c5 12bd 122e 213d 5e57 1dbd
000003e0: 502f a53c c81d 6bbc 782f 62bd 6674 463b
000003f0: f297 5a3c 0ce2 bebc 6f15 403d 6b8e d33c

fc1.bias f4 [120]
-0.036840066 0.032741535 0.0038338334 -0.033600442 0.03387448 0.009219536 -0.012312451 -0.007332575
0.029261688 0.026516732 -0.030634828 -0.012346137 0.03158497 0.022245329 -0.022738134 0.0013079825
-0.011804064 0.029160075 0.007821917 -0.03652909 -0.007328964 -0.034117103 -0.04314952 -0.023191912
0.0034923693 -0.04744685 -0.037780084 0.03259225 0.035404366 0.012149442 -0.009204334 0.036892965
-0.01000536 0.04856372 -0.03247238 -0.0014315182 0.0037262358 0.040165048 -0.015993925 0.013972235
-0.042748585 0.04157015 -0.019938571 0.0073939296 0.03632545 0.049193434 -0.031699512 0.051116195
-0.038073413 0.03182241 0.028299501 -0.005814379 0.035930052 -0.03337455 -0.032147005 -0.03599995
-0.0132504385 -0.014856577 0.00227741 -0.032173518 -0.039878435 -0.002335667 0.005731568 0.018879447
0.046582375 -0.02898726 0.0035393087 -0.041402195 -0.019865401 -0.03568352 -0.031191189 -0.03290039
0.04918165 0.012599185 -0.022926042 -0.022439744 -0.045472547 -0.0046183076 0.0037107894 0.0045553506
-0.007935306 -0.017537884 0.038735013 -0.028169455 -0.0390727 -0.048235223 -0.020194896 0.027201828
-0.018808318 0.026133334 0.008833796 -0.04594082 0.02146373 0.017634762 0.0067194696 0.0065911966
-0.049833443 -0.045726065 -0.043833636 0.047458947 -0.007167506 0.016750034 -0.027536593 0.005040501
0.00576713 -0.04361668 -0.020404171 -0.0061014434 0.037515134 -0.00249913 0.013407782 -0.042492084
-0.02901637 0.020745436 -0.021231871 0.028590225 0.0047219093 -0.009871569 0.026513934 0.04235814
00000000: 9ce5 16bd fd1b 063d 0d41 7b3b 9ea0 09bd
00000010: f7bf 0a3d 890d 173c 2aba 49bc 1946 f0bb
00000020: 35b6 ef3c 9e39 d93c e4f5 fabc 7447 4abc
00000030: 3e5f 013d d63b b63c 5345 babc 9c70 ab3a
00000040: d565 41bc 1ce1 ee3c 7f27 003c 879f 15bd
00000050: ce27 f0bb 60be 0bbd 8dbd 30bd f7fc bdbc
00000060: 3ce0 643b a157 42bd 4abf 1abd 737f 053d
00000070: 2b04 113d 740e 473c c6cd 16bc 141d 173d
00000080: 85ed 23bc c0ea 463d c201 05bd c8a1 bbba
00000090: dd33 743b 1b84 243d b105 83bc cdeb 643c
000000a0: 2419 2fbd 7645 2a3d 3756 a3bc c748 f23b
000000b0: ffc9 143d 0e7f 493d 59d7 01bd 375f 513d
000000c0: def2 1bbd 3758 023d 5bd4 e73c 8c86 bebb
000000d0: 642b 133d c1b3 08bd 94ac 03bd af74 13bd
000000e0: 5e18 59bc 0069 73bc 9940 153b 61c8 03bd
000000f0: 9257 23bd fd11 19bb e1cf bb3b 12a9 9a3c
00000100: 29cd 3e3d b176 edbc bff3 673b 5995 29bd
00000110: c4bc a2bc e228 12bd aa84 ffbc 8fc2 06bd
00000120: b372 493d d06c 4e3c 65cf bbbc 8ed3 b7bc
00000130: 6c41 3abd 2c55 97bb b730 733b 0d45 953b
00000140: 1603 02bc 9cab 8fbc 9ba8 1e3d a1c3 e6bc
00000150: b20a 20bd 4c92 45bd c46f a5bc 5ed6 de3c
00000160: e713 9abc 9315 d63c a0bb 103c 712c 3cbd
00000170: b4d4 af3c c776 903c ff2e dc3b f7fa d73b
00000180: 271e 4cbd 414b 3bbd e68a 33bd 5064 423d
00000190: 66dd eabb 5e37 893c 6c94 e1bc c92a a53b
000001a0: 31fa bc3b 67a7 32bd a626 a7bc 9eee c7bb
000001b0: 78a9 193d 72c8 23bb 50ac 5b3c 2e0c 2ebd
000001c0: bdb3 edbc 55f2 a93c 76ee adbc 0c36 ea3c
000001d0: 3fba 9a3b 5dbc 21bc c033 d93c bb7f 2d3d

fc2.weight f4 [84, 120]
0.06859541 0.03800863 -0.014461074 -0.052118197 0.016932398 -0.016178979 0.04699115 0.06858468
0.038407244 -0.066640474 -0.029127462 -0.008998191 -0.03832656 0.06897214 -0.030476822 -0.07271049
0.06751614 -0.029541183 -0.07308893 0.048620805 0.049359776 -0.0637456 -0.025860792 -0.08019702
-0.018787464 0.050154384 -0.07029016 0.079571016 -0.081328444 0.09346622 0.032909736 -0.08528187
0.031422064 -0.06772968 0.10699385 -0.05304505 -0.015982216 0.09231978 0.070495814 0.08018552
-0.04654802 -0.10464303 -0.0707276 -0.014782137 -0.020963032 -0.06888949 0.093398504 -0.0920255
-0.011288124 0.06839855 -0.07036547 0.078350574 -0.024432335 -0.080809705 -0.07950522 -0.02216028
-0.007390828 -0.012406574 0.044908922 -0.0620324 0.015594165 0.098553754 0.08180765 0.012044131
-0.06750946 -0.01931642 0.03809673 -0.0033764914 -0.021852268 0.02407796 -0.076623864 -0.06313627
-0.00047394674 -0.03164749 0.030798467 0.048075788 0.023225049 0.0688552 0.032478105 -0.004603345
-0.026491055 -0.07255126 0.012858453 -0.053710647 -0.091031 -0.04815904 -0.020172212 0.05257149
-0.048770145 0.025135243 0.054649953 -0.03904721 0.005509779 0.04756754 0.076237515 0.06864103
0.030803027 0.026963558 0.01827932 0.0019944643 0.015156007 0.009258981 0.058451515 0.0022361323
-0.063682966 0.026630033 0.023290792 0.03241683 0.02021773 -0.08636848 0.039591417 0.04641264
-0.07085299 0.01282568 -0.051760584 -0.014647129 -0.049593326 -0.063249424 0.092487134 0.05411475
0.086302586 -0.0069978833 -0.016940633 -0.008939666 -0.04921508 -0.04296466 -0.011053694 -0.0134751145
0.08696124 0.11319261 -0.0023623593 0.08287524 0.06081506 0.08503572 -0.04841211 0.08978064
-0.039907705 0.088958934 0.07086921 0.081805356 0.0041977307 -0.02482025 0.020909963 0.072489515
-0.05222937 0.07575987 -0.07020919 -0.023858989 0.08842821 0.090249486 -0.009139517 0.1190738
0.073085815 0.03839007 0.007766743 0.07561401 0.09070613 0.09248114 -0.005504946 -0.02817139
0.0063831694 -0.054332066 -0.09962259 -0.007175592 0.036300782 -0.017585667 -0.05657418 -0.033715956
-0.08699576 0.10164506 -0.06736931 0.08009237 -0.0018840915 -0.022322675 -0.025350347 -0.0016233107
0.053559892 0.06748075 0.08596212 0.0079192845 -0.045151353 0.021575568 0.10248498 -0.041546434
-0.052116405 0.07665805 0.075316705 -0.05787649 0.01747363 0.080330454 0.06201015 -0.11584428
-0.03100798 0.020837171 -0.076524585 0.051344566 0.03857196 0.017451983 -0.10251896 0.05104206
0.071555756 0.027718468 -0.0015966044 0.08636351 0.05507874 0.06650728 0.12630811 -0.056052625
-0.053688385 -0.048353598 -0.022181468 -0.036503237 0.030964984 0.030338164 0.0800638 -0.13307038
-0.0786201 0.018151259 -0.045790005 -0.0041857474 -0.0880127 -0.11909286 0.11208559 -0.04370251
0.095467836 0.05386548 0.087276354 0.09964011 0.066873506 0.023931919 -0.0739711 -0.07811129
0.07013859 -0.013144838 0.09450799 -0.039951045 -0.003768949 -0.04975843 0.04414361 0.081291325
0.117320724 -0.04955378 -0.0057144198 -0.08787403 0.038714524 0.077385165 0.0700053 0.086833455
0.07571185 0.0043286826 0.05848913 -0.012249436 0.07397114 0.0028205437 -0.10444193 -0.026863322
00000000: c07b 8c3d f0ae 1b3d 24ee 6cbc e479 55bd
00000010: d0b5 8a3c c789 84bc cb79 403d 2076 8c3d
00000020: ea50 1d3d cd7a 88bd b79c eebc 266d 13bc
00000030: 50fc 1cbd 4441 8d3d 87aa f9bc 3de9 94bd
00000040: e745 8a3d 5a00 f2bc a6af 95bd 9c26 473d
00000050: 7a2d 4a3d 0e8d 82bd 03da d3bc 563e a4bd
00000060: 2be8 99bc af6e 4d3d 4af4 8fbd 21f6 a23d
00000070: 878f a6bd 386b bf3d 5ccc 063d 43a8 aebd
00000080: 6cb4 003d dcb5 8abd 971f db3d c445 59bd
00000090: 23ed 82bc 2712 bd3d 1c60 903d 4e38 a43d
000000a0: 23a9 3ebd 164f d6bd a2d9 90bd c730 72bc
000000b0: aaba abbc ef15 8dbd b747 bf3d de77 bcbd
000000c0: d3f1 38bc 8a14 8c3d c61b 90bd 4476 a03d
000000d0: 5226 c8bc 8f7f a5bd a2d3 a2bd 7a89 b5bc
000000e0: c22e f2bb f144 4bbc 6bf2 373d b015 7ebd
000000f0: ab7e 7f3c 8dd6 c93d c58a a73d bf54 453c
00000100: 6642 8abd 783d 9ebc 510b 1c3d 2048 5dbb
00000110: 8703 b3bc 243f c53c f9ec 9cbd 974d 81bd
00000120: 0e7c f8b9 cca0 01bd 114d fc3c 1eeb 443d
00000130: 7542 be3c f503 8d3d c307 053d a8d7 96bb
00000140: c503 d9bc c195 94bd 43ac 523c b2ff 5bbd
00000150: 766e babd 6a42 45bd 3240 a5bc 3455 573d
00000160: 34c3 47bd 6de8 cd3c a1d8 5f3d f8ef 1fbd
00000170: 608b b43b 2ed6 423d 6a22 9c3d ab93 8c3d
00000180: a156 fc3c aee2 dc3c 83be 953c 8fb5 023b
00000190: e750 783c fbb2 173c db6a 6f3d 138c 123b
000001a0: 376c 82bd 3a27 da3c 55cc be3c 83c7 043d
000001b0: a79f a53c f5e1 b0bd 9c2a 223d 2e1b 3e3d
000001c0: 5f1b 91bd cd22 523c e802 54bd 83fa 6fbc
000001d0: 5f22 4bbd ea88 81bd e569 bd3d 6ea7 5d3d
000001e0: 69bf b03d 804e e5bb 15c7 8abc ad77 12bc
000001f0: c095 49bd b6fb 2fbd 8e1a 35bc bac6 5cbc
00000200: bc18 b23d 87d1 e73d d0d1 1abb 7eba a93d
00000210: 3619 793d 3527 ae3d c74b 46bd eade b73d
00000220: 4376 23bd 1a30 b63d e023 913d 9189 a73d
00000230: 1e8d 893b d653 cbbc 5f4b ab3c 6275 943d
00000240: 77ee 55bd fe27 9b3d d6c9 8fbd ed73 c3bc
00000250: d919 b53d b9d4 b83d eabd 15bc f7dc f33d
00000260: 04ae 953d e83e 1d3d 2a80 fe3b 85db 9a3d
00000270: 23c4 b93d c066 bd3d d662 b4bb b0c7 e6bc
00000280: e829 d13b 4d8b 5ebd ee06 ccbd 3a21 ebbb
00000290: 21b0 143d d10f 90bc 54ba 67bd be19 0abd
000002a0: d52a b2bd 492b d03d ecf8 89bd 7807 a43d
000002b0: 9ff3 f6ba 0bde b6bc 88ab cfbc 45c5 d4ba
000002c0: 9e61 5b3d 5933 8a3d e80c b03d e3bf 013c
000002d0: a0f0 38bd 3fbf b03c a5e3 d13d 982c 2abd
000002e0: 0378 55bd e5fe 9c3d a53f 9a3d e60f 6dbd
000002f0: dc24 8f3c 4b84 a43d 5bfe 7d3d c43f edbd
00000300: 7304 febc b7b2 aa3c ecb8 9cbd ae4e 523d
00000310: a2fd 1d3d 76f7 8e3c 76f5 d1bd 7b11 513d
00000320: d38b 923d d711 e33c 2745 d1ba 5adf b03d
00000330: 3f9a 613d f834 883d ea56 013e 7097 65bd
00000340: 5ae8 5bbd 6c0e 46bd e9b5 b5bc 6b84 15bd
00000350: 47aa fd3c be87 f83c 7df8 a33d 9a43 08be
00000360: 9303 a1bd f3b1 943c 4d8e 3bbd 9828 89bb
00000370: 0140 b4bd f5e6 f3bd 218d e53d 6701 33bd
00000380: a484 c33d 0da2 5c3d f2bd b23d 1d10 cc3d
00000390: faf4 883d df0c c43c 297e 97bd d0f8 9fbd
000003a0: d2a4 8f3d 725d 57bc 688d c13d b5a3 23bd
000003b0: 7900 77bb 7fcf 4bbd eecf 343d 117c a63d
000003c0: d945 f03d e8f8 4abd 0740 bbbb 4df7 b3bd
000003d0: 1f93 1e3d 1d7c 9e3d f05e 8f3d bdd5 b13d
000003e0: d00e 9b3d 9fd7 8d3b 4c92 6f3d dcb1 48bc
000003f0: 2e7e 973d dfd8 383b a7e5 d5bd 7810 dcbc

fc2.bias f4 [84]
0.0064215492 -0.027698994 -0.002170578 -0.06434915 0.016190503 0.008596741 -0.060675226 0.02213053
0.09081732 0.059745234 0.0120205805 -0.05985192 -0.06318039 0.027881462 0.019361645 -0.09298441
0.07251133 0.018019035 0.0961535 -0.02600827 -0.0059194146 -0.025507988 -0.0632868 0.082617566
-0.07690714 0.03208059 0.06183605 0.064094335 0.0792004 -0.0018178079 -0.061483473 0.062931515
-0.07202781 -0.04936627 -0.031980366 0.057147868 -0.04125535 -0.055639148 0.043570876 -0.069887355
0.034774825 0.035052463 0.0071397433 -0.069951445 0.0660061 -0.07417873 0.071498185 -0.034957506
-0.08166404 0.047786098 -0.011589688 0.01432637 -0.030637981 -0.056797177 -0.0151619995 -0.061910473
-0.0611272 -0.03627611 0.053687587 0.003671668 0.037812114 0.04829502 0.08779378 -0.003289931
0.03275981 -0.04600359 0.08461587 0.081457056 0.08898463 -0.0056552663 -0.06782729 0.020675981
0.06660862 0.026731733 0.033774707 0.005839553 0.009463414 0.053213198 0.08893327 0.08373193
0.022395147 -0.053317863 -0.038933367 -0.0047670896
00000000: dc6b d23b 00e9 e2bc 4240 0ebb 7dc9 83bd
00000010: f2a1 843c 58d9 0c3c 9686 78bd 164b b53c
00000020: 6efe b93d 6bb7 743d f8f1 443c 4927 75bd
00000030: b864 81bd aa67 e43c 509c 9e3c 9c6e bebd
00000040: d280 943d a89c 933c 20ec c43d 4c0f d5bc
00000050: a6f7 c1bb 21f6 d0bc 839c 81bd 6633 a93d
00000060: 7e81 9dbd f066 033d cc47 7d3d e443 833d
00000070: d233 a23d 8343 eeba 18d6 7bbd 3de2 803d
00000080: 5183 93bd 4934 4abd d8fd 02bd e213 6a3d
00000090: 5ffb 28bd e0e5 63bd 6077 323d 1a21 8fbd
000000a0: 0c70 0e3d 2c93 0f3d 82f4 e93b b442 8fbd
000000b0: 352e 873d 05eb 97bd a46d 923d 9a2f 0fbd
000000c0: 7a3f a7bd 5bbb 433d ade2 3dbc 27b9 6a3c
000000d0: 81fc fabc 28a4 68bd 096a 78bc d695 7dbd
000000e0: 8460 7abd 4296 14bd 84e7 5b3d 5ea0 703b
000000f0: e0e0 1a3d 00d1 453d 3acd b33d e29b 57bb
00000100: 272f 063d 436e 3cbd 164b ad3d f5d2 a63d
00000110: 933d b63d d04f b9bb 09e9 8abd ad60 a93c
00000120: 1a6a 883d 82fc da3c 5957 0a3d b959 bf3b
00000130: 6f0c 1b3c 15f6 593d a522 b63d a57b ab3d
00000140: 0776 b73c d563 5abd 9878 1fbd 3f35 9cbb

fc3.weight f4 [10, 84]
-0.09408483 0.12165442 -0.054331675 -0.0663785 0.033950195 -0.09268165 0.06453237 -0.03651362
-0.048920657 0.049729176 0.13141721 0.030636948 0.16847517 -0.17129716 0.019473014 0.04573229
-0.087463565 -0.23584856 -0.13068683 -0.021838188 0.06552314 0.13492428 -0.00140535 -0.02096024
0.06375289 0.17781404 -0.02372825 -0.2626382 0.23351014 -0.04274217 0.021181963 0.06791182
0.08519313 0.04588485 0.0583789 -0.13191696 -0.07924924 -0.09347308 -0.05872936 -0.1273151
-0.009836589 -0.079016946 0.1906537 -0.09012055 0.061792213 -0.030786786 0.2105568 0.0835044
0.17276905 0.073783815 -0.0752974 0.07064769 -6.116147e-05 -0.12053486 -0.051833328 -0.12514317
0.07459567 0.117540844 0.06349475 -0.06338448 0.010018007 -0.10134199 0.019570796 -0.06532034
0.07228171 -0.05638838 -0.113743305 0.0602182 0.056681544 -0.033246983 0.069574215 -0.1432034
0.23517413 -0.11155404 0.090335034 0.058103748 -0.07462733 -0.10241658 -0.1828688 0.059823092
-0.0435385 -0.06328535 0.13138983 0.08945086 -0.046725426 0.1344066 -0.05752539 -0.09925415
0.050240465 -0.06307213 0.052935503 0.10395855 0.14453389 0.07407331 0.034374155 0.08730918
-0.064028665 0.03646524 -0.08675746 0.07633139 -0.055775862 0.18085174 0.25929013 0.08055365
0.0145246275 0.13970433 -0.062265676 -0.047423266 0.018991152 -0.09292273 -0.03802458 0.14500819
0.05329237 -0.0572266 -0.11510736 0.12899229 -0.028458295 0.0032972354 0.10852162 -0.14849764
0.03129056 0.07116916 0.04527935 -0.089289606 0.15958892 -0.051843762 -0.2852877 0.071457244
-0.11788324 -0.09974105 0.07573242 -0.045877647 -0.08321561 0.02320604 0.0065700626 -0.03483014
0.106995866 -0.068907544 -0.07993435 0.021243086 0.019352907 -0.11244265 -0.07722659 -0.17359546
0.16974398 -0.035451785 -0.09229128 -0.2521114 -0.16921812 -0.11535861 0.08778927 0.04859432
0.037408106 0.013512649 -0.02430281 0.1282207 0.11352983 0.060654342 -0.07622205 0.08345302
-0.07833971 0.25224966 -0.0024179604 -0.10759573 0.07641783 0.0036127581 0.0915378 -0.12783976
0.12606922 0.16875589 0.0061364565 -0.033152495 0.18645632 0.010551114 0.07795351 0.016035326
-0.18473542 0.042407397 -0.07259107 0.09994836 -0.049212407 0.24269807 0.050149247 -0.10087934
-0.12040732 0.073648036 -0.051441155 -0.12747805 0.120213054 -0.14502458 -0.1299695 0.17964281
-0.019221302 0.19704546 0.0026585034 -0.028064707 -0.17864026 -0.007051125 -0.14760841 -0.10480072
0.058683194 0.101162836 -0.08239692 -0.092647426 0.17502001 -0.047093194 -0.03669626 -0.11932712
-0.12959519 0.09584438 0.063269936 -0.20395581 0.018408952 0.08111099 0.15441167 0.062344078
0.059375405 0.002631333 0.1243945 0.14477578 0.06370652 -0.05827757 -0.0073168403 -0.17147388
0.14544207 0.062500976 0.031484623 -0.12519728 0.17152064 -0.06859967 0.005715592 -0.1381784
0.013734509 0.18230055 0.075508356 -0.076066524 0.10947981 0.0020628083 0.029779185 0.09218428
-0.05573258 -0.2167004 -0.075304605 -0.121153235 0.044689428 -0.12691666 0.19855846 0.084964424
0.07277541 -0.021195566 0.11515609 -0.06645855 -0.10178686 -0.13362706 -0.022604845 -0.015695158
00000000: 8caf c0bd f425 f93d e48a 5ebd 73f1 87bd
00000010: 5c0f 0b3d e0cf bdbd 8c29 843d 4e8f 15bd
00000020: 0761 48bd d2b0 4b3d 3c92 063e 56fa fa3c
00000030: c184 2c3e 8668 2fbe df85 9f3c c851 3b3d
00000040: 1920 b3bd 4982 71be c5d2 05be 00e6 b2bc
00000050: ff30 863d 9729 0a3e b933 b8ba cfb4 abbc
00000060: e090 823d e214 363e bf61 c2bc 8478 86be
00000070: 481d 6f3e 6a12 2fbd cc85 ad3c 5a15 8b3d
00000080: bc79 ae3d c1f1 3b3d b71e 6f3d 3d15 07be
00000090: 6d4d a2bd d06e bfbd 338e 70bd e45e 02be
000000a0: a529 21bc a3d3 a1bd b93a 433e 1f91 b8bd
000000b0: d519 7d3d 9234 fcbc 349c 573e 5b04 ab3d
000000c0: 5fea 303e f81b 973d 8635 9abd bcaf 903d
000000d0: d043 80b8 fbda f6bd 2f4f 54bd 8825 00be
000000e0: 9dc5 983d 41b9 f03d 8909 823d b9cf 81bd
000000f0: 9122 243c 648c cfbd ef52 a03c acc6 85bd
00000100: 6f08 943d 80f7 66bd 40f2 e8bd 5ca7 763d
00000110: e82a 683d fd2d 08bd ed7c 8e3d e9a3 12be
00000120: 7dd1 703e 7276 e4bd 9301 b93d 32fe 6d3d
00000130: 37d6 98bd c9bf d1bd f541 3bbe 0f09 753d
00000140: 6d55 32bd c09b 81bd 0e8b 063e 0332 b73d
00000150: 2963 3fbd e2a1 093e be9f 6bbd c345 cbbd
00000160: f2c8 4d3d f62b 81bd e6d2 583d 38e8 d43d
00000170: b100 143e bfb3 973d eacb 0c3d 28cf b23d
00000180: 7621 83bd 935c 153d e5ad b1bd a253 9c3d
00000190: 3b75 64bd 3331 393e adc1 843e 50f9 a43d
000001a0: b4f8 6d3c a70e 0f3e 4b0a 7fbd e63e 42bd
000001b0: 5593 9b3c 464e bebd a9bf 1bbd 077d 143e
000001c0: 1a49 5a3d 7066 6abd 68bd ebbd 8e16 043e
000001d0: 5f21 e9bc 6e16 583b 9540 de3d c40f 18be
000001e0: 882a 003d 23c1 913d d776 393d 78dd b6bd
000001f0: 476b 233e 205a 54bd 3b11 92be 2d58 923d
00000200: c56c f1bd 0945 ccbd 9919 9b3d 33ea 3bbd
00000210: f26c aabd 981a be3c ae49 d73b 0daa 0ebd
00000220: a620 db3d 661f 8dbd 9fb4 a3bd fb05 ae3c
00000230: fd89 9e3c 5548 e6bd f928 9ebd 02c3 31be
00000240: 5ed1 2d3e e435 11bd 3603 bdbd bf14 81be
00000250: 8447 2dbe 2341 ecbd dcca b33d d60a 473d
00000260: 3e39 193d 2864 5d3c b016 c7bc 4a4c 033e
00000270: 5482 e83d b070 783d 4e1a 9cbd 6be9 aa3d
00000280: 9270 a0bd de26 813e a576 1ebb 265b dcbd
00000290: f480 9c3d 06c4 6c3b 2c78 bb3d 6de8 02be
000002a0: 4a18 013e 58ce 2c3e 5414 c93b e9ca 07bd
000002b0: 68ee 3e3e 94de 2c3c 17a6 9f3d 845c 833c
000002c0: 482b 3dbe 61b3 2d3d a0aa 94bd bab1 cc3d
000002d0: f392 49bd d885 783e 4c69 4d3d d499 cebd
000002e0: 1d98 f6bd c8d4 963d f6b3 52bd 9b89 02be
000002f0: 4332 f63d 5381 14be b916 05be 49f4 373e
00000300: fe75 9dbc 49c6 493e 493a 2e3b f5e7 e5bc
00000310: 79ed 36be 200d e7bb a926 17be c3a1 d6bd
00000320: ca5d 703d 762e cf3d b7bf a8bd efbd bdbd
00000330: 7238 333e cbe4 40bd d14e 16bd c761 f4bd
00000340: 9ab4 04be 0f4a c43d ab93 813d cbd9 50be
00000350: 5fce 963c 851d a63d 181e 1e3e 815c 7f3d
00000360: a033 733d 7172 2c3b 8bc2 fe3d 1a40 143e
00000370: 9078 823d 76b4 6ebd 1bc2 efbb d996 2fbe
00000380: c4ee 143e 8300 803d 05f6 003d b733 00be
00000390: 1ba3 2f3e fc7d 8cbd dc49 bb3b a37e 0dbe
000003a0: b506 613c ffac 3a3e 20a4 9a3d c4c8 9bbd
000003b0: f336 e03d 2e30 073b 7af3 f33c 1dcb bc3d
000003c0: d947 64bd b6e6 5dbe 4d39 9abd 301f f8bd
000003d0: 430c 373d 71f6 01be e952 4b3e d401 ae3d
000003e0: 460b 953d 53a2 adbc f5d6 eb3d 6c1b 88bd
000003f0: a175 d0bd 88d5 08be cc2d b9bc 2293 80bc

fc3.bias f4 [10]
-0.11693315 -0.023982795 -0.026637092 0.046621457 0.08902965 0.060968842 -0.05769983 -0.025505682
-0.007347876 0.008370664
00000000: a67a efbd 9177 c4bc 0836 dabc 24f6 3e3d
00000010: 2d55 b63d 77ba 793d a856 6cbd 4bf1 d0bc
00000020: 74c6 f0bb 1c25 093c
