PyCharmWorkshop/AI/Projects/Project3/checkpoints/LeNet5/epoch-8.pth (torch, 243143 bytes, 10 tensors)

conv1.weight f4 [6, 1, 3, 3]
00000000: 9eff cb3e e5f7 b83d 180b 333e 203d f7bd
00000010: 158c 8e3e ca9c 67be 1fd1 3b3e 0e63 e83e
00000020: 9ea2 6fbe 16e8 f23d 8c83 f13e 42b0 f9bd
00000030: 50b5 ea3e b672 fd3e b604 423c d894 343d
00000040: 0da7 053e 2409 cf3e 9214 91be c8bb 72be
00000050: 6ec1 e5bc dee3 a83d ee3d 953e 5548 013e
00000060: a530 9b3e 64d6 e73d 6508 c23e 20a0 8d3c
00000070: 97cc 153f 873a 2d3f f988 443f aeae db3e
00000080: b1cd df3e cc59 243f bc2b 423e 70b2 8ebe
00000090: cf81 033f e7d3 6a3e b617 84be 6687 b43e
000000a0: 3a86 463f 52a8 183e f69f 373f 6d4e 573f
000000b0: d7f0 ad3e e65b b53e 1d43 6bbd 0783 0e3f
000000c0: 1493 033f e132 1ebe bd2f 023f d782 883e
000000d0: 03da bdbe 6efc b5be
0.39843458 0.09031657 0.174847 -0.120722055 0.2784125 -0.22618404 0.18341492 0.45388073
-0.23401877 0.11860673 0.47170675 -0.12191822 0.45841455 0.4950158 0.0118419435 0.04408726
0.13052006 0.4043666 -0.28336006 -0.23704445 -0.028046336 0.08246587 0.2914881 0.12625249
0.3031055 0.11320189 0.3789703 0.017288268 0.58515304 0.6766743 0.76771504 0.42906708
0.43711618 0.6419952 0.18961996 -0.27870512 0.5136995 0.22932397 -0.2579934 0.3525955
0.77548563 0.14907959 0.71728456 0.84104043 0.3397281 0.35421675 -0.05743705 0.5566868
0.513963 -0.15449096 0.5085409 0.26662323 -0.37080392 -0.3554415

conv1.bias f4 [6]
00000000: 63f5 6e3e a8ec 04be 3db4 73be 269f ec3e
00000010: 9488 ab3e 0489 0f3e
0.23335795 -0.12980902 -0.23799224 0.4621517 0.33502638 0.14017111

conv2.weight f4 [16, 6, 3, 3]
00000000: 78ed 0f3e 4815 273d a59b ec3c 0b18 c1ba
00000010: 1162 acbc b7c7 f73d 478c 633c 6a4d c43d
00000020: 55cb f43d 3120 4cbc 2860 13be 85f6 0cbd
00000030: 7a19 dabc dea9 26be 6e05 113e d1b4 cbbd
00000040: 2771 ddbd 9235 7dbd 1e95 e73d dca3 1cbe
00000050: e7b7 93bd 294b 9fbd 770c bb3d 03bf 343e
00000060: 36f8 debc 67fe 053d bca9 ef3d 4045 9a3d
00000070: d7fc 0abe f9a8 3bbe df49 b63d 12c3 c5bd
00000080: d58e 6b3e b73e 06be 047e 0e3e 74be 233e
00000090: be07 a23d 5afb 4dbd 78ce 09be 083c d1bd
000000a0: 9485 30be d393 aabc 4279 a93d 8183 6a39
000000b0: 29a7 4ebc 1abd 933c 4de7 75bc 6e5b e63b
000000c0: 8a45 df3d 383b b2bd 1db5 fa3d 93c9 00be
000000d0: 5057 8abd fce5 093e 7722 5d3e 8412 103e
000000e0: 2a78 6fbd 0764 293c 3508 58bc 1790 e43d
000000f0: a273 0b3e 13b5 ae3d b5f5 03be f6c5 91bd
00000100: aa69 bcbd 0ed5 e5bd ab0d 473e f98d 773d
00000110: 5f04 1cbe 5a91 223e 1825 e43c 8bef 023e
00000120: 9002 fdbc 5b9b 15be fc2f bfbd 017e c9bd
00000130: be86 ccbc 49df b5bd 3eff cebd 5f79 69bd
00000140: 2dff 033e c3a3 5e3e 42f3 06be bcce a3be
00000150: 0002 d83d b1ce 823d f11d 89bd 9381 6fbd
00000160: a391 153e 42ea 4e3c aaa1 893e 4f7d 0ebc
00000170: fdd7 95be 3022 5b3e 5ef8 123d d98c 96bd
00000180: 9494 993e d822 9d3e 2cb7 8c3d 80e7 c1bd
00000190: b440 833c 09a5 50bd 9dd8 973d 1deb 383d
000001a0: 77dd 82bd da5f 743d 8ece 1b3e 861d 2d3e
000001b0: 5e56 08be 743b cd3d c625 6abb 60f0 36bd
000001c0: 1677 71bd 30ea 493c ed11 17bd cc46 1d3e
000001d0: 95a1 a13c d7cb 1cbe a6a8 77bb c773 283d
000001e0: 4c39 e9bd 54d8 003e abd2 94bc 69b9 e4bd
000001f0: 5e72 b7bb cad5 96bd 6095 c7bc 4e01 a13d
00000200: a946 06be 978a e13d af84 993d b772 e6bd
00000210: 7020 9e3d 7111 96bc d3df b6bd b58f 23be
00000220: dbd2 9d3d 7333 72bc d6ab 6cbd f9f9 653d
00000230: 2554 3d3e bda4 dbbd 03ba 2d3e 6d00 97bd
00000240: 9d1b 66be e50a b03d 2edb c43d 2963 69be
00000250: f185 243e 0ca5 e3bc 0071 a73d bf11 823e
00000260: fca4 183e a30c 0ebe 5adc bf3d 37db 3a3d
00000270: d887 0b3c 8437 ad3d fc79 423b 9298 d8bd
00000280: d62c 393d 6148 053e 0440 b03d 6029 bc3d
00000290: 76da 053e 704b e53d 6d7f 0a3e 99a0 8e3c
000002a0: 1def 06be 88bd f63c 2050 94ba 9c9e a13d
000002b0: 44ac 4fbd 8588 c03d 6e99 22bd cf4c 323c
000002c0: ae2e bc3c 7a42 b73d f6d2 923c 3657 e33d
000002d0: fb90 a0bd 2927 d6bd 73e4 ffbd cbd6 d7bc
000002e0: d612 973d 818a 87bc 4617 dc3d db25 a33c
000002f0: d447 23bd efc0 d43d d2ba fe3b ae40 763c
00000300: 0139 12be 9366 d83c 8ca0 e7bd 6490 a9bc
00000310: 396c 0a3e 3b05 eebd 0147 bd3d 766e f33c
00000320: 2b19 aa3d d886 81bc 8990 183e 6bba 253e
00000330: 9f45 883d dad6 c3ba 5f16 803d 6030 bebd
00000340: 6e51 e6bd 0de3 863d 4cda 04be 9122 ae3d
00000350: 33cf 4c3d 4fc1 14be face 86bc cb14 cabd
00000360: abab 9cbc 8922 393d d11b bf3c 146a d03d
00000370: 1758 383e f91d 653d f89b 81bd 6039 e13c
00000380: cb07 9c3c e977 bdbd 3085 b53d d1d4 f23d
00000390: 23d0 83bd 4593 f6bc 1bc2 51bd 789e 493e
000003a0: f7f8 173d 6e36 4d3d 6a3c 00bc 2e39 76bd
000003b0: 5c2a 023d 7f41 563d 957b 073d 6bfa ec3c
000003c0: b397 f53d 842a 26bd 73f6 c53d 3159 64bd
000003d0: 58f5 823e 99e7 dd3d 77e1 6b3e 63ab 61bc
000003e0: 0cbb 033d f331 513d 3d86 f9bc 6610 d4bc
000003f0: 55aa 8fbd 04f9 f13d af93 263e 065a 153e
0.14055431 0.04079178 0.02888281 -0.0014731897 -0.021042855 0.120986395 0.013888425 0.09585078
0.11952845 -0.012458847 -0.1439215 -0.034414787 -0.026623476 -0.16275737 0.14162228 -0.09946597
-0.10812598 -0.061818667 0.11307739 -0.15296882 -0.07212811 -0.077780075 0.09133237 0.1765099
-0.027217966 0.03271332 0.11702296 0.0753274 -0.13573013 -0.18326177 0.089008085 -0.09656347
0.23003705 -0.13109861 0.13915259 0.15990621 0.07911633 -0.050288536 -0.13457668 -0.10216528
-0.17238456 -0.020822441 0.08275081 0.00022364968 -0.012613096 0.018034507 -0.01500876 0.0070299422
0.109019354 -0.08702701 0.12241576 -0.12576894 -0.06754935 0.13466638 0.21595179 0.14069563
-0.058464207 0.01033879 -0.01318555 0.111602955 0.13618329 0.08530631 -0.12886699 -0.07117836
-0.09199841 -0.112222776 0.19438808 0.06043813 -0.15236042 0.1587576 0.027849719 0.12786691
-0.030885011 -0.14610045 -0.09335324 -0.098384865 -0.024966594 -0.08880479 -0.10107277 -0.057000514
0.1289031 0.21742158 -0.13178733 -0.31993663 0.105472565 0.063870795 -0.06695164 -0.05847318
0.14606337 0.012629094 0.26881152 -0.008696868 -0.29266348 0.2139976 0.035881393 -0.07351083
0.2999617 0.30690646 0.06870875 -0.09467983 0.016022064 -0.05093864 0.074143626 0.045146096
-0.06389897 0.059661724 0.15215513 0.16905794 -0.13314196 0.100211054 -0.003572808 -0.044662833
-0.05895146 0.012323901 -0.03688233 0.15359038 0.019730369 -0.15312134 -0.0037789731 0.04112604
-0.11387882 0.12582523 -0.01816686 -0.11168177 -0.0055983504 -0.07364996 -0.02436322 0.07861577
-0.13112892 0.11012762 0.074960105 -0.11252349 0.07721031 -0.018318864 -0.0892941 -0.15972789
0.07706233 -0.014782774 -0.057781063 0.056146596 0.1848913 -0.10724781 0.16965489 -0.07373128
-0.22471471 0.08595828 0.09612118 -0.22791733 0.1606672 -0.027788661 0.0817585 0.25404164
0.14906687 -0.13872008 0.093682006 0.045619216 0.008516274 0.084578544 0.002967476 -0.105759755
0.045208775 0.13015892 0.0860596 0.09187579 0.13071617 0.11196029 0.13525172 0.017410563
-0.13177152 0.030119672 -0.0011315383 0.078915805 -0.050701395 0.09401039 -0.039697103 0.01088257
0.022971477 0.08948226 0.01792286 0.111006185 -0.07840153 -0.10456688 -0.12494745 -0.026347538
0.073766395 -0.016545536 0.107466266 0.019915512 -0.039863423 0.10388362 0.0077737356 0.015030069
-0.14279558 0.026416099 -0.11309919 -0.020698734 0.13517846 -0.116220914 0.092420585 0.029715758
0.08305582 -0.015811369 0.14898886 0.16184394 0.06653904 -0.001494135 0.06254267 -0.092865705
-0.11246 0.06586275 -0.12973899 0.08502687 0.050002288 -0.14526866 -0.016456116 -0.09867247
-0.019124826 0.04519895 0.023328694 0.10176483 0.18002354 0.055936787 -0.06328577 0.027493179
0.019046685 -0.09251387 0.08863294 0.11856998 -0.06436183 -0.03009952 -0.051210504 0.19689357
0.037102666 0.050100736 -0.007826904 -0.060113125 0.03177868 0.052308556 0.03307684 0.028928002
0.11991825 -0.04056789 0.09666147 -0.055749122 0.25577807 0.10835189 0.23035227 -0.013773772
0.032160804 0.051073026 -0.030459518 -0.025886726 -0.0701491 0.11815074 0.16267274 0.14585122

conv2.bias f4 [16]
00000000: 0376 52bd 438e 8bbd 9bc5 27bb 610a c1bc
00000010: 642c 50bc 3f1d 953d 2158 cebd 6807 9d3c
00000020: 8a4d 133e 6e86 b2bc 77ab c43d 2175 fabd
00000030: 97ca cdbd d7a7 a7b9 1458 253c bdc3 3dbc
-0.051382076 -0.06814244 -0.002559996 -0.02356452 -0.012705896 0.07280969 -0.10075403 0.01916857
0.14385048 -0.021792617 0.09603017 -0.12229372 -0.100484066 -0.00031977773 0.0100918 -0.011582312

fc1.weight f4 [120, 400]
00000000: d852 84bc 9fd5 14bd 26c0 c1bc a11f cd3c
00000010: 28cc 483d 55d8 5ebd 7f5c 8abb ea4c d43b
00000020: adf5 ab3c 1192 443a 6593 2a3d 4687 2a3d
00000030: 182d 30ba d0fa 50bd d6e4 853c 433b d63c
00000040: 12fc 9fbc b63c 81bd 3000 9f3c 1f2e e23c
00000050: 799b a33b e8d3 933b 75e1 ffbb f3ee 49bc
00000060: d5bc 3dbd 51e9 263d 67c8 7f3c 7a2c 63bd
00000070: 32f8 cbbc 5b23 363c eb09 23bd ac81 afbc
00000080: 04d7 b33c 210e 3a3d e7d1 e8bc 2d4a b53c
00000090: 6847 6c3c 1e4e 783d e168 bd3b 00e6 84bc
000000a0: c8d7 0f3c 045d 9f3c 1d39 d83b 6711 853d
000000b0: 7e6d 7b3d 7970 37bd 72ab 4abd a74e 3cbd
000000c0: 76f6 88bd 3bad 22bc 2b80 2f3d 9671 2e3c
000000d0: c358 e6bb 04c3 fd3c d9b5 22bb ece7 26bd
000000e0: 5e1f 033d 242a abbc fab8 623d 08f7 cfbb
000000f0: a669 c13c 80b3 26bd 25e9 3ebd baf8 833d
00000100: c877 e8bc 1039 3f3c 3f3b 0bbd ab40 63ba
00000110: 10dc d0bc ab75 a6bc 1428 0abd ed60 5ebd
00000120: 7d6e 2a3c 9588 83bc f5d8 82bc 1b44 d23c
00000130: e25f da3c 9829 11bd 2b79 e93c 0341 db3c
00000140: 59f5 10bd 2aea 51bb d594 2b3d f2b1 d5bb
00000150: 4da1 b6bc 24e1 0f3d a136 2ebd 1ae5 f63c
00000160: 3078 aabc 236b c93b 2ba5 85bc 697c 683a
00000170: 79f7 273b f360 333d de47 1bbb ac6f 47bc
00000180: 0238 65bb acc2 8c3c f43a d3bc 8113 e4bb
00000190: 0712 cabc 9149 09bd 0998 933c efc1 d9bb
000001a0: ee2d 67bd 3515 25bd 537d 4dbd 77e0 9ebc
000001b0: 0c72 0d3c de3d 5139 fbff 66bd ee85 aeba
000001c0: 6fbc a23b 1713 95bc 47ba 893c 3632 e73c
000001d0: 6915 383d 2a75 12bd afd1 d0bc fa93 4cbd
000001e0: 86e7 203d b12c b33b a60a d9bc 8de5 51bd
000001f0: 20cd 403d f9de cb3c 1713 0d3c 7741 79bb
00000200: b952 2039 5bf5 2cbb 278b 25bd 5967 c53c
00000210: 9586 253d f98e 653d 5e77 22bd 64bb 843c
00000220: 251b 22bc 1b66 0d3c 841a 3e3d 4036 98bc
00000230: c99f 5c3d e2c5 1b3d aa19 0d3d c3ed 873c
00000240: 9a0f 88b9 6c6b 3c3d 5189 01bd 81a2 d33c
00000250: e675 643d 75a2 3c3d 48e9 283d 8ed2 313c
00000260: 9df9 a2bc 18e1 0fbc 4430 73bc a9dd e9bc
00000270: 830d 613b 304f 373c e4c1 d5bb d359 0d3d
00000280: 98a3 37bd 1227 3fbc 526a b9bc 2ee7 d6bc
00000290: 80d5 28bd 9abd c63c b594 e13b 2a6b f5bb
000002a0: d9c1 593d cc4f 99bc b15f de3b 8f17 39bd
000002b0: b8ac f23b 2d51 1d3d bd33 4d3d 8272 093d
000002c0: 1d3e 4dbd e813 343d 5996 05bc 11db 7c3a
000002d0: f6c4 c73c 38c1 b83a f2d8 4ebd 4e17 b0ba
000002e0: acb2 2a3d f509 983c 3462 e33c fdea 723d
000002f0: 3404 0c3d e9a2 843c 1d85 3e3d 2c5b 693c
00000300: 96e6 d03b 6aed 343c 9cab fbbc b391 64bd
00000310: a16a 26bd 974c 1ebc 7947 0c3b c574 f3bc
00000320: e0af 63bc cf6c 383d 1bff 8dbb 7f61 11bd
00000330: f7d6 29bc 0b2b 2abd 1c88 32ba 4245 c6bc
00000340: e40d 2c3d 67b3 fbbc 39c6 01bd e70c 153d
00000350: 01d3 6d3d f8a7 93bb f045 3cbc 9cb5 a13c
00000360: 2e7b 273d 8a22 18bc 4ff1 523d 2a28 743c
00000370: 7946 3fbd 4674 e3bc dd5c 3a3d 13f1 7ebc
00000380: 6e40 8e3c 8a05 7cbc 8009 a13a 770d 1cbd
00000390: c1ed 7abb ba33 503c b976 fdbc c41e 24bd
000003a0: e2d0 7e3b 1719 013d 65c5 af3c a147 18bc
000003b0: fc26 c7bc 8a6e 30bd 0344 37bd 7aa1 94bd
000003c0: 6ec0 123c 6896 583d 6a12 05bd 9b7a 3e3d
000003d0: fe49 22bd 1e2e 1abd e037 153d 0855 2dbd
000003e0: 5f15 aa3c 5ec9 64bc 6091 61bd 12e4 343b
000003f0: 3590 493c 407c c8bc ffd8 3a3d 5718 d73c
-0.016152784 -0.036336537 -0.023651194 0.025039496 0.049022824 -0.05440553 -0.004222452 0.0064788954
0.02099117 0.0007498572 0.041644473 0.041632913 -0.00067205867 -0.051020443 0.016344469 0.026151305
-0.019529376 -0.06310408 0.01940927 0.027609883 0.004992899 0.004511345 -0.007808859 -0.012325036
-0.046322662 0.04074985 0.0156117445 -0.055462338 -0.024898622 0.011116828 -0.03980438 -0.021424137
0.021953113 0.04542363 -0.028420402 0.022130096 0.014421321 0.060621373 0.005780325 -0.016222954
0.008779474 0.019453533 0.0065986053 0.0649746 0.061383717 -0.044784997 -0.04947991 -0.045973446
-0.06687634 -0.009928997 0.04284684 0.010647198 -0.007029624 0.03097678 -0.0024827628 -0.04074852
0.032012336 -0.020894118 0.05535219 -0.006346587 0.023609947 -0.04069853 -0.046609063 0.06443925
-0.028377429 0.01167132 -0.03399205 -0.0008668999 -0.025495559 -0.02031978 -0.033729628 -0.054291654
0.010402319 -0.016056338 -0.015972594 0.02566724 0.026657049 -0.035440058 0.02850016 0.026764398
-0.03539023 -0.0032030442 0.041889984 -0.006521457 -0.022293711 0.03512682 -0.042532567 0.030138541
-0.020809263 0.006146805 -0.01631411 0.0008868636 0.0025629683 0.04379363 -0.002369396 -0.012172621
-0.003497601 0.01718267 -0.025784947 -0.006960333 -0.0246668 -0.033517424 0.018016832 -0.006645433
-0.056440286 -0.040303428 -0.050168347 -0.019394143 0.008633148 0.0001995484 -0.056396466 -0.0013315061
0.0049663107 -0.01819758 0.016812457 0.028222185 0.044942293 -0.035756268 -0.02549061 -0.04994581
0.039283298 0.005467974 -0.026494335 -0.051244307 0.047070622 0.024886595 0.008610508 -0.0038033405
0.00015289606 -0.002639136 -0.04041591 0.024097132 0.04041155 0.056044552 -0.03966462 0.016202636
-0.009894167 0.008630301 0.046412006 -0.018580556 0.05386332 0.038030513 0.034448303 0.016592866
-0.00025951565 0.046000883 -0.031625096 0.025834324 0.0557765 0.04605337 0.0412381 0.010853423
-0.019894416 -0.008781694 -0.01484305 -0.028548079 0.003434033 0.011188313 -0.0065233577 0.03450949
-0.04483375 -0.01166703 -0.022633705 -0.026233282 -0.041219234 0.024260331 0.0068841823 -0.0074895816
0.053163383 -0.018714808 0.0067863096 -0.045188483 0.0074058436 0.038407493 0.05009817 0.03355647
-0.050108064 0.043964297 -0.008153521 0.00096456805 0.02438591 0.001409567 -0.050499864 -0.001343468
0.0416743 0.018559435 0.027756788 0.059306134 0.034183696 0.016190963 0.046513665 0.0142429285
0.0063751442 0.011042932 -0.030721478 -0.055803012 -0.040629033 -0.009661815 0.0021404906 -0.029718766
-0.013896912 0.045025643 -0.0043333895 -0.03549337 -0.010366193 -0.041544955 -0.0006810443 -0.024202947
0.042005435 -0.030725194 -0.03168318 0.036389258 0.058062557 -0.0045061074 -0.011491284 0.019739918
0.040888958 -0.0092855785 0.05149966 0.014902154 -0.046698067 -0.027765404 0.045498718 -0.015560406
0.017364707 -0.01538218 0.0012286156 -0.03809878 -0.0038288685 0.012707645 -0.0309404 -0.040068403
0.0038881828 0.03151807 0.02145643 -0.009294421 -0.024310581 -0.04307417 -0.044742595 -0.07257362
0.008957012 0.052877814 -0.032488264 0.046503644 -0.039621346 -0.037641637 0.03643024 -0.04231742
0.020762144 -0.013964025 -0.05507028 0.002760176 0.012302448 -0.02447331 0.0456171 0.026256723

fc1.bias f4 [120]
00000000: a11a 17bd f8c9 063d 2539 7a3b 79e7 09bd
00000010: 7fad 0a3d 7322 173c 1d99 48bc 8022 f0bb
00000020: ebe5 ef3c a5f0 d93c 6a82 f9bc e440 49bc
00000030: c558 013d 183c b63c 6e3a bcbc 98e5 753a
00000040: 3963 41bc bc19 f03c 7449 013c 9f00 16bd
00000050: a796 eebb d3c0 0bbd b936 2fbd 88b5 bebc
00000060: d359 683b 5c9e 42bd f836 1abd 77d5 053d
00000070: 7680 113d 2119 463c 7931 16bc 884f 163d
00000080: 671b 24bc b4c8 463d 1208 04bd 99f0 beba
00000090: 3f91 6a3b f1c3 243d 0d40 83bc 9570 643c
000000a0: f91a 2fbd 886e 2a3d 1e0c a2bc d540 f23b
000000b0: 3ba9 153d 78ef 493d f270 01bd f0dc 513d
000000c0: 8d90 1bbd b05c 023d 0528 ea3c e56b c6bb
000000d0: b974 123d 9648 08bd cce9 02bd aa41 13bd
000000e0: b21c 59bc 1372 78bc 3f5e 0d3b 8942 03bd
000000f0: 9d67 22bd b202 1ebb e689 b93b 556f 9c3c
00000100: 0ce0 3e3d 9485 edbc 3662 583b a05b 29bd
00000110: 3427 a4bc 3278 12bd e088 ffbc ba12 06bd
00000120: 60fa 493d c4cb 523c f56e b9bc 05e8 b7bc
00000130: 5cd3 3abd 9e9d 87bb bccd 793b 90e8 933b
00000140: 7a72 04bc 7f98 8ebc f8ca 1e3d 0dbe e9bc
00000150: 071f 20bd 9c5c 45bd 6413 a7bc b3e4 dd3c
00000160: 9b3e 99bc 6353 d63c a511 143c d2e8 3bbd
00000170: 73b6 af3c ac67 8f3c 00dd da3b 1215 e03b
00000180: 6226 4cbd 466f 3bbd 2f61 33bd 7b13 423d
00000190: c23d e9bb 03d3 8b3c fb40 e2bc 2876 a83b
000001a0: 418b c33b 5e04 32bd e8ef a6bc 55a3 cfbb
000001b0: ce30 183d 4c53 2bbb cd23 613c af0f 2fbd
000001c0: 1c30 efbc aad5 ab3c 0b56 aebc d94d ea3c
000001d0: fb74 973b 1bad 21bc cfa8 d83c 18d3 2d3d
-0.03689063 0.032907456 0.0038181033 -0.033668015 0.033856865 0.009224522 -0.012243536 -0.0073283315
0.029284438 0.026604006 -0.030457694 -0.012283538 0.031578798 0.022245452 -0.02297708 0.00093802204
-0.011803442 0.029309146 0.007891048 -0.036621686 -0.0072811428 -0.03411944 -0.042776797 -0.02327992
0.003545393 -0.047514305 -0.03765008 0.03267428 0.0355229 0.012090952 -0.009167069 0.03669694
-0.010016299 0.04853125 -0.03223426 -0.0014567553 0.003579214 0.040225927 -0.016021753 0.013942857
-0.042750333 0.041609317 -0.019781169 0.0073929825 0.036538344 0.04930064 -0.031601854 0.051236093
-0.03797965 0.031826675 0.028583536 -0.0060553425 0.035755847 -0.03327235 -0.031961247 -0.035951294
-0.01325147 -0.015163916 0.0021571068 -0.032045875 -0.039649595 -0.0024110493 0.0056621907 0.019096056
0.046600387 -0.02899436 0.0033017523 -0.041347146 -0.020038225 -0.03575916 -0.031193197 -0.032732703
0.04931104 0.012865964 -0.022635916 -0.022449503 -0.045611724 -0.0041386625 0.0038117012 0.0045138076
-0.008083934 -0.0174067 0.038767785 -0.028533006 -0.03909209 -0.048184022 -0.020394988 0.027086591
-0.01870661 0.026162809 0.00903741 -0.04587633 0.021449303 0.01750549 0.0066791773 0.0068384493
-0.049841292 -0.045760415 -0.043793853 0.04738186 -0.007117958 0.017068392 -0.027618876 0.0051410384
0.005967528 -0.043461196 -0.020378068 -0.0063366094 0.03715592 -0.0026142178 0.013741446 -0.042739566
-0.029197745 0.020975906 -0.021281263 0.028601574 0.0046220995 -0.009867932 0.026447682 0.042437643

fc2.weight f4 [84, 120]
00000000: 47e5 8c3d eb52 243d f953 59bc 133d 51bd
00000010: df32 903c 1fd3 84bc 1ea3 433d ff8c 8c3d
00000020: f157 243d 5b97 88bd 1a61 e8bc f46a 04bc
00000030: b1fc 1cbd 4341 8d3d 8ab7 e5bc 9901 93bd
00000040: a041 8a3d 175d ebbc e589 93bd 6059 4c3d
00000050: 42c3 483d ee14 82bd d8a4 c8bc ed6e a2bd
00000060: c787 94bc 3b1a 4f3d 1294 8fbd 40af a53d
00000070: 314f a9bd 178d c23d 52a3 053d e3ac acbd
00000080: 60a8 ff3c 7527 86bd fa9b e03d 603d 59bd
00000090: 5fb7 7ebc ef4f bf3d 1215 8d3d fb28 a43d
000000a0: 1fa3 3ebd 1098 d8bd 4d0e 8dbd 8e50 72bc
000000b0: bcc0 a7bc df24 8ebd 87a0 c03d 2a8e c0bd
000000c0: 8223 18bc d4dd 903d 136f 8cbd b1ca 9e3d
000000d0: e026 c4bc c308 a4bd ed59 a2bd 07e5 bdbc
000000e0: fa82 f2bb baa4 3fbc 1314 393d 530e 7bbd
000000f0: 28bd 773c a4f8 c93d a0a8 aa3d f4eb 433c
00000100: ec42 8abd 283d 9ebc b6fb 1a3d 4928 5cbb
00000110: a373 aabc f1b9 c13c 73ee 9bbd 68f7 7abd
00000120: b76f 233a c028 f7bc 74fa 023d c9db 443d
00000130: 443b d13c 3bd4 8c3d c163 0d3d 68ed 9dbb
00000140: c33a dcbc bf72 95bd 617e 733c 54f4 5cbd
00000150: bf32 babd a9cf 45bd bbd1 b0bc 36a4 5a3d
00000160: 5c33 51bd dd74 d53c 94f3 663d 8cad 22bd
00000170: bcf1 b43b e47e 453d 7939 9d3d 11ad 8d3d
00000180: ec61 fd3c 2391 d53c 5869 9b3c 9089 7f3b
00000190: d757 8f3c 7f5c 353c 456c 6f3d 4b51 043b
000001a0: 5745 82bd c7b6 e53c f90f bf3c 2438 0c3d
000001b0: 28b3 9c3c 169e b2bd b9a2 273d 65d2 3f3d
000001c0: 91e6 8fbd 90e3 683c 1045 4ebd 8b7b 4abc
000001d0: 2d5f 4dbd 0335 81bd 6005 bd3d 2109 5b3d
000001e0: 4f65 b53d 1d28 0abc 4e8c 90bc e6d7 fcbb
000001f0: ae68 43bd 5f4e 30bd 27b4 27bc 41dc 53bc
00000200: f64d b53d ff75 ed3d 7ebc 0bbb 3ede ab3d
00000210: 0621 793d 3527 ae3d 5d03 3fbd 3046 b53d
00000220: d267 23bd bbbd b63d a093 923d e8a0 a83d
00000230: 91d1 ad3b c826 d2bc d313 ab3c 627b 973d
00000240: 56d1 51bd 9fa8 993d c9d2 91bd f914 bcbc
00000250: c40b b93d a850 b83d 555d 12bc 3b47 f83d
00000260: a9a9 963d 8d09 1d3d f740 e33b eade 9a3d
00000270: 4f9b bc3d a136 be3d e4ef cdbb 62a9 e2bc
00000280: 4b1e d33b 9c17 61bd 91fa cebd c8b9 ebbb
00000290: 99cd 163d b05b 79bc 8042 5ebd 4ab4 0dbd
000002a0: 8113 b2bd c80d ce3d a4c5 8ebd dd01 a63d
000002b0: bfc2 1bba 9e10 babc 4c2b ccbc dc12 b0ba
000002c0: b650 5b3d b246 893d 82dc b13d ba46 063c
000002d0: e6f2 3cbd a020 b13c 057d d43d 22a6 21bd
000002e0: b3a0 55bd d100 9d3d ba07 9d3d 776a 64bd
000002f0: 4809 963c ddea a33d dc2e 813d a499 f1bd
00000300: 6bfa efbc 2527 9e3c 09a5 98bd 3f90 523d
00000310: a9b8 203d f681 7a3c dba3 d4bd 2287 4e3d
00000320: 6958 963d aa02 dc3c 3bf3 8bba c9ef b43d
00000330: f749 623d 93ea 883d 6cef 033e 8be0 67bd
00000340: 6df2 5ebd 1fcf 47bd dec5 b5bc 7faa 07bd
00000350: 0356 fc3c 7556 003d 3a28 a43d 54ab 09be
00000360: f237 a2bd add3 8c3c fa0e 44bd d66c 86bb
00000370: 4d1d b7bd 58aa f7bd 5dcd e93d e8b3 33bd
00000380: 8179 c43d e9d9 5b3d ed93 b23d 25f7 ca3d
00000390: 55bd 8a3d dbd0 cb3c d4de 9bbd c13d a1bd
000003a0: b1f6 923d a8c1 64bc 2531 c33d f5b7 25bd
000003b0: d77e 6abb f5c0 4fbd 2a47 3e3d 7e4c a83d
000003c0: 207e f43d d3cd 4abd 88f5 babb c3d2 b4bd
000003d0: dfdc 193d 6162 9e3d 1124 8e3d 5830 b23d
000003e0: 31a3 9b3d 5f36 a43b ad1f 6c3d 7782 50bc
000003f0: a381 973d d2d8 383b dc5e d8bd 510c e4bc
0.06879669 0.04011814 -0.01326465 -0.051083636 0.017602382 -0.016213952 0.047762983 0.0686283
0.04012293 -0.06669494 -0.028366614 -0.00808214 -0.038326923 0.06897213 -0.02804162 -0.07178039
0.06750798 -0.028730912 -0.07204036 0.049889922 0.049014337 -0.06351648 -0.024492666 -0.07931314
-0.01813115 0.050562125 -0.07010664 0.08090067 -0.08267058 0.09499567 0.032626458 -0.08431413
0.031208217 -0.065504946 0.1096725 -0.053037047 -0.015546649 0.09341418 0.068887845 0.08015629
-0.046542283 -0.105758786 -0.06887493 -0.014789714 -0.020477645 -0.06940626 0.09405618 -0.09402116
-0.0092858095 0.0707356 -0.06857123 0.07753504 -0.023944318 -0.08009484 -0.07927308 -0.023180498
-0.0074008675 -0.011696989 0.04518516 -0.061292958 0.015120782 0.098618776 0.08332944 0.011958111
-0.067510456 -0.019316271 0.037837707 -0.0033593348 -0.020807093 0.023648234 -0.0761384 -0.0612711
0.00062346034 -0.030170798 0.031977132 0.048061166 0.025540955 0.06876417 0.03451896 -0.004819561
-0.026883489 -0.07297277 0.014861674 -0.053943947 -0.0909171 -0.048293743 -0.021584382 0.05337926
-0.05107437 0.026056701 0.056384638 -0.03971629 0.005521981 0.048216715 0.07676978 0.069177754
0.030930482 0.026070183 0.01897113 0.0038991906 0.01749794 0.011069416 0.058452863 0.0020190056
-0.06360882 0.028041257 0.023323046 0.034233227 0.019128397 -0.08721559 0.04092667 0.046831507
-0.07026399 0.014214411 -0.050358832 -0.0123585565 -0.050139595 -0.06308939 0.09229541 0.053475503
0.08857214 -0.008432415 -0.017645027 -0.007716167 -0.047707252 -0.04304349 -0.010235823 -0.012930931
0.088527605 0.115947716 -0.0021322067 0.08391999 0.06082251 0.08503572 -0.046634067 0.08851278
-0.039893933 0.08922907 0.071570635 0.082338154 0.0053045233 -0.025653258 0.020883476 0.0739658
-0.05122503 0.07502865 -0.07120282 -0.02295922 0.09035447 0.08999759 -0.008933385 0.12122961
0.07356579 0.038339186 0.0069352346 0.07562049 0.0920931 0.092877634 -0.0062847007 -0.027668659
0.00644282 -0.054954156 -0.101063855 -0.0071937777 0.036817167 -0.015219614 -0.054262638 -0.034595765
-0.08695126 0.10061222 -0.06971291 0.08105824 -0.00059418 -0.022713002 -0.02492299 -0.0013433355
0.05354377 0.06702937 0.08684637 0.008195573 -0.046130084 0.021622002 0.10375408 -0.039465077
-0.052155208 0.07666171 0.07667489 -0.055765595 0.018314973 0.08003781 0.06307766 -0.11796883
-0.029294213 0.019305775 -0.07453353 0.051407095 0.039238606 0.015289774 -0.103828155 0.05042184
0.07341082 0.02685674 -0.0010677347 0.08834798 0.05524632 0.066853665 0.12884301 -0.056610625
-0.054430414 -0.04878151 -0.022189077 -0.033121582 0.030802732 0.03133245 0.08015485 -0.13444263
-0.07920827 0.017190779 -0.047865845 -0.0041023297 -0.089411356 -0.12093037 0.11416123 -0.043872744
0.095934875 0.053674612 0.08719621 0.0991042 0.067743935 0.024879863 -0.076108605 -0.07873107
0.07175959 -0.013962187 0.09530858 -0.04045864 -0.003578117 -0.050721128 0.046454586 0.08217715
0.11938119 -0.049512696 -0.005705539 -0.08829262 0.037564155 0.07733608 0.06940473 0.08700627
0.07599486 0.0050113644 0.057647396 -0.012726418 0.07397773 0.0028205407 -0.10564968 -0.027837904

fc2.bias f4 [84]
00000000: 5137 d73b 1e49 e6bc ce53 17bb b4cc 83bd
00000010: e584 853c 7c1a 0e3c c742 79bd 8fb5 b43c
00000020: 7446 ba3d 156c 773d 3973 403c ba8d 75bd
00000030: 76b3 81bd 27f7 e33c 394b 9e3c 0184 bebd
00000040: 3ef2 943d fa83 943c b9c6 c43d 2012 d5bc
00000050: d4b0 ccbb 3a17 d3bc 6abc 80bd 0175 a93d
00000060: dba0 9dbd 9107 033d 79da 7f3d 3f78 833d
00000070: 8829 a23d 75a3 d8ba f5c7 7bbd 5325 813d
00000080: 81b4 93bd 0a18 4bbd d60e 03bd 7bf1 6b3d
00000090: 21de 28bd 1d2e 63bd 79e7 313d 9a46 8fbd
000000a0: 2492 0e3d 9c91 0f3d 8dff ef3b ceeb 8ebd
000000b0: 7aa9 873d 50ea 97bd bfc5 913d 4f24 0fbd
000000c0: 614e a7bd 715d 443d 6836 3ebc 2d0d 653c
000000d0: d6be fcbc 335e 68bd 1ac6 7bbc 7043 7dbd
000000e0: a0e6 7abd a09f 14bd 5977 5c3d d171 843b
000000f0: d56e 1b3d 629e 453d ff3b b43d cb3a 3bbb
00000100: a0be 073d 86da 3dbd 0bff ac3d 79eb a73d
00000110: b10d b73d 193e c7bb dce8 8abd 2dcc a93c
00000120: e747 883d 6103 de3c 88c7 083d 3d4a b43b
00000130: 93bb 163c d02b 583d b05d b63d 9e6e ab3d
00000140: 2362 b83c 3ff3 59bd 2646 1fbd aa86 a4bb
0.0065678735 -0.028111037 -0.0023090723 -0.064355284 0.01629872 0.008673307 -0.0608547 0.02205923
0.09095469 0.06040581 0.011746221 -0.059949614 -0.063330576 0.027827812 0.019322978 -0.093025215
0.072727665 0.018129338 0.09608216 -0.02600962 -0.0062466655 -0.025767911 -0.06285937 0.0827427
-0.07696696 0.031989638 0.06246421 0.064194195 0.07918078 -0.0016528206 -0.06146999 0.06305947
-0.07212163 -0.049583472 -0.03199657 0.05760334 -0.041227464 -0.0554639 0.04343364 -0.06995888
0.03480734 0.035050973 0.007324165 -0.0697857 0.06624122 -0.074177384 0.07117795 -0.034946736
-0.081692465 0.047940675 -0.011609651 0.013980192 -0.030852716 -0.05673046 -0.015367055 -0.06183189
-0.061255097 -0.036285043 0.053824756 0.0040418883 0.037947495 0.04824675 0.08800506 -0.002856898
0.03314078 -0.04635098 0.08447083 0.0819921 0.08938158 -0.0060804007 -0.06782696 0.020727241
0.06654339 0.02710122 0.033393413 0.005502014 0.009199995 0.052776158 0.08904588 0.08370708
0.022507733 -0.053210493 -0.03888526 -0.005020936

fc3.weight f4 [10, 84]
00000000: 45d7 c0bd 95f9 fa3d 8ca2 61bd f0e3 87bd
00000010: 1278 f93c ce6c bdbd 4a07 7c3d d1d9 14bd
00000020: ec41 51bd 5bc9 363d 8855 033e 167a fb3c
00000030: 34fd 2d3e 9b4f 33be 0f1e a03c 11a8 343d
00000040: 20a4 b6bd b51e 71be ab3c 05be 7ed6 cbbc
00000050: 1497 853d de89 0a3e dcc0 32bb 4ef5 c2bc
00000060: 1e85 893d b413 373e b3d7 ebbc faba 89be
00000070: d5ec 713e bf57 33bd 1c5a a63c a31d 8d3d
00000080: 2792 a63d 5dd2 433d 825f 6f3d 26a9 09be
00000090: 84ac a3bd 96bc bfbd cc76 82bd 6342 02be
000000a0: 99e1 1ebc eab2 a1bd c77a 423e f68a b6bd
000000b0: 0144 6f3d 1036 fcbc 2ed7 583e 7e05 ab3d
000000c0: 3ba5 303e 01da 9c3d 9c51 99bd c243 8e3d
000000d0: 711b 08b8 5c0d fabd a254 57bd 6171 00be
000000e0: 146a 923d b66f f63d bd61 823d 3762 8dbd
000000f0: 3163 1f3c 9e42 d6bd 844e 8b3c 1fdf 84bd
00000100: bc25 8e3d a405 5dbd e0e1 ecbd 61d4 773d
00000110: f35f 653d 75d1 0fbd 877e 8e3d 820e 13be
00000120: cf98 723e f0fe ecbd e049 b53d 28a6 693d
00000130: d341 9bbd ebb3 cdbd 717b 42be 69b9 7a3d
00000140: a0db 3abd 4712 81bd 2a9b 063e 2ead b33d
00000150: 1d60 40bd 3026 0e3e f76b 6abd cd45 cbbd
00000160: 7146 543d a43a 81bd 8500 5e3d c3e7 d43d
00000170: 9f34 173e c3cd 993d a487 133d 0caf b23d
00000180: 3b98 83bd 6d71 0e3d 54ae b1bd ea98 a13d
00000190: b4be 5abd 8692 3d3e 34b1 873e fdc9 a83d
000001a0: 47e7 8c3c 41d0 113e 39b1 7abd cd13 3cbd
000001b0: 5683 993c cb33 bebd 0650 20bd 834a 143e
000001c0: 71b7 6a3d 36d5 69bd b911 efbd 4ec1 063e
000001d0: 7dbf cebc cc2d 573b 9656 de3d e70c 19be
000001e0: a572 053d 821c 8e3d 87ea 313d 95ef b6bd
000001f0: 74fe 243e f1bd 56bd cb30 93be 8f66 973d
00000200: 9e5f f2bd 5345 ccbd 269b a93d 47eb 3bbd
00000210: 6df2 aabd 0417 bb3c b44d fa3b 54af 07bd
00000220: 8fe1 e03d 9c37 8ebd 06e3 a3bd bf6c a53c
00000230: a2af 943c b994 e7bd ddbe 9ebd b337 34be
00000240: 920c 303e 9136 13bd 46bd c0bd 0363 82be
00000250: e5de 2dbe a862 eabd 2686 b83d 970f 463d
00000260: d575 1a3d 59db a33c de16 c7bc 5bb3 053e
00000270: 508e f63d 2abb 713d 7f27 95bd ce77 ac3d
00000280: fe7a a4bd 0460 833e 688c 5cbb b91c e1bd
00000290: a7fb a13d 276c 593b 1eb3 be3d abf2 03be
000002a0: 4e09 033e b67b 303e 47ee 0d3c 1dcc 07bd
000002b0: a280 413e 25e3 2a3c 65af 9f3d 6136 833c
000002c0: 6ef3 3cbe d9bb 293d e142 94bd 831d cf3d
000002d0: 1da2 51bd a8bd 793e 3e66 4d3d 4f19 d4bd
000002e0: 63a9 eebd 0444 9a3d 8645 55bd 87e3 04be
000002f0: eecd f73d 98e9 16be bf5c 0abe a20e 3f3e
00000300: afe9 aabc fdf5 4c3e 3e17 a0ba e894 00bd
00000310: baf7 3abe 8e30 dfbb c089 1bbe d853 d7bd
00000320: c77d 663d 1523 cb3d 75c6 a8bd 9618 c4bd
00000330: f643 343e 32c3 43bd 2901 1cbd db48 fdbd
00000340: 63c8 04be 47d9 c73d dc3d 813d 7cb6 57be
00000350: 76c1 b23c 7c22 a63d f720 233e bb5b 7f3d
00000360: e543 743d 9867 113b 2a93 013e a42e 163e
00000370: ad06 853d 8cfd 76bd ea18 afbb 09de 31be
00000380: 6934 163e 8693 813d e7aa fb3c e64e 01be
00000390: 0cce 333e 2642 86bd 2824 263c 17bb 08be
000003a0: dfad 3c3c 88a5 3a3e 54eb 9b3d 68e2 9ebd
000003b0: d3dc e13d aba1 16b8 54f3 f33c 229a b93d
000003c0: 9419 61bd a132 60be bf3f 98bd 6872 f8bd
000003d0: 579e 373d d711 01be 240e 4d3e 13e3 b53d
000003e0: d59a 963d 9520 d2bc 35a3 f33d c8a1 89bd
000003f0: 21fc d3bd 9828 0ebe 193e c4bc 2993 80bc
-0.094160594 0.12254635 -0.055086657 -0.066352725 0.030452762 -0.092492685 0.06153039 -0.03634054
-0.05108826 0.04462562 0.12825596 0.030697864 0.1699112 -0.17510836 0.019545583 0.044105593
-0.08918023 -0.2354687 -0.13011424 -0.024882551 0.065229565 0.13529155 -0.0027275598 -0.023798611
0.06714843 0.1787861 -0.028789377 -0.26900464 0.236255 -0.043784853 0.02030664 0.068904184
0.08133345 0.04780804 0.058440693 -0.13443431 -0.07991889 -0.09362142 -0.06370315 -0.12720637
-0.009697341 -0.07895453 0.18992148 -0.089132234 0.058414463 -0.030787498 0.21175835 0.08350657
0.1725053 0.076587684 -0.07486269 0.069465175 -3.2450484e-05 -0.12209579 -0.052570947 -0.1254325
0.07149139 0.12033026 0.06366298 -0.069034986 0.009728239 -0.10461925 0.017005213 -0.064878695
0.06940791 -0.053960457 -0.1156652 0.060505275 0.055999707 -0.035111863 0.06957727 -0.14361003
0.23691104 -0.11572063 0.08851981 0.057043225 -0.07580914 -0.10044082 -0.18992402 0.061211977
-0.045619607 -0.06302314 0.13145128 0.08773266 -0.04696666 0.13881755 -0.05723187 -0.09925423
0.05182499 -0.06310013 0.054199714 0.103957675 0.14766167 0.07509949 0.03601803 0.08724794
-0.0642552 0.03477614 -0.086758286 0.07890494 -0.053404525 0.18512926 0.26502383 0.08241651
0.017200125 0.14239599 -0.06120417 -0.04591732 0.018739384 -0.092872225 -0.039138816 0.14481549
0.05730385 -0.0570881 -0.11673302 0.13159677 -0.025237793 0.0032833694 0.10856359 -0.14946328
0.032580037 0.06939031 0.043436553 -0.089324154 0.16112691 -0.052427236 -0.28748164 0.073926084
-0.11834644 -0.0997416 0.08281545 -0.045878675 -0.0834702 0.022838123 0.0076386575 -0.03312619
0.10980522 -0.069442004 -0.08002286 0.020193456 0.018150155 -0.113076635 -0.07751248 -0.17599373
0.17192295 -0.03594071 -0.09411101 -0.25466165 -0.16979559 -0.114445984 0.09009962 0.04835471
0.03771003 0.020002054 -0.024302896 0.130567 0.12038863 0.059016384 -0.07282924 0.084212884
-0.080312714 0.25659192 -0.0033653025 -0.109918065 0.07909327 0.0033176036 0.09311508 -0.12885539
0.12796518 0.17234692 0.008662767 -0.033153642 0.18896726 0.010430132 0.07797126 0.01601714
-0.18452236 0.04143891 -0.07239319 0.10113051 -0.051179994 0.24388754 0.050146334 -0.1035639
-0.11653402 0.07532504 -0.052068256 -0.1297742 0.12099825 -0.14737546 -0.13511942 0.18657926
-0.020863382 0.20015712 -0.0012213958 -0.031392008 -0.18258563 -0.006811208 -0.15189266 -0.10514039
0.056272294 0.09918801 -0.08240978 -0.09575002 0.1760405 -0.047793575 -0.038087044 -0.12367412
-0.12967066 0.09758239 0.06310627 -0.21065706 0.021820765 0.08112046 0.15930544 0.06234334
0.05963506 0.002218699 0.12653795 0.1466623 0.06495414 -0.060300395 -0.005343546 -0.17369856
0.1466843 0.06326966 0.030721141 -0.12627754 0.1755907 -0.065555856 0.010140456 -0.13352619
0.0115160635 0.18227208 0.07613245 -0.07758027 0.11028447 -3.5913352e-05 0.029779114 0.090626016
-0.054956034 -0.21894313 -0.074340336 -0.12131196 0.04482874 -0.12604462 0.20024925 0.088812016
0.073537506 -0.025650302 0.11896364 -0.067203104 -0.10350824 -0.13882673 -0.023955392 -0.015695171

fc3.bias f4 [10]
00000000: 6f1b f0bd f5cd c8bc bf55 dcbc c1b3 3d3d
00000010: b5e5 b43d 27e6 7d3d f616 6dbd 69d7 d5bc
00000020: 4dc9 c7bb 9b3d 133c
-0.117239825 -0.02451227 -0.026896356 0.046314005 0.08832876 0.06198707 -0.057883225 -0.026103692
-0.006096995 0.008986856
