PyCharmWorkshop/AI/Projects/Project3/checkpoints/LeNet5/epoch-1.pth (torch, 243143 bytes, 10 tensors)

conv1.weight f4 [6, 1, 3, 3]
0.38047627 0.03877438 0.14996006 -0.15492144 0.20513591 -0.20177628 0.17981721 0.44046748
-0.16798265 0.06790415 0.40662986 -0.123526774 0.38109276 0.39909315 -0.03190731 0.04315927
0.09067992 0.32995173 -0.1946813 -0.152148 0.0060996804 0.06678792 0.25837776 0.07795151
0.20124044 0.032190938 0.32657233 0.0063604326 0.48081806 0.52352613 0.65475607 0.28717422
0.36323947 0.5414098 0.13744493 -0.23756936 0.4420985 0.22947232 -0.18370028 0.26370052
0.66619974 0.12101268 0.6356414 0.6978716 0.20011391 0.29910913 -0.14074819 0.4530093
0.45389622 -0.1964216 0.44860023 0.3028215 -0.29951492 -0.27651978
00000000: c9cd c23e e2d1 1e3d 218f 193e baa3 1ebe
00000010: 260f 523e 719e 4ebe 0122 383e f484 e13e
00000020: a503 2cbe 5511 8b3d ca31 d03e 9bfb fcbd
00000030: 971e c33e f055 cc3e 3db1 02bd c6c7 303d
00000040: 65b6 b93d 6fef a83e 895a 47be afcc 1bbe
00000050: d4df c73b 1bc8 883d 174a 843e 0ba5 9f3d
00000060: f911 4e3e a5da 033d 7d34 a73e 2d6b d03b
00000070: c92d f63e cf05 063f 189e 273f 8008 933e
00000080: 86fa b93e d599 0a3f 5dbe 0c3e 6245 73be
00000090: bc5a e23e cbfa 6a3e ed1b 3cbe c103 873e
000000a0: 118c 2a3f 7fd5 f73d 65b9 223f b7a7 323f
000000b0: a9ea 4c3e d524 993e 4b20 10be d6f0 e73e
000000c0: 1665 e83e be22 49be eeae e53e 6b0b 9b3e
000000d0: 055a 99be 0094 8dbe

conv1.bias f4 [6]
0.24067886 -0.16310643 -0.27160266 0.38697454 0.25668198 0.08229288
00000000: 8574 763e 5f05 27be 810f 8bbe 8721 c63e
00000010: d26b 833e 2b89 a83d

conv2.weight f4 [16, 6, 3, 3]
0.12191764 0.049910683 0.047601804 -0.0051578446 -0.0058145532 0.1158836 0.0142424535 0.091666736
0.10639316 -0.025290167 -0.12209785 -0.01059689 -0.01826615 -0.13378857 0.13225386 -0.09109069
-0.11120709 -0.077945895 0.12562239 -0.13555984 -0.07881661 -0.06841064 0.08800602 0.14759824
-0.023004798 0.023766892 0.11038306 0.031259663 -0.113740444 -0.146012 0.09610151 -0.05425617
0.15988675 -0.121647276 0.11419721 0.089523904 0.051177558 0.0036024991 -0.1020255 -0.09339204
-0.13701156 -0.059637923 0.09378968 -0.012385391 -0.035397775 -0.0044751004 -0.013763379 0.023197673
0.112370424 -0.059214644 0.10671574 -0.1256895 -0.06703621 0.10464914 0.19870342 0.16484652
-0.04566486 -0.007048405 -0.015778916 0.11275116 0.13231184 0.08309035 -0.11221896 -0.044105373
-0.03793033 -0.08189081 0.15362363 0.07097317 -0.11761864 0.11716598 0.0035378581 0.15634838
0.0061318427 -0.11408161 -0.07767659 -0.07785871 -0.021402834 -0.083636224 -0.07235556 -0.044351254
0.12877254 0.26830477 -0.026976954 -0.253906 0.17384973 0.12068162 -0.014649467 -0.028884957
0.16377039 0.061815362 0.31421018 0.10578678 -0.24120508 0.16123909 0.030746551 -0.030975422
0.24450605 0.27560794 0.122351095 -0.0669058 0.04307235 -0.030451063 0.10686478 0.04875057
-0.071926445 0.03647108 0.11671197 0.1664585 -0.106007256 0.08683599 -0.020326553 -0.017908163
-0.08587122 -0.005873715 -0.021910882 0.12603424 0.010805044 -0.113570414 -0.009753264 0.036953323
-0.07327122 0.11580831 -0.0096482495 -0.10983576 -0.040977843 -0.062079586 -0.0034434735 0.075442985
-0.12164303 0.12500075 0.08158402 -0.0842248 0.074366115 -0.010436469 -0.070525095 -0.08562234
0.050413296 -0.06243745 0.019858047 0.026688695 0.17369092 -0.08931712 0.12928303 -0.05580138
-0.12786311 0.060662508 0.076449044 -0.1490809 0.13117847 -0.02668392 0.09645436 0.1930432
0.1497793 -0.10717643 0.110323064 0.024568643 0.059161693 0.093888186 -0.0027641656 -0.07849627
0.051477283 0.13910893 0.09406996 0.08155536 0.113640115 0.12853885 0.12572387 0.003489517
-0.11526045 0.029992135 -0.0042371103 0.07797566 -0.06388224 0.089912474 -0.021955445 0.00038847432
0.025976269 0.107313454 0.0100057265 0.11247899 -0.06448085 -0.09865599 -0.10911534 -0.01306974
0.08919504 0.01191497 0.105976485 0.025859538 -0.023564473 0.1272248 0.017800594 0.018909702
-0.09754073 0.021408385 -0.0913751 -0.0019628063 0.12478838 -0.0896707 0.10943389 0.008147069
0.07192851 0.029320149 0.14829662 0.16705556 0.100049935 -0.006137697 0.06394818 -0.08605868
-0.09680184 0.07002784 -0.10662312 0.09412083 0.05310597 -0.11935131 -0.010305137 -0.08517625
0.0015561994 0.046142373 0.02173767 0.091596305 0.17091574 0.06342967 -0.072253235 0.0399047
0.029944766 -0.036288254 0.12481201 0.1337736 -0.038903296 -0.023669152 -0.021565985 0.20056385
0.050578285 0.06455596 -0.017427796 -0.06795739 0.0389351 0.049916275 0.0452608 0.03835578
0.1280422 -0.018392885 0.113058634 -0.0011345991 0.24616922 0.07725163 0.19973877 -0.03144205
0.094315074 0.025832303 0.007043094 0.0017680664 -0.0019028181 0.16430025 0.20597091 0.18185845
00000000: f5af f93d 256f 4c3d 1cfa 423d 2303 a9bb
00000010: 0288 bebb 6254 ed3d 2e59 693c c5bb bb3d
00000020: a8e4 d93d 532d cfbc 700e fabd 949e 2dbc
00000030: e5a2 95bc dfff 08be 8e6d 073e c18d babd
00000040: 8bc0 e3bd 19a2 9fbd 28a3 003e 33d0 0abe
00000050: 9a6a a1bd e11a 8cbd 803c b43d fe23 173e
00000060: 8f74 bcbc c9b2 c23c 8410 e23d 220a 003d
00000070: c0f0 e8bd 2b84 15be ded0 c43d b83b 5ebd
00000080: 5ab9 233e 3522 f9bd 3ae0 e93d 4f58 b73d
00000090: 8f9f 513d e817 6c3b bff2 d0bd 5344 bfbd
000000a0: c24c 0cbe e546 74bd ce14 c03d 18ec 4abc
000000b0: 42fd 10bd dda3 92bb cc7f 61bc 0c09 be3c
000000c0: 7722 e63d 0e8b 72bd c88d da3d c0b4 00be
000000d0: 484a 89bd 4a52 d63d e978 4b3e 87cd 283e
000000e0: 140b 3bbd 4ef6 e6bb c942 81bc 15ea e63d
000000f0: c17c 073e 462b aa3d 0ed3 e5bd d6a7 34bd
00000100: d55c 1bbd 5eb6 a7bd 834f 1d3e 625a 913d
00000110: 0be2 f0bd b8f4 ef3d 69db 673b ca19 203e
00000120: a0ed c83b 9fa3 e9bd e714 9fbd 6374 9fbd
00000130: ff54 afbc 7849 abbd 272f 94bd a9a9 35bd
00000140: f3dc 033e 3e5f 893e c6fe dcbc f8ff 81be
00000150: aa05 323e ed27 f73d 5104 70bc 25a0 ecbc
00000160: 6db3 273e 1b32 7d3d 28e0 a03e bda6 d83d
00000170: 77fe 76be dc1b 253e 31e0 fb3c 2bc0 fdbc
00000180: cb5f 7a3e 7c1c 8d3e 3693 fa3d e805 89bd
00000190: a26c 303d 8274 f9bc ecdb da3d adae 473d
000001a0: 2c4e 93bd b362 153d af06 ef3d 1974 2a3e
000001b0: 551a d9bd 11d7 b13d df83 a6bc 24b4 92bc
000001c0: 40dd afbd 4b78 c0bb 737e b3bc 1f0f 013e
000001d0: a407 313c 9b97 e8bd 27cc 1fbc 5e5c 173d
000001e0: 390f 96bd e82c ed3d b113 1ebc 92f1 e0bd
000001f0: 62d8 27bd 2a47 7ebd e6ab 61bb da81 9a3d
00000200: fb1f f9bd 3200 003e 8615 a73d 0d7e acbd
00000210: 434d 983d b9fd 2abc 766f 90bd c45a afbd
00000220: 2c7e 4e3d 69be 7fbd 58ad a23c 40a2 da3c
00000230: 08dc 313e e5eb b6bd c562 043e fd8f 64bd
00000240: 8cee 02be 4079 783d 5191 9c3d aaa8 18be
00000250: a653 063e 3c98 dabc dd89 c53d 1ead 453e
00000260: bf5f 193e 517f dbbd 0ff1 e13d 2e44 c93c
00000270: 8853 723d 7348 c03d 0127 35bb a7c2 a0bd
00000280: d8d9 523d 9272 0e3e c0a7 c03d 7f06 a73d
00000290: 26bc e83d b09f 033e c2bd 003e 61b0 643b
000002a0: ac0d ecbd 11b2 f53c 75d7 8abb b4b1 9f3d
000002b0: b1d4 82bd 0824 b83d e8db b3bc 24ac cb39
000002c0: 2fcc d43c 28c7 db3d 0fef 233c 625b e63d
000002d0: 890e 84bd 270c cabd dd77 dfbd 7622 56bc
000002e0: e4ab b63d 0237 433c 330a d93d 62d7 d33c
000002f0: 480a c1bc 3847 023e 8dd2 913c 85e8 9a3c
00000300: 6fc3 c7bd a360 af3c de22 bbbd 6da2 00bb
00000310: 0d91 ff3d 46a5 b7bd e01e e03d 497b 053c
00000320: 414f 933d cf30 f03c 12db 173e 9d10 2b3e
00000330: fbe6 cc3d bc1e c9bb 43f7 823d 893f b0bd
00000340: 0b40 c6bd c26a 8f3d 395d dabd 6cc2 c03d
00000350: a585 593d 766e f4bd e1d6 28bc e370 aebd
00000360: 63f9 cb3a c9ff 3c3d 3313 b23c d896 bb3d
00000370: 8904 2f3e 6ae7 813d 81f9 93bd 1c73 233d
00000380: ba4e f53c fea2 14bd 709d ff3d f2fb 083e
00000390: 1059 1fbd cfe5 c1bc 26ab b0bc 9c60 4d3e
000003a0: 2d2b 4f3d ea35 843d bdc4 8ebc 3e2d 8bbd
000003b0: 697a 1f3d 0275 4c3d 6363 393d f31a 1d3d
000003c0: 7f1d 033e adac 96bc 498b e73d d4b6 94ba
000003d0: c913 7c3e 1a36 9e3d 5288 4c3e 61c9 00bd
000003e0: 4328 c13d 449e d33c c1c9 e63b 77be e73a
000003f0: fb67 f9ba 533e 283e 0aea 523e 1a39 3a3e

conv2.bias f4 [16]
-0.063083954 -0.057038195 0.009658155 -0.01509619 -0.007592957 0.086078845 -0.10263697 0.031730056
0.14386082 -0.014326788 0.110568784 -0.12592424 -0.110078916 0.0029311995 0.034187123 -0.0018738117
00000000: 2932 81bd e2a0 69bd 3d3d 1e3c 0356 77bc
00000010: 57ce f8bb 1b4a b03d 5533 d2bd 60f7 013d
00000020: 4050 133e e7ba 6abc e371 e23d 49f2 00be
00000030: 0e71 e1bd 5e19 403b cc07 0c3d b09a f5ba

fc1.weight f4 [120, 400]
-0.01282015 -0.028729403 -0.027454743 0.026220713 0.05100434 -0.048585474 -0.002061157 0.006268793
0.02064599 -0.0012228781 0.0432294 0.040817417 0.009766097 -0.04445999 0.015898762 0.027346725
-0.013155683 -0.05433102 0.017629992 0.027997758 0.0073853442 0.005698533 -0.009586519 -0.0048608994
-0.046960857 0.044624537 0.029231295 -0.047950108 -0.033093892 -0.0001136524 -0.03960568 -0.017050527
0.022620728 0.03498792 -0.032376457 0.015905904 0.014952424 0.05607609 0.014575753 -0.027902707
0.005153795 0.01777397 0.0019558973 0.06605092 0.036339138 -0.03912555 -0.020521425 -0.0382147
-0.0443736 -0.02670338 0.045054566 0.024692113 -0.014733709 0.018324692 0.0019030097 -0.0335455
0.045575783 -0.03170018 0.04847334 -0.002641506 0.026817797 -0.0438766 -0.043066703 0.059551544
-0.026722554 0.014255958 -0.039696988 0.009218503 -0.030813538 -0.023925329 -0.023735207 -0.054807764
0.018990243 -0.02302626 -0.013603022 0.026601566 0.034950413 -0.04001605 0.023122642 0.030325787
-0.030703703 0.002514349 0.040688004 -0.0045262654 -0.01643915 0.037955374 -0.04328405 0.031708606
-0.016031917 0.013189525 -0.015539009 -0.00078023097 0.006708483 0.040889997 -0.00021999222 -0.0054387646
-0.0053982893 0.026867205 -0.029016001 -0.0081082415 -0.02357362 -0.022189096 0.033844247 -0.017419524
-0.053993385 -0.031896368 -0.02391382 -0.010363228 0.0032302057 0.002022279 -0.051301163 0.009419965
0.002169267 0.0022550167 0.026938545 0.028104318 0.0381777 -0.026149126 -0.011958639 -0.04869061
0.040552028 0.008260876 -0.018825704 -0.041625597 0.037713874 0.033304438 0.021535562 -0.022633959
-0.002475003 0.005531637 -0.025946531 0.026947493 0.02055588 0.05298283 -0.033374365 0.023771863
-0.016310135 0.023331854 0.04340913 -0.012991527 0.054245673 0.035609033 0.043119647 -0.0011813976
0.0038011556 0.05127366 -0.044011366 0.024830168 0.048665173 0.036118675 0.042045414 0.008821578
-0.025827711 -0.010225196 -0.014338886 -0.024376886 0.004810759 0.011469916 -0.011795308 0.040400524
-0.042527977 -0.015564521 -0.032556865 -0.033549182 -0.0359061 0.015923258 -0.0049772444 -0.007408185
0.055814292 -0.010571142 0.00999921 -0.048175517 0.016982945 0.0348702 0.02888825 0.03750824
-0.03242779 0.050583556 -0.014447877 -0.0018787401 0.028496407 0.008541385 -0.04797627 -0.0012294769
0.04110052 0.018030412 0.020087164 0.05556383 0.045476966 0.025416808 0.04125789 0.0031447636
0.010222946 0.009859624 -0.05095744 -0.039990027 -0.02862669 0.0024409406 0.011420262 -0.031813048
-0.013686535 0.044166707 -0.0013467199 -0.040632978 -0.015957544 -0.041314058 -0.0034178402 -0.03115121
0.036486227 -0.03521863 -0.031566236 0.03251676 0.04647755 -0.010416827 -0.017397387 0.02085567
0.035663106 -0.023652114 0.052781533 0.001793815 -0.04650994 -0.02404352 0.04802896 -0.013391175
0.010546883 -0.013813996 0.016487714 -0.038065273 -0.012551581 0.02195977 -0.018599836 -0.021655211
0.0073869964 0.028780527 0.024327224 -0.0031859118 -0.021294435 -0.04254493 -0.03707178 -0.058648795
0.009812889 0.04302792 -0.013956917 0.049548157 -0.03546967 -0.028066874 0.037758652 -0.026951518
0.012213554 -0.017075356 -0.050474387 0.016259445 0.011295881 -0.03247234 0.04680229 0.031401455
00000000: 9b0b 52bc ed59 ebbc c5e8 e0bc d2cc d63c
00000010: ede9 503d 9001 47bd 7a14 07bb 726a cd3b
00000020: c721 a93c fb48 a0ba 5011 313d 2a30 273d
00000030: fb01 203c ae1b 36bd 1f3e 823c 3d06 e03c
00000040: ef8a 57bc 348a 5ebd c66c 903c 8e5b e53c
00000050: c200 f23b c2ba ba3b c610 1dbc 2e48 9fbb
00000060: 075a 40bd 38c8 363d 7876 ef3c 5567 44bd
00000070: 768d 07bd ab58 eeb8 9139 22bd 8cad 8bbc
00000080: 1b4f b93c 7e4f 0f3d 2d9d 04bd 194d 823c
00000090: 03fb 743c 0bb0 653d 24cf 6e3c 3894 e4bc
000000a0: 2ae1 a83b b79a 913c 832e 003b b445 873d
000000b0: 59d8 143d 1d42 20bd 8c1c a8bc 0487 1cbd
000000c0: 18c1 35bd 0cc1 dabc 238b 383d 1d47 ca3c
000000d0: a865 71bc aa1d 963c 696e f93a 0267 09bd
000000e0: acad 3a3d 0cd8 01bd fb8b 463d 1e1d 2dbb
000000f0: ffb0 db3c f3b7 33bd b666 30bd 52ec 733d
00000100: 42e9 dabc d291 693c 4f99 22bd 3409 173c
00000110: ac6c fcbc 0dff c3bc 5670 c2bc 1b7e 60bd
00000120: 6d91 9b3c 91a1 bcbc 36df 5ebc 87eb d93c
00000130: 2a28 0f3d dfe7 23bd b26b bd3c c96d f83c
00000140: 5586 fbbc c7c7 243b 77a8 263d 1151 94bb
00000150: 65ab 86bc 1877 1b3d 9e4a 31bd e2e0 013d
00000160: 5e55 83bc e118 583c 5497 7ebc 6a88 4cba
00000170: d6d2 db3b 457c 273d b6ad 66b9 aa37 b2bb
00000180: 22e4 b0bb 9d18 dc3c f7b2 edbc 6ed8 04bc
00000190: 771d c1bc e8c5 b5bc 44a0 0a3d 64b3 8ebc
000001a0: 2b28 5dbd c4a5 02bd eae6 c3bc 87ca 29bc
000001b0: dcb1 533b 3688 043b 2b21 52bd 3256 1a3c
000001c0: 432a 0e3b e7c8 133b 39ae dc3c 073b e63c
000001d0: 3860 1c3d b136 d6bc 2bee 43bc ce6f 47bd
000001e0: e219 263d a058 073c 5d38 9abc 9a7f 2abd
000001f0: dd79 1a3d 3c6a 083d 596b b03c da6a b9bc
00000200: a933 22bb bc42 b53b d28d d4bc fdc0 dc3c
00000210: ce64 a83c 8604 593d 8fb3 08bd 36bd c23c
00000220: d59c 85bc 7222 bf3c c6cd 313d 6ada 54bc
00000230: b630 5e3d c7da 113d 3a9e 303d 20d9 9aba
00000240: cf1c 793b 5404 523d 4345 34bd a368 cb3c
00000250: 2255 473d 2df1 133d d037 2c3d 6188 103c
00000260: a394 d3bc 9587 27bc a6ed 6abc 09b2 c7bc
00000270: 92a3 9d3b 51ec 3b3c 1c41 41bc 057b 253d
00000280: d131 2ebd 5502 7fbc 595a 05bd de6a 09bd
00000290: 4612 13bd 7e71 823c 2718 a3bb 5cc0 f2bb
000002a0: 879d 643d 9532 2dbc bad3 233c b153 45bd
000002b0: d11f 8b3c 0ed4 0e3d 0da7 ec3c 3ea2 193d
000002c0: 01d3 04bd b430 4f3d cab6 6cbc 0f40 f6ba
000002d0: 4c71 e93c 2af1 0b3c c482 44bd 6626 a1ba
000002e0: 0559 283d 84b4 933c d68d a43c e696 633d
000002f0: 0e46 3a3d e936 d03c 09fe 283d 6118 4e3b
00000300: 257e 273c 438a 213c c0b8 50bd 95cc 23bd
00000310: 8582 eabc 30f8 1f3b 0d1c 3b3c 664e 02bd
00000320: 7d3d 60bc 26e8 343d 6c84 b0ba c46e 26bd
00000330: 65b9 82bc ee38 29bd d8fd 5fbb d330 ffbc
00000340: 9572 153d 6941 10bd 994b 01bd 4b30 053d
00000350: 3e5f 3e3d 57ab 2abc f784 8ebc 83d9 aa3c
00000360: 7a13 123d 14c2 c1bc 7331 583d 721e eb3a
00000370: 3581 3ebd ebf6 c4bc 04ba 443d a966 5bbc
00000380: d5cc 2c3c 1954 62bc 3e11 873c 55ea 1bbd
00000390: 25a5 4dbc fae4 b33c af5e 98bc 4566 b1bc
000003a0: 9e0e f23b 24c5 eb3c e349 c73c bbca 50bb
000003b0: ab71 aebc 9843 2ebd 94d8 17bd b839 70bd
000003c0: 3dc6 203c 0b3e 303d 8eab 64bc 02f3 4a3d
000003d0: a548 11bd 80ec e5bc d1a8 1a3d 6ec9 dcbc
000003e0: 5c1b 483c 9ee1 8bbc 3bbe 4ebd 8732 853c
000003f0: 5c12 393c b701 05bd c2b3 3f3d d09e 003d

fc1.bias f4 [120]
-0.03717012 0.031661198 0.003140472 -0.033539616 0.0327928 0.009367801 -0.012806185 -0.0077007627
0.029348636 0.026114494 -0.032216854 -0.01341171 0.031698827 0.02225183 -0.022588152 0.0032303182
-0.011748372 0.02803102 0.0070041423 -0.036531955 -0.0077042296 -0.03469564 -0.044455763 -0.023290232
0.004593805 -0.04772975 -0.039342713 0.030668242 0.035482712 0.012517883 -0.009202353 0.038051274
-0.00947311 0.048541248 -0.034349237 -0.0012931221 0.004626608 0.040257562 -0.014820162 0.014232696
-0.042672314 0.041457087 -0.020642808 0.0073945895 0.03533269 0.048715804 -0.032236926 0.04972168
-0.039308377 0.031943105 0.025155004 -0.0037237753 0.036317825 -0.033778824 -0.033034187 -0.03566085
-0.013324555 -0.012219217 0.0038311868 -0.03341099 -0.04072864 -0.0015464841 0.0072580613 0.017469686
0.04651944 -0.028982216 0.0055083553 -0.039405987 -0.019159805 -0.035973947 -0.031853843 -0.033641502
0.04922581 0.011160876 -0.026511984 -0.022195134 -0.044599894 -0.008274083 0.0035704954 0.005452013
-0.007390013 -0.01838977 0.037249606 -0.025680318 -0.03895145 -0.048380494 -0.018841848 0.026204992
-0.018997619 0.025028415 0.0068296427 -0.04572589 0.021547379 0.019148663 0.0063569443 0.0045736055
-0.049948435 -0.046495117 -0.044349916 0.04682029 -0.007990176 0.012660692 -0.026757838 0.0044829324
0.005582401 -0.044380773 -0.020414418 -0.0060577914 0.040407583 -0.0027125725 0.011520019 -0.042496543
-0.027073495 0.019680455 -0.021062773 0.02834237 0.004965794 -0.010221314 0.026162494 0.043185506
00000000: b23f 18bd 2caf 013d 61d0 4d3b d660 09bd
00000010: be51 063d 687b 193c 08d1 51bc ae56 fcbb
00000020: 8d6c f03c 10ee d53c d2f5 03bd cabc 5bbc
00000030: a1d6 013d 7849 b63c ca0a b9bc bfb3 533b
00000040: 3e7c 40bc 4fa1 e53c 0183 e53b 88a2 15bd
00000050: c373 fcbb 041d 0ebd 3f17 36bd 28cb bebc
00000060: a187 963b 4580 43bd d325 21bd f73b fb3c
00000070: 5256 113d cf17 4d3c 77c5 16bc a7db 1b3d
00000080: 1a35 1bbc 30d3 463d c9b1 0cbd fa7d a9ba
00000090: cd9a 973b 1de5 243d 44d0 72bc 4130 693c
000000a0: 2ac9 2ebd e8ce 293d 1b1b a9bc 504e f23b
000000b0: 03b9 103d 398a 473d de0a 04bd f6a8 4b3d
000000c0: d201 21bd c6d6 023d de11 ce3c 950a 74bb
000000d0: 00c2 143d aa5b 0abd db4e 07bd 1d11 12bd
000000e0: 3c4f 5abc 1c33 48bc a614 7b3b f6d9 08bd
000000f0: 13d3 26bd 65b3 caba 08d5 ed3b 961c 8f3c
00000100: 2b8b 3e3d 1d6c edbc 6f7f b43b 2c68 21bd
00000110: 06f5 9cbc 6b59 13bd 2d79 02bd accb 09bd
00000120: 01a1 493d 1bdc 363c a92f d9bc 92d2 b5bc
00000130: 61ae 36bd 0590 07bc f9fe 693b cda6 b23b
00000140: ec27 f2bb 25a6 96bc 0b93 183d 885f d2bc
00000150: 8e8b 1fbd a02a 46bd 385a 9abc daab d63c
00000160: e5a0 9bbc 6408 cd3c 32cb df3b 124b 3bbd
00000170: 2184 b03c a8dd 9c3c ea4d d03b 2fde 953b
00000180: bb96 4cbd aa71 3ebd 42a8 35bd a2c6 3f3d
00000190: 3ae9 02bc cb6e 4f3c 4133 dbbc 90e5 923b
000001a0: 93ec b63b 9dc8 35bd 233c a7bc 7080 c6bb
000001b0: 6c82 253d 6ac5 31bb 76be 3c3c db10 2ebd
000001c0: 3cc9 ddbc e838 a13c d68b acbc 422e e83c
000001d0: 19b8 a23b 4c77 27bc ba52 d63c 49e3 303d

fc2.weight f4 [84, 120]
0.06906877 0.031583536 -0.020498155 -0.06063572 0.013627437 -0.016388498 0.045783486 0.068096995
0.03108156 -0.06742268 -0.034750354 -0.008214638 -0.038320288 0.068972394 -0.04827361 -0.06810925
0.067565 -0.04225321 -0.07356343 0.036909647 0.0506226 -0.06680811 -0.033881146 -0.078848444
-0.011843758 0.04991144 -0.0601928 0.07423745 -0.08112047 0.08662486 0.034396637 -0.08468581
0.033312704 -0.075050764 0.09251329 -0.05305791 -0.012317993 0.08294902 0.07854803 0.08016046
-0.046575025 -0.086556226 -0.06674733 -0.014778614 -0.018949576 -0.076716445 0.087592095 -0.07979148
-0.017651612 0.053775 -0.07925165 0.07755912 -0.010669104 -0.07813556 -0.07210333 -0.0126555385
-0.0074305036 -0.008925066 0.03909455 -0.050730888 0.017562406 0.09238669 0.08039441 0.019950844
-0.067511566 -0.01931642 0.03952989 0.012086045 -0.022844022 0.025167024 -0.076614015 -0.07261786
-0.007931949 -0.033304207 0.020257091 0.048165433 0.00791562 0.070412196 0.033710316 -0.00024032246
-0.026220275 -0.07283288 0.006497675 -0.049904436 -0.09095387 -0.04728745 -0.0036744445 0.051588286
-0.031799328 0.038743537 0.03934757 -0.03588949 0.0053844387 0.04593249 0.07544231 0.0750907
0.029919857 0.03183422 0.022422092 0.001889418 0.011919494 0.0016282061 0.058079083 0.0018564054
-0.06375905 0.015953057 0.023224503 0.02149174 0.036589697 -0.08151249 0.037056196 0.045002658
-0.07198402 0.008470557 -0.050881483 -0.020087322 -0.047421798 -0.06503424 0.08918273 0.056123238
0.062942795 0.009437521 -0.012549758 -0.015311722 -0.050302688 -0.041506566 -0.013516468 -0.012981488
0.07537121 0.09772228 -0.016288038 0.074101865 0.06075675 0.085031085 -0.06376174 0.07812363
-0.040027853 0.090623304 0.07726662 0.079270095 -0.009868655 -0.023868319 0.028879527 0.057654344
-0.065409474 0.075379945 -0.048401076 -0.027477382 0.07575339 0.07561937 -0.010257404 0.09717136
0.06773542 0.04064158 0.015818339 0.07494303 0.071504176 0.08814508 0.0025218434 -0.03260935
0.0063002994 -0.04338314 -0.09124499 -0.007156737 0.0289045 -0.037593283 -0.070755884 -0.046655156
-0.079332136 0.09800697 -0.03444071 0.057714008 -0.0018446657 -0.017435974 -0.0433957 -0.002217911
0.05353446 0.06123423 0.072865985 -0.002762198 -0.04136038 0.0065067816 0.08946611 -0.041998927
-0.052047912 0.076649964 0.049862336 -0.056645248 0.006129989 0.08098146 0.06159899 -0.09311977
-0.039117508 0.027405513 -0.082149506 0.050114848 0.034152362 0.033857763 -0.08373086 0.038463302
0.05729771 0.033463232 -0.011108451 0.068130724 0.056979295 0.05672894 0.099498875 -0.048006907
-0.03799539 -0.044610586 -0.020001695 -0.05340233 0.03183087 0.020130796 0.077741444 -0.115353145
-0.074715026 0.028827062 -0.030635474 -0.0050272406 -0.07362261 -0.097731374 0.090655886 -0.043572206
0.08712487 0.04596084 0.08741324 0.099572815 0.053799517 -0.006063248 -0.05059433 -0.0760306
0.053583715 0.0010886895 0.090613335 -0.044049017 -0.0027819457 -0.04233602 0.035348114 0.077279195
0.10322597 -0.04525232 -0.0120164165 -0.08824717 0.043900054 0.07789751 0.07391928 0.08760435
0.07088401 -0.0033861804 0.047293402 -0.007863846 0.0739115 0.0028229852 -0.097299196 -0.02414919
00000000: ed73 8d3d bd5d 013d bfeb a7bc 295d 78bd
00000010: 9d45 5f3c 2c41 86bc 7787 3b3d 7076 8b3d
00000020: c19e fe3c e714 8abd 6356 0ebd b096 06bc
00000030: bcf5 1cbd 6641 8d3d 8dba 45bd dd7c 8bbd
00000040: 855f 8a3d b411 2dbd 6ca8 96bd 922e 173d
00000050: a559 4f3d b1d2 88bd f5c6 0abd 4b7b a1bd
00000060: 520c 42bc f06f 4c3d ba8c 76bd ce09 983d
00000070: 7d22 a6bd 6068 b13d 7de3 0c3d c16f adbd
00000080: e772 083d 37b4 99bd 9c77 bd3d 4053 59bd
00000090: 68d1 49bc 2de1 a93d cadd a03d 2b2b a43d
000000a0: 74c5 3ebd 6444 b1bd d3b2 88bd 0022 72bc
000000b0: 243c 9bbc 831d 9dbd 7c63 b33d b769 a3bd
000000c0: 1d9a 90bc 2d43 5c3d b04e a2bd 51d7 9e3d
000000d0: 77cd 2ebc 8905 a0bd e9aa 93bd 2d59 4fbc
000000e0: 957b f3bb 713a 12bc 9b21 203d 31cb 4fbd
000000f0: 09df 8f3c 3c35 bd3d d3a5 a43d f46f a33c
00000100: 8143 8abd 783d 9ebc 18ea 213d 8c04 463c
00000110: 6323 bbbc 132b ce3c cfe7 9cbd acb8 94bd
00000120: 01f5 01bc fe69 08bd 33f2 a53c 1e49 453d
00000130: 84b0 013c 4534 903d d413 0a3d 12ff 7bb9
00000140: e7cb d6bc 6829 95bd 73ea d43b 9868 4cbd
00000150: 0646 babd 7cb0 41bd f3ce 70bb 3d4e 533d
00000160: 0340 02bd 8bb1 1e3d eb2a 213d dc00 13bd
00000170: f26f b03b b523 3c3d 7f81 9a3d 27c9 993d
00000180: 7d1a f53c 9964 023d 89ae b73c 59a6 f73a
00000190: fb49 433c 8869 d53a 55e4 6d3d a152 f33a
000001a0: 1b94 82bd fcaf 823c 5041 be3c 720f b03c
000001b0: 14df 153d 05f0 a6bd 3dc8 173d b554 383d
000001c0: 5c6c 93bd 17c8 0a3c 1a69 50bd 2b8e a4bc
000001d0: 5c3d 42bd ac30 85bd 6fa5 b63d 7be1 653d
000001e0: 27e8 803d d59f 1a3c 809d 4dbc 04de 7abc
000001f0: 310a 4ebd ca02 2abd 2d74 5dbc 4fb0 54bc
00000200: 395c 9a3d 9e22 c83d 7e6e 85bc b8c2 973d
00000210: 12dc 783d c724 ae3d 8495 82bd 48ff 9f3d
00000220: 3ff4 23bd b698 b93d f63d 9e3d 5c58 a23d
00000230: 24b0 21bc 7e87 c3bc c294 ec3c f626 6c3d
00000240: 67f5 85bd cd60 9a3d 3540 46bd 3f18 e1bc
00000250: 9824 9b3d 54de 9a3d ac0e 28bc c701 c73d
00000260: deb8 8a3d c977 263d 7695 813c bb7b 993d
00000270: c870 923d 6885 b43d 8345 253b 6291 05bd
00000280: be72 ce3b 85b2 31bd a7de babd 1083 eabb
00000290: 21c9 ec3c 6afb 19bd 76e8 90bd 7a19 3fbd
000002a0: e378 a2bd e1b7 c83d b411 0dbd 8665 6c3d
000002b0: b6c8 f1ba e3d5 8ebc b1bf 31bd 5f5a 11bb
000002c0: f346 5b3d bed0 7a3d c33a 953d fe05 35bb
000002d0: 8069 29bd d736 d53b 023a b73d 1107 2cbd
000002e0: 3130 55bd a8fa 9c3d 733c 4c3d d904 68bd
000002f0: 13de c83b 9cd9 a53d 394f 7c3d 94b5 bebd
00000300: ae39 20bd 8781 e03c 003e a8bd 3a45 4d3d
00000310: 59e3 0b3d 70ae 0a3d 167b abbd b28b 1d3d
00000320: 01b1 6a3d be10 093d 3800 36bc 1f88 8b3d
00000330: 1f63 693d 9b5c 683d 11c6 cb3d e4a2 44bd
00000340: 0ea1 1bbd 97b9 36bd 98da a3bc 67bc 5abd
00000350: 1661 023d 57e9 a43c e836 9f3d 453e ecbd
00000360: 3104 99bd bb26 ec3c 3ff7 fabc 8dbb a4bb
00000370: 73c7 96bd 6327 c8bd cba9 b93d c578 32bd
00000380: 866e b23d 6f41 3c3d b605 b33d d5ec cb3d
00000390: e25c 5c3d 36ae c6bb 003c 4fbd eeb5 9bbd
000003a0: 997a 5b3d 5cb2 8e3a 7c93 b93d be6c 34bd
000003b0: 4e51 36bb 8968 2dbd 2fc9 103d 8e44 9e3d
000003c0: 2368 d33d 7f5a 39bd 81e0 44bc efba b4bd
000003d0: 8bd0 333d bb88 9f3d fe62 973d e969 b33d
000003e0: a32b 913d aeea 5dbb bab6 413d 5cd7 00bc
000003f0: ea5e 973d d501 393b cd44 c7bd 86d4 c5bc

fc2.bias f4 [84]
0.0061048516 -0.02437072 -0.0017206147 -0.06422173 0.015254195 0.008537272 -0.059087206 0.022656254
0.089647464 0.055405147 0.011902672 -0.058437083 -0.06466286 0.029182747 0.019471195 -0.09347478
0.06993029 0.01698127 0.09857903 -0.026041178 -0.0047727297 -0.024624523 -0.06791343 0.08222755
-0.076628044 0.03033019 0.055839136 0.06449138 0.078983925 -0.0019903847 -0.06196062 0.06392944
-0.07359754 -0.049405396 -0.031578433 0.05655197 -0.043377075 -0.056991037 0.043398406 -0.07125078
0.0370287 0.035291586 0.0037316629 -0.070825 0.06526097 -0.07418281 0.072786145 -0.03453717
-0.08144407 0.046970315 -0.01193822 0.01653655 -0.030326542 -0.058010142 -0.015072472 -0.061742492
-0.06196011 -0.037997946 0.053857453 -0.00016845729 0.037349463 0.04822258 0.08584652 -0.007471465
0.029839436 -0.04356223 0.08503713 0.07977082 0.08669868 -0.0034024273 -0.06783551 0.020501541
0.06769798 0.025802184 0.03465454 0.005704341 0.010725143 0.05580716 0.08926535 0.083375506
0.023016427 -0.056047857 -0.03693023 -0.0056058452
00000000: 350b c83b 1ba5 c7bc 4086 e1ba af86 83bd
00000010: bbec 793c eadf 0b3c 6d05 72bd 9c99 b93c
00000020: 1799 b73d 82f0 623d 6d03 433c b95b 6fbd
00000030: f66d 84bd a810 ef3c 0e82 9f3c b56f bfbd
00000040: 9d37 8f3d 4e1c 8b3c cde3 c93d 4f54 d5bc
00000050: 8f64 9cbb 5eb9 c9bc 3216 8bbd eb66 a83d
00000060: 2aef 9cbd 0577 f83c 94b7 643d 0e14 843d
00000070: 53c2 a13d 1d71 02bb 6bca 7dbd 70ed 823d
00000080: 4fba 96bd 505d 4abd 6358 01bd 0aa3 673d
00000090: 29ac 31bd 6f6f 69bd 87c2 313d eeeb 91bd
000000a0: 68ab 173d e98d 103d ea8e 743b b30c 91bd
000000b0: 8ba7 853d 28ed 97bd e710 953d d976 0dbd
000000c0: 26cc a6bd f263 403d 8698 43bc a977 873c
000000d0: 5e6f f8bc 0b9c 6dbd 88f2 76bc b2e5 7cbd
000000e0: e2c9 7dbd bca3 1bbd a299 5c3d e9a3 30b9
000000f0: c0fb 183d 0a85 453d 4dd0 af3d 31d3 f4bb
00000100: d571 f43c 4f6e 32bd f227 ae3d e25e a33d
00000110: 148f b13d 42fb 5ebb 58ed 8abd d9f2 a73c
00000120: 3da5 8a3d 1a5f d33c ebf1 0d3d 7beb ba3b
00000130: 83b8 2f3c 0c96 643d c0d0 b63d c7c0 aa3d
00000140: f28c bc3c 7092 65bd 2744 17bd 3db1 b7bb

fc3.weight f4 [10, 84]
-0.09901664 0.09888852 -0.055327304 -0.06684994 0.034733124 -0.09432411 0.059480153 -0.0416467
-0.033380587 0.07648984 0.13030867 0.018708918 0.15406023 -0.14840716 0.01926676 0.04483814
-0.077726476 -0.23139966 -0.14044434 -0.0039996733 0.051904447 0.11950389 0.020176293 -0.024367027
0.04113675 0.15840921 0.020787107 -0.23352659 0.18237984 -0.036629982 0.023493046 0.020922631
0.074767314 0.039228056 0.05843624 -0.09426018 -0.07042631 -0.08947538 -0.042171877 -0.12972967
-0.039366085 -0.08205904 0.16127189 -0.09405078 0.08000111 -0.030758597 0.16421854 0.083515435
0.15301587 0.025964336 -0.07890754 0.052850414 -0.022359235 -0.10752803 -0.049161498 -0.11947772
0.06690829 0.10458845 0.06171505 -0.05645138 -0.011440481 -0.08726083 0.03671345 -0.06425358
0.09966661 -0.062960654 -0.1074767 0.071419336 0.059740886 -0.04098486 0.06954671 -0.14304952
0.2116566 -0.10744044 0.06653209 0.063848816 -0.07267796 -0.11932408 -0.12797967 0.031346105
-0.03625343 -0.0670721 0.100349784 0.09193535 -0.038401242 0.08429832 -0.067397214 -0.0992528
0.033482336 -0.06253885 0.052005712 0.103978135 0.12741055 0.102300055 0.009553818 0.06689203
-0.050678838 0.0420628 -0.086751826 0.07224091 -0.065965526 0.16210642 0.18795499 0.0768249
-0.020722724 0.10514941 -0.022752766 -0.07847945 0.020526053 -0.0926347 -0.011179089 0.13692145
0.024784861 -0.05746392 -0.09457868 0.10695246 -0.058737744 0.001758582 0.10842696 -0.14261326
0.03163249 0.11047852 0.048632234 -0.06766632 0.14917025 -0.04928943 -0.25367585 0.074371316
-0.11815763 -0.09973544 -0.010201765 -0.046024524 -0.09670274 0.046703417 -0.005771323 -0.065996185
0.0778978 -0.063494645 -0.068086594 0.043034315 0.02790296 -0.09859311 -0.0759382 -0.12600407
0.13924891 -0.026173051 -0.06065932 -0.19964096 -0.13274714 -0.112539455 0.061453544 0.04798586
0.051150143 -0.039638996 -0.024301477 0.110554986 0.07842022 0.1071624 -0.12411853 0.07347402
-0.05900333 0.2027841 0.010595912 -0.09726713 0.05050689 0.009813152 0.064858556 -0.12079095
0.10492874 0.1216744 0.01494732 -0.03306444 0.16554956 0.008744994 0.070441045 0.015857551
-0.15783401 0.037942603 -0.051027454 0.07046479 -0.023458967 0.22072087 0.05017727 -0.10028801
-0.11112741 0.049688265 -0.030418204 -0.103255294 0.10697855 -0.12705164 -0.11787715 0.1537628
-0.0063019195 0.16264437 0.020069687 0.01967269 -0.12633355 -0.009157524 -0.10002757 -0.1108759
0.07245676 0.1009142 -0.0827818 -0.047671318 0.11486982 -0.030348385 0.0017684633 -0.094147466
-0.11057294 0.09531761 0.083278246 -0.14940636 0.012296711 0.08109077 0.118755735 0.06238471
0.04600885 0.0015580319 0.102198236 0.13329338 0.056902673 -0.047588404 -0.011048516 -0.1372195
0.12050745 0.053519294 0.03741399 -0.06876849 0.12881765 -0.069389254 -0.003807397 -0.1237132
0.037708417 0.16099882 0.06631612 -0.07744417 0.110984795 0.014133271 0.029779812 0.06728694
-0.082948625 -0.15975998 -0.0670703 -0.102278315 0.02808316 -0.10817613 0.19751441 0.05293104
0.054520085 -0.0070496523 0.11414685 -0.06326669 -0.089092545 -0.08699381 -0.01787693 -0.015692381
00000000: 3cc9 cabd 1086 ca3d e29e 62bd 9fe8 88bd
00000010: 5244 0e3d 002d c1bd 76a1 733d bb95 2abd
00000020: 15ba 08bd b5a6 9c3d a36f 053e 7243 993c
00000030: f7c1 1d3e 0cf8 17be 53d5 9d3c 33a8 373d
00000040: 0f2f 9fbd 08f4 6cbe a4d0 0fbe b10f 83bb
00000050: c299 543d 75be f43d c148 a53c 5c9d c7bc
00000060: 027f 283d 0636 223e b949 aa3c 9821 6fbe
00000070: c8c1 3a3e 5209 16bd 7d74 c03c f065 ab3c
00000080: 9b1f 993d 99ad 203d d75a 6f3d 7b0b c1bd
00000090: ab3b 90bd de3e b7bd 6bbc 2cbd dbd7 04be
000000a0: 553e 21bd 920e a8bd 7524 253e b29d c0bd
000000b0: 9fd7 a33d 74f9 fbbc e828 283e 240a ab3d
000000c0: 31b0 1c3e 29b3 d43c 479a a1bd ad79 583d
000000d0: b72a b7bc a837 dcbd 915d 49bd bcb0 f4bd
000000e0: 3707 893d 7832 d63d ecc8 7c3d 9039 67bd
000000f0: db70 3bbc ceb5 b2bd d860 163d 6297 83bd
00000100: 021e cc3d 84f1 80bd be1c dcbd 4d44 923d
00000110: dcb2 743d bedf 27bd 816e 8e3d 937b 12be
00000120: 82bc 583e bc09 dcbd fa41 883d 2bc3 823d
00000130: 2fd8 94bd 2f60 f4bd 1a0d 03be c664 003d
00000140: 7a7e 14bd 195d 89bd 3084 cd3d 9a48 bc3d
00000150: 9f4a 1dbd 99a4 ac3d 8d07 8abd 0d45 cbbd
00000160: c624 093d 5e14 80bd f103 553d 7df2 d43d
00000170: e977 023e b182 d13d 9e87 1c3c b0fe 883d
00000180: 9d94 4fbd 0b4a 2c3d f1aa b1bd 0bf3 933d
00000190: ef18 87bd 3aff 253e 4677 403e 6056 9d3d
000001a0: b4c2 a9bc 9358 d73d 0264 babc d5b9 a0bd
000001b0: 4126 a83c 43b7 bdbd 7f28 37bc 2335 0c3e
000001c0: 9f09 cb3c 4a5f 6bbd 78b2 c1bd e409 db3d
000001d0: fd96 70bd 3880 e63a f40e de3d 3609 12be
000001e0: 1291 013d 9042 e23d 9832 473d a494 8abd
000001f0: 16c0 183e b7e3 49bd cde1 81be fd4f 983d
00000200: a1fc f1bd 1842 ccbd 4e25 27bc 3684 3cbd
00000210: 160c c6bd 154c 3f3d 5e1d bdbb 0229 87bd
00000220: e288 9f3d 7b09 82bd fc70 8bbd c044 303d
00000230: c094 e43c 2feb c9bd 7d85 9bbd 3607 01be
00000240: 4497 0e3e de68 d6bc e875 78bd ae6e 4cbe
00000250: deee 07be 167b e6bd b6b6 7b3d d28c 443d
00000260: d082 513d 805c 22bd e413 c7bc a76a e23d
00000270: c89a a03d f677 db3d db31 febd 8c79 963d
00000280: 7aad 71bd a3a6 4f3e 7a9a 2d3c fd33 c7bd
00000290: 50e0 4e3d 58c7 203c 90d4 843d 3f61 f7bd
000002a0: e1e4 d63d 6e30 f93d 9be5 743c 946e 07bd
000002b0: d385 293e 2a47 0f3c 6543 903d b2e7 813c
000002c0: 3d9f 21be b469 1b3d 2a02 51bd d84f 903d
000002d0: 052d c0bc a704 623e ae86 4d3d cd63 cdbd
000002e0: c496 e3bd ec85 4b3d 992f f9bc 8377 d3bd
000002f0: 9217 db3d d319 02be 9369 f1bd ff73 1d3e
00000300: 5580 cebb 3f8c 263e 2f69 a43c 9f28 a13c
00000310: 955d 01be 7109 16bc 41db ccbd e712 e3bd
00000320: 3664 943d 1bac ce3d 8189 a9bd 0043 43bd
00000330: de40 eb3d 2d9d f8bc c8cb e73a 63d0 c0bd
00000340: 1174 e2bd e135 c33d c98d aa3d fbfd 18be
00000350: 2578 493c eb12 a63d 3536 f33d 1c87 7f3d
00000360: c773 3c3d e036 cc3a 4f4d d13d 0f7e 083e
00000370: c712 693d 0fec 42bd d604 35bc 4583 0cbe
00000380: 9ccc f63d 0c37 5b3d 693f 193d 7ed6 8cbd
00000390: c6e8 033e f41b 8ebd 8685 79bb 595d fdbd
000003a0: 2474 1a3d e0dc 243e bfd0 873d 0d9b 9ebd
000003b0: ff4b e33d 3c8f 673c cbf4 f33c bccd 893d
000003c0: f8e0 a9bd 1f98 23be 275c 89bd 4b77 d1bd
000003d0: a80e e63c 728b ddbd 3841 4a3e 38ce 583d
000003e0: 7450 5f3d c500 e7bb d3c5 e93d f791 81bd
000003f0: 2776 b6bd d029 b2bd a472 92bc 4f8d 80bc

fc3.bias f4 [10]
-0.11804635 -0.01727152 -0.020841751 0.049044326 0.09474584 0.052091382 -0.05408867 -0.022294441
-0.020460486 0.0040058964
00000000: 49c2 f1bd 017d 8dbc 52bc aabc b4e2 483d
00000010: 1b0a c23d c65d 553d 158c 5dbd d5a2 b6bc
00000020: c09c a7bc e543 833b
