PyCharmWorkshop/AI/Projects/Project3/checkpoints/LeNet5/epoch-3.pth (torch, 243143 bytes, 10 tensors)

conv1.weight f4 [6, 1, 3, 3]
00000000: 8f0a c93e 489c 863d a2f4 253e d4bd 10be
00000010: 5af8 6d3e 118e 5ebe 1eec 353e dcbc e23e
00000020: b616 4cbe b58d b23d d718 de3e 3708 fdbd
00000030: cf3a d83e be79 e53e 636d 13bc 5d64 5f3d
00000040: e1cd ee3d e943 bb3e bb8f 64be d7ea 39be
00000050: 1577 d1bb 3018 ab3d ada2 8c3e 5ed0 ca3d
00000060: a61b 7c3e 92c5 863d b58b b23e 2064 a53c
00000070: 5dc0 073f c546 163f 8884 363f 0284 b63e
00000080: 2b10 ce3e 7ee6 153f 9900 253e 5e1a 80be
00000090: bf9d ef3e c7a0 683e 9f6b 61be 909d 9e3e
000000a0: 16be 393f 8691 0e3e 506a 2d3f 4a57 443f
000000b0: ac73 873e 7737 a53e 2560 d7bd b12a 003f
000000c0: d3d2 f43e 1b3f 37be cc11 f43e ff00 933e
000000d0: e39d a8be 6641 9dbe
0.39265868 0.06572777 0.16206601 -0.14134914 0.2323927 -0.21733882 0.17765853 0.44284713
-0.19930539 0.08718435 0.43378326 -0.123550825 0.42232367 0.44819444 -0.008998248 0.054539073
0.11660362 0.3657525 -0.22320454 -0.1815599 -0.0063923695 0.08354223 0.27467862 0.09903024
0.24619922 0.06580652 0.34872213 0.020189345 0.530279 0.58701736 0.71295977 0.3564759
0.4024671 0.5855483 0.16113509 -0.25020117 0.46800038 0.22717582 -0.2201371 0.30979586
0.72555673 0.139227 0.67740345 0.7669569 0.26455438 0.3226888 -0.10516385 0.5006514
0.47817096 -0.17895167 0.47669828 0.28711697 -0.32932958 -0.30713958

conv1.bias f4 [6]
00000000: c9dc 743e c322 16be 1a3c 84be 8f70 d73e
00000010: 763a 943e 3d33 d83d
0.23912348 -0.14661698 -0.25827104 0.42078063 0.28950852 0.10556648

conv2.weight f4 [16, 6, 3, 3]
00000000: 0359 033e 7f0f 3d3d a718 283d defe 61bb
00000010: 480e 2fbc 9919 f23d 213f 5e3c 5f22 bc3d
00000020: b330 e73d 4d87 adbc 7bde 05be e299 a1bc
00000030: 2e23 a5bc 58de 12be cfe1 0c3e b927 c2bd
00000040: 3890 e3bd 93a7 8fbd bbd8 f93d 9879 10be
00000050: c5ab 9bbd d0b8 91bd ed6e b63d 2fb4 213e
00000060: 7164 d6bc 84ec d23c bfb3 e83d 0ec5 3c3d
00000070: 9a11 fdbd a425 24be f07c c33d 6429 8abd
00000080: 3946 3e3e 24e5 00be 0eb4 f13d 4065 ef3d
00000090: 9607 7c3d d2a4 84bc c59a e9bd 3d76 c2bd
000000a0: e8d7 18be f277 2cbd a661 b03d d1d3 45bc
000000b0: 0d73 adbc 92b8 043b 2b06 80bc 3d57 813c
000000c0: 32ae e43d 7f92 8abd 5f44 e53d 2a40 00be
000000d0: 7ba4 8cbd e837 eb3d e417 583e 5454 1f3e
000000e0: d9f0 6bbd dc6a 673a 844f 76bc dfd3 d63d
000000f0: c7cc 083e a6e6 aa3d de00 f5bd c5d7 3dbd
00000100: 19b7 7abd c0f0 d2bd ec85 2d3e 7412 833d
00000110: a084 0cbe 5f4b 093e ca78 6d3c ef35 153e
00000120: 83b9 2abc dad1 06be 8b23 b3bd 2396 b4bd
00000130: 92e2 ddbc 30ca b2bd da47 a4bd ab06 43bd
00000140: 3a2d 083e a2a9 823e 1f35 99bd 74fb 97be
00000150: 1a67 0f3e 588f b33d 5624 56bd 0513 35bd
00000160: a0fa 183e f467 213d 7d05 9d3e d0c7 6a3d
00000170: 6de7 8fbe 35e8 393e 421c f13c 0302 7cbd
00000180: 7b11 883e ac45 953e 46f3 d63d 607a 98bd
00000190: 9b7e 023d f068 30bd da88 bd3d fd84 363d
000001a0: ef0a 9cbd 66e2 2d3d 3159 003e 3272 283e
000001b0: d1e3 f0bd c1e7 ba3d 4865 1bbc e7c0 f0bc
000001c0: f710 9dbd a048 0f3b 8292 e8bc 017d 0a3e
000001d0: 34d7 4c3c b94d 05be e005 ccbb e7d7 433d
000001e0: c2bc c1bd bade e83d 9837 39bc cdf7 e9bd
000001f0: 6f83 febc 06e7 8abd 983a 41bc 53ea 9f3d
00000200: e786 f6bd 8f67 ef3d 1087 9d3d f652 c2bd
00000210: 000d 9a3d 5d03 44bc c78a 9cbd f24b eabd
00000220: ec7d 883d 2b66 e0bc f05a 94bc c5a9 123d
00000230: 4a2b 3d3e 5fa7 d2bd 5824 103e 3af5 79bd
00000240: 7d93 2cbe e148 913d 5f88 ce3d 183d 43be
00000250: e22a 083e 5196 e0bc 5241 af3d 2aa3 583e
00000260: 8f5b 143e 198f f2bd 3dfd dc3d 104e 213d
00000270: 3303 1d3d eb8e bb3d 823f 323b eba9 bcbd
00000280: 12aa 433d 61d5 0b3e cd36 bc3d 586c b33d
00000290: fa3b fa3d 6a47 f73d aa14 053e 40f6 103c
000002a0: cea7 fabd 50d3 fc3c 3828 5bbb 2755 a23d
000002b0: 342b 6bbd b680 c13d 4eb4 04bd 46d6 1f3b
000002c0: 25a1 c23c c812 ca3d 3505 653c 7490 e63d
000002d0: 70ab 8ebd 1a63 cebd ec5d edbd 7175 a8bc
000002e0: 9933 a73d 24ba 863a 05b1 dc3d 4e08 ce3c
000002f0: 8e72 e5bc 88b2 f63d 8e9a 923c 4e33 c33c
00000300: 20d9 fcbd 1306 973c 26be d3bd 232c 69bc
00000310: 15a0 043e c1f7 cbbd 22db d53d 91bd 913c
00000320: 2caf a33d 377b f93a 0021 143e e2cf 263e
00000330: e5d1 b03d 98a7 f3b8 5a20 853d 48af b0bd
00000340: 59cb cabd abf5 953d e4e3 eebd d552 b73d
00000350: 5402 523d f804 08be d3d2 49bc 73a1 b7bd
00000360: 491f 0ebc 1b79 3c3d da90 be3c 1810 c53d
00000370: 605e 313e dd65 743d 651f 86bd 076b 0d3d
00000380: 0892 af3c 25a2 80bd 27c8 e43d 7d2a 073e
00000390: 26ce 4cbd 5293 00bd 2177 16bd 99c9 503e
000003a0: 2019 393d 8eeb 643d 1fbe 83bc 18d8 8abd
000003b0: 335d 1b3d 34c1 4b3d 435e 1c3d b688 ff3c
000003c0: 056c ff3d 75c8 dcbc 999b da3d c254 ddbc
000003d0: 3259 823e 37cf c43d 3155 553e a6a6 f1bc
000003e0: 0c83 8f3d 1979 1f3d 8e10 4abc 71e7 98bc
000003f0: 819c 19bd c7f7 153e 8e68 483e a0b3 2c3e
0.12826924 0.046157356 0.041039135 -0.0034484188 -0.010684557 0.118212886 0.013564856 0.09186243
0.112885855 -0.02118268 -0.13073151 -0.019726697 -0.020158377 -0.1434263 0.13758014 -0.09480233
-0.11111492 -0.07014384 0.12199541 -0.14108884 -0.07601122 -0.07115328 0.08907876 0.15791391
-0.026170941 0.025747545 0.11362409 0.046086363 -0.12356873 -0.16029984 0.09545314 -0.06746176
0.18581475 -0.1258741 0.11801921 0.11689234 0.061530672 -0.016191874 -0.11406473 -0.094952084
-0.14926112 -0.042106576 0.08612375 -0.012074427 -0.021173025 0.0020251614 -0.015627941 0.015788669
0.111660376 -0.06766223 0.111946814 -0.12524477 -0.0686731 0.11485273 0.21102864 0.15559512
-0.057602737 0.0008827874 -0.015033606 0.1048963 0.13359366 0.08344774 -0.11963056 -0.046348352
-0.06120977 -0.10299826 0.16945618 0.06400004 -0.13722467 0.13407658 0.01449413 0.14571355
-0.010420206 -0.1316599 -0.08747014 -0.08817699 -0.027085576 -0.087299705 -0.08021517 -0.04761378
0.13298503 0.25520045 -0.07480835 -0.2968403 0.14004174 0.08767575 -0.052280746 -0.04420759
0.14939356 0.039405778 0.3066825 0.057319462 -0.2810625 0.18154986 0.02943242 -0.061525356
0.26575837 0.29154718 0.104956195 -0.07445216 0.03185902 -0.043068826 0.09254618 0.04456042
-0.07619273 0.04245224 0.12534024 0.16449812 -0.117622025 0.09126235 -0.009484597 -0.029388858
-0.076692514 0.0021863356 -0.028390173 0.13524248 0.01250248 -0.1301793 -0.0062262863 0.047813322
-0.09459831 0.11370607 -0.0113047585 -0.114242174 -0.031068532 -0.067823455 -0.011793755 0.07808366
-0.12037449 0.11689674 0.07691777 -0.0948848 0.07522011 -0.0119636925 -0.07643657 -0.11440267
0.06664643 -0.027392467 -0.018109769 0.035806436 0.18473545 -0.1028583 0.14076364 -0.061024882
-0.16853137 0.07093979 0.100846045 -0.19066274 0.13297608 -0.027415426 0.08557381 0.21155992
0.14488052 -0.118437 0.10790489 0.039381087 0.03833313 0.09158119 0.0027198498 -0.09212097
0.047769614 0.13655616 0.0919014 0.08760899 0.12218471 0.12074168 0.12996164 0.008847773
-0.122390375 0.03086248 -0.003344072 0.07926398 -0.05741425 0.09448378 -0.032398514 0.0024389192
0.02375848 0.098668635 0.013978292 0.11258021 -0.06966293 -0.10077496 -0.1159018 -0.020563813
0.08164138 0.0010278863 0.10775951 0.025150444 -0.028008725 0.12045771 0.017895963 0.023828175
-0.12346101 0.018435514 -0.10339002 -0.014231714 0.12951691 -0.09959365 0.10442187 0.017790588
0.07992396 0.0019033913 0.14465714 0.16290238 0.08633784 -0.0001161836 0.06500311 -0.08627182
-0.09902067 0.07322248 -0.116645604 0.08951346 0.05127175 -0.13283145 -0.012318331 -0.08966341
-0.008674451 0.046013933 0.02326243 0.0962221 0.17321157 0.059667457 -0.06548957 0.034525897
0.021431938 -0.062809266 0.111709885 0.13199802 -0.050001286 -0.031390496 -0.036734704 0.20389403
0.045189977 0.055888705 -0.016081868 -0.06779498 0.03793068 0.0497448 0.038175832 0.031193119
0.12471775 -0.026951054 0.10674209 -0.027017955 0.25458676 0.096098356 0.20833279 -0.02949841
0.07007417 0.038933847 -0.0123330485 -0.018665047 -0.03750277 0.14645301 0.19571134 0.16865396

conv2.bias f4 [16]
00000000: d5fe 6dbd ffef 7abd 314b 963b 3b64 8bbc
00000010: 115f 0cbc ea5b a33d 3641 d3bd 416f d73c
00000020: 27e7 123e 7c6c 82bc 2e80 d53d 736b ffbd
00000030: e178 dabd e66a 0cba d4c5 ce3c 6ec1 cabb
-0.058104355 -0.061264034 0.0045866002 -0.017015567 -0.0085675875 0.079765156 -0.103151724 0.026298167
0.1434599 -0.01592087 0.10424839 -0.12471666 -0.10667587 -0.0005356505 0.025240816 -0.0061876094

fc1.weight f4 [120, 400]
00000000: a9ed 66bc 1fb1 fcbc 8b13 d9bc eb0f c33c
00000010: 641b 503d b1da 4dbd 966c 7abb 0f01 903b
00000020: e333 b93c ca56 deb9 e29f 323d c1d1 243d
00000030: f602 b53b 5816 43bd de94 7e3c 0cfb e03c
00000040: 58dd 83bc 079b 6ebd b502 983c 8496 e03c
00000050: ab82 e93b b6b1 c33b bb5a 16bc 6e38 e9bb
00000060: ed95 40bd 1773 2d3d a79e b43c a089 58bd
00000070: 871f debc 4589 683b 4a7c 21bd af00 adbc
00000080: 6c62 b83c 40ec 253d be33 02bd c46f a53c
00000090: bb06 913c a3dc 673d 4af9 ba3b 5c65 c6bc
000000a0: 5463 d33b 8c01 9c3c bf50 c13a d0c4 763d
000000b0: e2b7 363d a66e 29bd 3a86 00bd 7ecf 30bd
000000c0: 0f26 68bd d375 9fbc 39c6 323d 3a71 983c
000000d0: dc95 31bc 8da0 ad3c e865 513a d208 17bd
000000e0: f7e1 243d e2be e4bc 9e03 4f3d 0c02 20ba
000000f0: 7f08 da3c 5861 31bd 0f3c 42bd da49 773d
00000100: 83bf dcbc 83b9 6c3c d784 22bd e4ad 993b
00000110: 0b95 ffbc 07b9 bcbc cdf0 d9bc 26d6 60bd
00000120: 8d9c 763c edae a7bc 629c 6ebc 0157 d43c
00000130: 30ee fb3c e3b0 18bd 1949 c73c 6bc7 ec3c
00000140: 0846 07bd 5080 4439 0356 263d 3945 b4bb
00000150: 3be9 9bbc 5af4 193d 83cc 31bd cfd3 f83c
00000160: f242 9dbc a9ab 2f3c 7680 73bc e351 bcb8
00000170: f896 a33b 4a7c 263d cca5 3bba 800d f8bb
00000180: 6c4c 99bb 2724 b13c 2cf9 f3bc 1d0a dfbb
00000190: 416f c6bc 3066 eabc 6c60 fe3c d2d0 5bbc
000001a0: dc43 72bd 0a7d 14bd d8f9 0cbd d669 8dbc
000001b0: ec37 803b 2898 ce3a 756b 58bd 5b50 cf3b
000001c0: be07 e93a 99a1 0bbc 479c be3c 4a16 f83c
000001d0: 11b9 2a3d 30f7 04bd 0d21 9bbc 5875 43bd
000001e0: 5918 243d c171 db3b 7569 bbbc 7017 4dbd
000001f0: 7d88 303d 67f9 f13c 39cd 8c3c c345 72bc
00000200: d466 80bb 77d8 623b 60b8 fdbc c171 ca3c
00000210: 1733 e73c 1732 653d 9143 10bd aa80 c13c
00000220: e3d8 80bc 5a92 753c ba0c 353d e653 7fbc
00000230: 8cc0 683d 562e 0b3d 7aba 1f3d 26f4 9c3b
00000240: 9fbb 4c3a 4aef 4e3d 09eb 29bd e116 b33c
00000250: afb5 593d 544b 233d 8fd0 293d 26d0 1c3c
00000260: 8ba9 b2bc 5186 0ebc 7416 83bc 17ca d8bc
00000270: 852d 593b 6f4e 333c 6bce 4abc e77f 153d
00000280: 7eb0 2dbd b799 5dbc 3660 e9bc 4f50 05bd
00000290: 87d2 1ebd 569f a63c 98c2 453a ba4b 02bc
000002a0: 3359 5c3d 9bb6 5abc 8d35 193c 6fe4 42bd
000002b0: d985 4a3c e6a4 123d e336 173d 0f63 113d
000002c0: d024 25bd 307a 463d f014 60bc fec2 44bb
000002d0: ad71 dc3c de47 9b3b 9f1a 4fbd 7b7d 21bb
000002e0: 0b10 2e3d 9fe1 a03c 359a c83c 6994 693d
000002f0: 5dff 203d aa4d a63c d806 313d a04b f53b
00000300: 72e5 f13b 5a20 133c 455b 30bd 5e30 3bbd
00000310: 1269 04bd 9baf 72bb c8a3 9f3b 833a eebc
00000320: fe6f 61bc 60ef 343d 26a1 27bb 90b8 14bd
00000330: da6c 74bc 5a23 29bd de84 1cbb af61 debc
00000340: 77f0 213d 6049 08bd 1241 01bd 0cb8 0d3d
00000350: f40a 523d 0ee6 20bc 607f 78bc c98d a63c
00000360: ef66 1a3d f60e 91bc 8e34 503d 696d c43b
00000370: 9d4d 3fbd 4c1c ccbc 87a9 453d 8d0c 86bc
00000380: e220 553c 9ce2 75bc ac04 163c 0950 11bd
00000390: a872 37bc cb88 803c 1fad c9bc 21c8 eebc
000003a0: 2cf8 8b3b 128c eb3c 4a75 cd3c 0b10 93bb
000003b0: d877 b9bc 82c4 39bd e798 28bd 2a37 7fbd
000003c0: ec9f 443c cb8d 373d 74a3 bdbc 7f21 3e3d
000003d0: 34ae 11bd 1b33 fdbc c554 193d 05cc 07bd
000003e0: 1454 543c 7d9e 5ebc 4af8 59bd 3dde 0a3c
000003f0: c214 433c 689d f0bc 71f7 3b3d a929 e83c
-0.0140947485 -0.030846177 -0.026498577 0.023811301 0.05080737 -0.05025739 -0.0038211695 0.0043946574
0.02260775 -0.00042407803 0.043609507 0.0402391 0.0055240346 -0.04762873 0.015538422 0.027463458
-0.016096756 -0.058253314 0.018555978 0.027415521 0.0071261725 0.0059721125 -0.009176905 -0.0071173226
-0.04701798 0.042346086 0.022048308 -0.052865624 -0.027114643 0.003548221 -0.039425172 -0.02111849
0.022507869 0.04050851 -0.031787626 0.020194896 0.017703405 0.0566069 0.005705987 -0.024218254
0.00645105 0.019043706 0.0014748796 0.06024629 0.044608958 -0.04136529 -0.03137801 -0.04316663
-0.05667692 -0.019465363 0.04364607 0.018608678 -0.010838952 0.02119472 0.00079879025 -0.036873646
0.04025456 -0.027923051 0.05054056 -0.00061038206 0.02661538 -0.043305725 -0.047420558 0.060373165
-0.026946789 0.014448526 -0.039677467 0.004689919 -0.031198999 -0.023037447 -0.02660408 -0.054891728
0.015051973 -0.020469153 -0.014563652 0.025920393 0.030753225 -0.037278067 0.024326848 0.028903684
-0.03302577 0.00018739817 0.04060937 -0.005501416 -0.019032111 0.037586547 -0.04340793 0.030374436
-0.019196961 0.010722079 -0.01486217 -8.979791e-05 0.004992362 0.040645875 -0.00071581895 -0.0075699687
-0.0046782997 0.021623684 -0.0297819 -0.0068066255 -0.024222972 -0.02861318 0.031051837 -0.013416486
-0.059146747 -0.03625206 -0.034417957 -0.01726238 0.0039129164 0.0015761899 -0.052836854 0.006326718
0.0017778797 -0.008522415 0.023267878 0.030284066 0.0416804 -0.0324623 -0.018936658 -0.04771933
0.040062282 0.00669691 -0.022877434 -0.05007118 0.043098915 0.02953787 0.017187702 -0.01478714
-0.003918508 0.0034613886 -0.030971706 0.024712445 0.028222604 0.055955973 -0.035220686 0.023620922
-0.01572842 0.014988506 0.04420159 -0.015583968 0.056824252 0.033979736 0.038996197 0.004789847
0.000780994 0.050521173 -0.041483913 0.021861495 0.053151783 0.03986676 0.041458663 0.009571111
-0.02180936 -0.008699016 -0.016001917 -0.026463551 0.0033138704 0.010943993 -0.012378315 0.03649893
-0.042404644 -0.013525418 -0.02848826 -0.03254729 -0.038774993 0.02033965 0.00075439503 -0.007952625
0.053796005 -0.013349201 0.009351146 -0.047581133 0.012361013 0.03580179 0.03691758 0.03549486
-0.04031831 0.04845637 -0.013676867 -0.003002345 0.026909674 0.004738792 -0.050562497 -0.0024641443
0.04249577 0.019638835 0.024487594 0.0570263 0.039306033 0.020300705 0.043219417 0.007485822
0.0073820883 0.008979881 -0.04305579 -0.045700423 -0.032326765 -0.0037030939 0.004871819 -0.029080635
-0.013759611 0.0441736 -0.002557823 -0.036308825 -0.01491853 -0.04129348 -0.0023882906 -0.027146189
0.039535966 -0.0332731 -0.031556197 0.03459935 0.051279977 -0.009820474 -0.015167087 0.02033128
0.03769582 -0.01770733 0.05083137 0.005994488 -0.046704877 -0.024915837 0.048257377 -0.016363407
0.013008328 -0.015007641 0.009156387 -0.035476718 -0.01119677 0.015690228 -0.024618683 -0.029148163
0.0042715278 0.028753314 0.025080342 -0.0044879965 -0.022640154 -0.04535342 -0.041161444 -0.062308468
0.012001019 0.04481296 -0.02314923 0.046418663 -0.035566524 -0.030908158 0.03743436 -0.033153553
0.012959499 -0.013587591 -0.053215303 0.008475837 0.0119068045 -0.029371932 0.045890275 0.028340178

fc1.bias f4 [120]
00000000: 789b 18bd 4a1b 043d 62fc 523b f2a2 09bd
00000010: 8e47 093d e19a 183c a185 4fbc 2e71 f7bb
00000020: c18c ef3c 8234 d83c c55a 01bd 255a 53bc
00000030: 00ae 013d 933c b63c 1e26 b5bc aa17 233b
00000040: 32f3 40bc 9923 e93c c7cc ec3b 105b 15bd
00000050: f27e f8bb 298f 0dbd af7c 34bd c561 bfbc
00000060: dc50 853b f118 43bd 0082 1ebd 46ab 013d
00000070: 0e3e 113d e3c3 4b3c 0c44 16bc 3580 1a3d
00000080: b75b 1cbc 16fb 463d 42a7 09bd 7512 b5ba
00000090: 254a 8b3b a208 253d a23b 7ebc a3ae 673c
000000a0: d2fa 2ebd 0de5 293d 7442 a7bc aa4b f23b
000000b0: a70c 133d e327 493d 538b 02bd 9d11 4e3d
000000c0: c766 1fbd c51a 033d f0ec d83c 93b8 90bb
000000d0: 841a 143d 1371 0abd 2485 04bd bcff 12bd
000000e0: b12e 5abc 0936 5ebc 0981 543b 59c5 06bd
000000f0: 1578 25bd 2645 f2ba bcdb da3b d301 943c
00000100: 2b8b 3e3d 1d6c edbc 5087 9b3b 4b2a 25bd
00000110: f70f 9dbc 833b 13bd b0b8 01bd 0db2 08bd
00000120: f1aa 493d 0030 413c b91b cbbc a139 b6bc
00000130: f6d9 37bd ce23 d8bb 890e 713b 7767 a63b
00000140: 4753 fbbb 4854 93bc 1f90 1b3d d3d3 d9bc
00000150: 0cce 1fbd 51e9 45bd 5205 a0bc 11a0 da3c
00000160: 5d21 9bbc 8c56 cf3c 5ed0 fe3b 5dc3 3cbd
00000170: 2b4c b03c 92e3 963c 5068 d23b c740 b63b
00000180: d936 4cbd 1920 3dbd dae3 34bd 1f19 413d
00000190: 6700 fdbb 68c9 6e3c affc ddbc 6521 9b3b
000001a0: 1c4a ba3b b6ec 34bd 6d31 a7bc 8bdf c8bb
000001b0: 3c65 213d 5fab 1bbb 04b0 483c e711 2ebd
000001c0: 0a55 e3bc dde4 a63c e1c2 acbc 5deb e83c
000001d0: 40ee 9c3b 914c 24bc 360c d93c 9997 2f3d
-0.03725764 0.032252587 0.003219389 -0.033602662 0.033515505 0.00931427 -0.012666137 -0.007551334
0.029241921 0.026392225 -0.031580705 -0.01289991 0.03166008 0.02224568 -0.022112902 0.002488593
-0.011776732 0.028459357 0.00722656 -0.036463797 -0.0075834924 -0.034560356 -0.04406422 -0.02336205
0.004068477 -0.047631208 -0.038698196 0.03165748 0.03545957 0.01243684 -0.009171497 0.037719924
-0.009543351 0.048579298 -0.033606775 -0.0013814705 0.004250782 0.040291436 -0.015517147 0.014140758
-0.04271967 0.041478205 -0.02041743 0.0073942738 0.035900738 0.049110305 -0.03187115 0.050309766
-0.038916375 0.03200795 0.026480168 -0.004416534 0.0361581 -0.033799242 -0.032353535 -0.03588842
-0.013316796 -0.013562688 0.0032425544 -0.03290305 -0.040397722 -0.0018483743 0.0066790264 0.018067276
0.04651944 -0.028982216 0.004746355 -0.040323537 -0.019172652 -0.035945427 -0.031670272 -0.033372927
0.049235288 0.011791229 -0.024793493 -0.022244276 -0.044885598 -0.006596065 0.0036782345 0.005078252
-0.0076698395 -0.017984524 0.03797924 -0.026590263 -0.03901486 -0.04831821 -0.019533787 0.026687654
-0.018936807 0.025309823 0.007776304 -0.04608475 0.021520695 0.01841906 0.0064211264 0.0055619213
-0.049856994 -0.04617319 -0.04416261 0.047143098 -0.007720995 0.014574386 -0.027098028 0.0047342055
0.005685104 -0.044171058 -0.02040931 -0.006130164 0.039403185 -0.0023753268 0.012248997 -0.04249754
-0.02775051 0.020372802 -0.02108902 0.028432542 0.004789144 -0.0100280205 0.02649508 0.042869184

fc2.weight f4 [84, 120]
00000000: 8e04 8f3d 283a 113d c00d 86bc b18c 65bd
00000010: 96e6 8c3c 2964 83bc 3ddd 453d a093 8b3d
00000020: af28 083d 7add 86bd 9c8c 01bd d2b6 30bc
00000030: f1f8 1cbd 6641 8d3d 05cd 1fbd 4be5 91bd
00000040: dd64 8a3d 6a20 14bd 9f35 91bd f336 2e3d
00000050: c44e 493d f042 83bd b18a eabc 1dfa a5bd
00000060: 041f 80bc 6c6e 4c3d 434a 85bd 499e a03d
00000070: 7b05 a2bd fec9 b83d 57d2 0a3d 46d7 b0bd
00000080: fd7a 083d b620 92bd 4bcc cd3d ce52 59bd
00000090: 84d2 7fbc 58c9 b13d 4a0f a03d 9200 a43d
000000a0: 74b4 3ebd ed61 c5bd b259 8dbd 0022 72bc
000000b0: 5293 a5bc b992 90bd f61a bc3d 00be acbd
000000c0: 1d9c 64bc d512 7e3d 3018 98bd cafa 9f3d
000000d0: 22c3 93bc 9fbf a3bd 642a 9cbd a9a1 86bc
000000e0: 5b92 f2bb 8c06 4cbc 7232 283d 7084 6fbd
000000f0: 63d9 8e3c cf2a c33d 81ef a73d b10c 8a3c
00000100: 8143 8abd 783d 9ebc 2d58 1f3d 5670 c33b
00000110: 1a28 acbc b6c7 cd3c ae5a 9dbd 004b 89bd
00000120: b862 77bb d53d 0bbd be80 d93c 3a27 453d
00000130: b0bf 7f3c e49a 8a3d 4815 063d af0e 16bb
00000140: f772 cdbc 5d0d 99bd 0ec6 133c 8b4a 53bd
00000150: 332f babd deb6 45bd 1595 1bbc 17ca 543d
00000160: fa57 16bd ebba 063d d51d 403d 5571 0fbd
00000170: db4c b03b 093a 503d 79ca 9a3d 0a9d 963d
00000180: 342c fd3c b47e 023d 0dd0 a43c eba2 f53a
00000190: 7e7b 713c 4e75 583b dca3 6f3d df61 1b3b
000001a0: 1f6a 82bd dcad b23c 3a47 be3c 302d e53c
000001b0: 988f df3c 5961 a6bd 1c45 1f3d e8b2 353d
000001c0: 4043 8ebd 3909 553c 18f9 4cbd b3f3 91bc
000001d0: 0c7a 46bd f49b 83bd c9a9 b93d 8c5c 6c3d
000001e0: 39a1 943d 03be 573b 58a3 83bc 9959 4bbc
000001f0: b0f4 4fbd fbd7 2cbd 6b54 5abc af9f 5ebc
00000200: 60ea a03d 0975 d33d 0c2a 37bc 9e43 a13d
00000210: 9efd 783d 3527 ae3d 294f 6bbd 22f9 b03d
00000220: f3dd 23bd 4b7d b53d bc79 963d 40ba a13d
00000230: f94e 26bb 955f aebc 135c c03c 3270 863d
00000240: 909a 71bd 96d5 9a3d a617 69bd b717 d5bc
00000250: 4467 a83d 1568 ac3d ec20 20bc ca6b dc3d
00000260: 472e 953d b761 223d a6c8 433c 933e 9a3d
00000270: 8b87 a83d d78c b83d 01e2 40b9 7a31 f9bc
00000280: b147 cd3b 535c 47bd 7c60 c1bd 469a eabb
00000290: ba1a 013d 6e66 00bd af7c 85bd c1d5 14bd
000002a0: 84e1 acbd 2616 d13d 5388 51bd c20a 8e3d
000002b0: b4bf b0b6 5423 93bc 5706 13bd d5f9 a7ba
000002c0: 595e 5b3d 50c4 8b3d 7be0 a53d 3c27 8e3b
000002d0: 5a9c 2cbd 8ca5 a03c 972c ca3d 809a 22bd
000002e0: 3130 55bd a8fa 9c3d a042 843d ccfc 65bd
000002f0: 2152 5a3c 9e85 a53d df0d 7c3d 84cf d1bd
00000300: 23d6 0abd dd51 e33c 0fa1 a6bd 5958 4f3d
00000310: a248 0d3d ff36 d63c 9d1d bcbd a285 423d
00000320: 7f24 833d c800 143d 8c43 d4bb ddda 9f3d
00000330: ccd1 623d 29f1 7b3d f671 ef3d d9db 51bd
00000340: d399 4cbd e777 3cbd f66e 99bc 7bb1 3fbd
00000350: 9a12 013d 621a bd3c 24ad a03d 59a2 ffbd
00000360: 39e0 9bbd 375a ca3c d7f9 0ebd 6791 90bb
00000370: b0ef a5bd 80bd ddbd e330 ce3d 4862 32bd
00000380: b1f5 bd3d 048c 4e3d 5702 b33d d72a cc3d
00000390: de84 6f3d af90 2d3c f1df 77bd 5e89 9abd
000003a0: 935c 833d 6881 cfbb 8d7d bd3d 4cdf 1dbd
000003b0: 6b9a 76bb 094f 36bd 348a 153d f948 a43d
000003c0: 15ed de3d fedf 44bd 1236 16bc 0660 b5bd
000003d0: 6b74 2f3d 2b43 9f3d 44f6 933d 525d b13d
000003e0: eb55 943d 1f9a 13ba 7386 523d 918d 32bc
000003f0: 346f 973d 5bdc 383b 7a63 cebd 65ba d7bc
0.069832906 0.035455853 -0.016363978 -0.056042377 0.017199796 -0.016038971 0.048306692 0.068152666
0.033241924 -0.06585212 -0.031628236 -0.010785775 -0.038323347 0.068972394 -0.03901388 -0.07123812
0.067575194 -0.036163725 -0.070903055 0.042532872 0.049147382 -0.06409252 -0.028630586 -0.08104346
-0.01563979 0.049909994 -0.06508305 0.078426905 -0.079112016 0.09022902 0.033892002 -0.0863481
0.033320416 -0.07135145 0.100487314 -0.053057484 -0.015614156 0.086809814 0.07815416 0.08007921
-0.046558812 -0.096378185 -0.06901874 -0.014778614 -0.02021185 -0.07059235 0.0918483 -0.08434677
-0.013953236 0.06202968 -0.074264884 0.07811506 -0.018037383 -0.07995533 -0.07625273 -0.016434507
-0.007402701 -0.012452733 0.041063733 -0.05847591 0.017437642 0.095296495 0.081999786 0.016851755
-0.067511566 -0.01931642 0.03890245 0.005964319 -0.021015216 0.025119644 -0.076833114 -0.06703758
-0.003774805 -0.033994514 0.026550647 0.048133112 0.015609667 0.06767824 0.03273514 -0.0022896936
-0.025079234 -0.07473252 0.009019388 -0.05158476 -0.09091034 -0.0482701 -0.009495993 0.05195054
-0.036704995 0.032893103 0.04690345 -0.03502019 0.0053802556 0.050836597 0.0755815 0.073541716
0.030904867 0.031859115 0.020118738 0.001874057 0.0147389155 0.0033028903 0.058505878 0.0023709459
-0.06367897 0.021811418 0.023227323 0.027975649 0.02729015 -0.08124036 0.038884267 0.04436007
-0.06946421 0.013002687 -0.05004224 -0.0178164 -0.048456237 -0.0642623 0.09065587 0.057705447
0.07257313 0.0032919652 -0.0160691 -0.012411498 -0.05077046 -0.042198163 -0.013325791 -0.013587876
0.078572035 0.10325057 -0.011179458 0.07874225 0.060788743 0.08503572 -0.05744854 0.08641268
-0.04000659 0.08861788 0.07347438 0.078968525 -0.0025376661 -0.021285811 0.023481404 0.06564368
-0.058985293 0.075602695 -0.05690732 -0.026012285 0.08222821 0.084182896 -0.009773474 0.10762747
0.07284217 0.03964397 0.011949694 0.07531466 0.08228978 0.09011238 -0.0001839474 -0.0304191
0.00626465 -0.04867203 -0.09442231 -0.007159504 0.03151963 -0.031347685 -0.06517922 -0.036336664
-0.08441451 0.102093026 -0.0511554 0.06935646 -5.267526e-06 -0.017961182 -0.035894718 -0.0012815545
0.053556774 0.06824553 0.08099457 0.004338173 -0.042141296 0.019610189 0.09871786 -0.039698124
-0.052047912 0.076649964 0.0645802 -0.05614929 0.013325245 0.08082126 0.061536666 -0.102446586
-0.033895623 0.027748996 -0.08136188 0.050621364 0.034493096 0.026149271 -0.09185336 0.047490723
0.064034455 0.036133558 -0.006477779 0.07805417 0.05537586 0.061509285 0.11691658 -0.051235054
-0.049951386 -0.046012785 -0.018729668 -0.046800118 0.03151188 0.02308387 0.07845524 -0.12482137
-0.076111265 0.02470122 -0.034906235 -0.0044118646 -0.081023574 -0.1082716 0.10067918 -0.04355076
0.092753775 0.050426498 0.08740681 0.099691086 0.05847632 0.010593577 -0.0605163 -0.07545732
0.064141415 -0.006332565 0.092524625 -0.03854303 -0.0037628661 -0.044508968 0.036508754 0.08021731
0.108850636 -0.048065178 -0.009168165 -0.08856206 0.042835634 0.07776483 0.07224706 0.086603776
0.0724295 -0.0005630571 0.051397752 -0.01089801 0.07394257 0.0028207514 -0.100775674 -0.026333997

fc2.bias f4 [84]
00000000: bc93 d53b 579c d1bc 1bf9 09bb a1c1 83bd
00000010: 9403 813c 53c8 083c 3d79 75bd 9e39 b83c
00000020: 4baa b73d 613a 6a3d 92e7 473c ccd6 6fbd
00000030: 511e 82bd b79f ef3c 4667 9f3c 1b32 bfbd
00000040: 619c 913d a0bf 8e3c dfb2 c73d 407e d4bc
00000050: 32be a3bb 1c04 cbbc 37ce 86bd 6067 a93d
00000060: 1635 9dbd 3ca2 013d 94b9 703d b923 833d
00000070: c218 a23d 5190 03bb 6a9b 7cbd d2fb 823d
00000080: eba3 94bd 268f 49bd 3ae9 01bd 037d 683d
00000090: 9a71 2ebd ed98 67bd 192d 323d f997 90bd
000000a0: ca57 133d de65 0f3d 61f4 ae3b 8292 90bd
000000b0: 3f86 863d adeb 97bd a69c 943d 75a9 0ebd
000000c0: 0ad2 a6bd c405 433d 952a 39bc bd00 7a3c
000000d0: f195 f8bc 9d16 6bbd 6ff8 77bc ad78 7dbd
000000e0: 4c31 7cbd 4966 18bd 9431 5d3d b451 983a
000000f0: 9b6b 1a3d d3aa 473d df9a b13d 2673 b6bb
00000100: 4651 fd3c 3d7a 36bd 8db9 ad3d d8c4 a43d
00000110: ad2c b33d ffa9 83bb 53ec 8abd 0708 a93c
00000120: a669 8a3d e313 d73c e837 0c3d 8930 c33b
00000130: 9411 2b3c d5af 603d fd6d b63d 259d aa3d
00000140: 1e85 b93c c154 61bd f43f 1bbd 1aec adbb
0.0065178555 -0.025587244 -0.002105302 -0.06433416 0.015748776 0.008348542 -0.059930075 0.022488412
0.08968028 0.05718458 0.012201207 -0.058554456 -0.06353439 0.029250963 0.019458424 -0.09335729
0.07109905 0.017425358 0.09750914 -0.025939107 -0.0049970383 -0.024782233 -0.06582301 0.0827167
-0.07676141 0.03164886 0.05877073 0.06403298 0.079148784 -0.0020075033 -0.061671652 0.06395687
-0.07257827 -0.049208783 -0.031716563 0.056759845 -0.042588808 -0.056542326 0.04350004 -0.070602365
0.035972394 0.035009257 0.005339191 -0.07059194 0.06568574 -0.074179985 0.07256441 -0.034829576
-0.081455305 0.04761292 -0.011301656 0.015258965 -0.030344935 -0.057394613 -0.015134915 -0.061882664
-0.06157045 -0.03720692 0.05400236 0.0011621029 0.037700277 0.048746895 0.086721174 -0.005567926
0.030922543 -0.04455017 0.08482657 0.080453575 0.087487556 -0.004018068 -0.067833565 0.02063371
0.06758432 0.0262546 0.034233004 0.0059567136 0.010441203 0.054855186 0.08907697 0.08330754
0.022646483 -0.05501247 -0.037902787 -0.0053076865

fc3.weight f4 [10, 84]
00000000: 5f8b c7bd ab9a e23d 8997 59bd 6c33 88bd
00000010: 4753 103d 8dde c0bd eb64 883d d193 21bd
00000020: d3f9 2abd fb3a 733d d7b6 043e fb49 d43c
00000030: c944 243e e69a 24be 37e8 9d3c 2411 473d
00000040: 8dd2 aabd fd24 6fbe 6cd7 0abe a11b 1cbc
00000050: 40e1 773d 738f f43d 01f7 043c ad81 9ebc
00000060: 4091 503d 25a6 2a3e 5a14 69bb 6461 7ebe
00000070: 2ef9 513e af51 19bd 0bb6 be3c aa68 243d
00000080: 9324 af3d b2b7 243d 9857 6f3d 4155 e3bd
00000090: 2168 96bd bce1 c5bd 3c7c 49bd ca93 01be
000000a0: ff49 b0bc f583 a5bd 113a 323e ec31 bebd
000000b0: 0518 933d 80f9 fbbc f26e 433e 5506 ab3d
000000c0: d78c 243e 99b3 453d 5500 9ebd 91ec 883d
000000d0: e5ef 27bc 6c2c e4bd 2c9f 4abd 5993 fdbd
000000e0: af5e 933d b876 dd3d c80d 803d 2126 86bd
000000f0: 457a 18bb 3031 c5bd 62bc ec3c fdc5 88bd
00000100: d457 b03d 41d2 86bd e5d3 e1bd 3b04 813d
00000110: 94d3 733d 8d5b 0abd 3571 8e3d 9253 12be
00000120: b0af 5f3e 2901 e7bd 7212 ad3d 428e 7f3d
00000130: 27b4 96bd 4e59 e6bd 96aa 1cbe 29d1 263d
00000140: 3682 1abd 431a 86bd eaed ea3d 932a be3d
00000150: a25d 31bd a337 d93d 6748 7fbd 6c45 cbbd
00000160: b655 253d e61d 80bd 0f01 473d 92ef d43d
00000170: 7fbe 093e 0a55 bb3d 3108 af3c d08e a43d
00000180: 0adf 67bd b104 2e3d 02ab b1bd c1e4 933d
00000190: e9d3 7abd 4abd 303e c2a3 653e 915e a13d
000001a0: fc1c 65bb a9eb fe3d 6248 24bd 82bc 85bd
000001b0: 799b a43c ee54 b7bd d47e 9dbc e4fa 123e
000001c0: 68c3 093d 7960 6bbd 5523 d0bd 43fd f23d
000001d0: 5f4c 3cbd 60c2 513b 130f de3d 5893 14be
000001e0: d3bb 053d 0426 c73d 1ab4 403d 4f28 a4bd
000001f0: b878 1f3e 2636 4bbd 23f2 88be f03a 953d
00000200: f1be ecbd 2c42 ccbd 16aa f93c 31e3 3bbd
00000210: fc5f b4bd cc32 1c3d 4c06 29b9 da81 4bbd
00000220: 36d8 b83d 0d23 86bd 8158 97bd a233 0c3d
00000230: 54ca bf3c 2a0b dabd ce53 9cbd b246 17be
00000240: 4914 223e 27d6 f0bc 36ef 95bd d366 62be
00000250: 2608 19be d7cd eabd 5305 9c3d 00ef 473d
00000260: 6001 423d 7e94 9fbc 4614 c7bc 3ff5 fb3d
00000270: 47c7 bb3d d9ef b23d 50a1 cdbd c927 9e3d
00000280: b6cd 86bd f764 693e e22c e83b 76f7 c8bd
00000290: ece0 7a3d c52a c63b ed5f a33d 437e fcbd
000002a0: 529d ea3d 3c58 183e 568f 1b3c ffb8 07bd
000002b0: 7369 343e 061d 193c b9af 993d 084b 823c
000002c0: 960b 32be e0bd 373d e125 69bd 2e81 bb3d
000002d0: ff70 14bd 09a7 6e3e 7183 4d3d e370 c5bd
000002e0: a4a9 febd 5351 803d 05a1 25bd 7c85 e4bd
000002f0: e9ed ea3d 107a 04be 1473 f7bd faf0 2d3e
00000300: 1df9 31bc c3a7 3d3e 46e9 9b3c f687 503b
00000310: 6703 1abe 3775 0dbc 65af f5bd cc0b e0bd
00000320: d577 8f3d 4721 da3d 7dc7 a8bd ff0b 82bd
00000330: 0651 163e daca 1fbd e457 9fbc f432 d7bd
00000340: fd7c fbbd 3bfc bc3d 0368 923d 1358 31be
00000350: c401 693c 6214 a63d 6526 103e 8a6b 7f3d
00000360: 805e 6b3d 5a2a 04bb 6352 ed3d 476d 0e3e
00000370: 31ba 753d ae63 4bbd 789e 25bc 1edb 21be
00000380: 4402 053e 4a56 803d f4b8 0d3d de27 cbbd
00000390: 812b 1b3e 8ee7 99bd 22ee 62bb 872e 0dbe
000003a0: d1dc 0b3d 1c71 363e c5e3 973d f75a 94bd
000003b0: e6c8 da3d efd2 6d3c 8ff4 f33c 5fbe aa3d
000003c0: c1fb 67bd 6da7 40be a9ce 83bd e988 e2bd
000003d0: 304d 2d3d d874 ffbd 95c9 4e3e 4597 8d3d
000003e0: f3a4 883d be46 e1bb f800 e63d fb01 81bd
000003f0: b20b c5bd 433b dcbd 8c3f b5bc 5792 80bc
-0.0974338 0.11064657 -0.05312303 -0.06650433 0.03523567 -0.09417448 0.066598736 -0.03944761
-0.041742157 0.05938242 0.12960373 0.025914183 0.16041864 -0.16074714 0.019275768 0.04860033
-0.083409406 -0.23353954 -0.1355874 -0.009528072 0.06051755 0.11941423 0.008115531 -0.019348944
0.05091977 0.16664942 -0.003556511 -0.24841839 0.20505211 -0.037431415 0.023280164 0.040138878
0.08551898 0.040214248 0.058433145 -0.11100245 -0.0734408 -0.09662196 -0.049190745 -0.12654033
-0.02151966 -0.080818094 0.17404963 -0.092868656 0.07182316 -0.03075862 0.19085291 0.08350817
0.16069351 0.04826698 -0.07714907 0.066857465 -0.010250066 -0.11141285 -0.049468204 -0.1238162
0.07195794 0.108136594 0.062526286 -0.06550241 -0.0023266238 -0.096285224 0.028898422 -0.06678388
0.08610502 -0.065830715 -0.11026744 0.06299635 0.05952795 -0.033778716 0.06955186 -0.14289692
0.21844363 -0.11279518 0.08450784 0.062391527 -0.0735858 -0.11247502 -0.15299448 0.040726814
-0.037721835 -0.06547978 0.1147116 0.09285464 -0.043302186 0.10606315 -0.062324908 -0.099253505
0.040364943 -0.06255703 0.048584994 0.10397257 0.13451575 0.09147079 0.02136621 0.08035052
-0.05660919 0.042484943 -0.08675195 0.07221366 -0.06123725 0.17259708 0.2242575 0.07879365
-0.0034959903 0.12447292 -0.040108092 -0.06530096 0.020093666 -0.08951746 -0.019225515 0.1435352
0.03363362 -0.05746505 -0.10162989 0.11864712 -0.04597127 0.0032006726 0.10842719 -0.14509332
0.032649826 0.09724048 0.04704676 -0.08015501 0.15573394 -0.049612187 -0.26747236 0.07286632
-0.11559857 -0.09973559 0.030476611 -0.045870963 -0.0880737 0.03813438 -0.00016119442 -0.049684383
0.09025614 -0.06549654 -0.07389928 0.03422893 0.023411907 -0.106466606 -0.07633172 -0.14773062
0.1582805 -0.02939899 -0.073210165 -0.22109537 -0.14944515 -0.11465042 0.07618203 0.048811913
0.047364593 -0.019479986 -0.02430166 0.12302636 0.091688685 0.087371536 -0.100405335 0.07722432
-0.06582205 0.22792421 0.0070854286 -0.098128244 0.06124966 0.006047579 0.07977281 -0.1232877
0.11455788 0.14877409 0.009494623 -0.03313541 0.1761835 0.009345299 0.075042196 0.015904918
-0.17387232 0.044858813 -0.05692089 0.091554984 -0.036240574 0.23305906 0.05017418 -0.09640672
-0.124347 0.06265511 -0.040436763 -0.111582726 0.11471159 -0.12937188 -0.12082496 0.16986457
-0.010862616 0.18521027 0.019032132 0.003181932 -0.1504036 -0.008633903 -0.119963445 -0.1093975
0.07005278 0.106508784 -0.08241174 -0.06349944 0.14679345 -0.039011814 -0.01945109 -0.105077654
-0.12279699 0.09227797 0.07148745 -0.17318754 0.014221612 0.081093565 0.14077146 0.062358417
0.05746317 -0.0020166845 0.1158798 0.13908873 0.05999202 -0.04965561 -0.010108583 -0.15806243
0.12989146 0.06266458 0.034600213 -0.099197134 0.15153314 -0.07514869 -0.0034626801 -0.1378728
0.034146134 0.17816585 0.074164905 -0.07243913 0.106828496 0.0145156225 0.0297797 0.08337092
-0.056636576 -0.18813868 -0.06435902 -0.1106127 0.04230994 -0.12473458 0.20194085 0.06913618
0.066720866 -0.006874888 0.112306535 -0.06299206 -0.09621371 -0.10753491 -0.022125028 -0.01569478

fc3.bias f4 [10]
00000000: 6a7e f1bd 2f1c a8bc 8392 bebc 9724 433d
00000010: f6c7 b93d 77b2 663d 2261 60bd a7a3 babc
00000020: 86e3 6fbc 4449 c83b
-0.1179169 -0.020521251 -0.023263222 0.047642317 0.09071343 0.05632254 -0.054780133 -0.022783114
-0.014641648 0.0061122496
