PyCharmWorkshop/AI/Projects/Project3/checkpoints/LeNet5/epoch-6.pth (torch, 243143 bytes, 10 tensors)

conv1.weight f4 [6, 1, 3, 3]
000000 b1 fe ca 3e 49 74 aa 3d 6e 94 2f 3e 35 54 03 be
       0.3964744 0.08322961 0.17146465 -0.12825091
000010 56 50 86 3e 58 8d 65 be 05 0b 39 3e 76 db e6 3e
       0.26233166 -0.224172 0.1807061 0.4508931
000020 0c cf 63 be 9a 95 dd 3d 48 48 eb 3e 6f 3a fa bd
       -0.22246951 0.1081955 0.45953584 -0.122181766
000030 30 12 e6 3e b8 b0 f6 3e aa 78 ac 3b a1 11 4d 3d
       0.4493575 0.481817 0.0052634077 0.05006564
000040 e9 bd 01 3e 36 5a c8 3e 34 d6 85 be 0c 11 5e be
       0.12670101 0.39131325 -0.26139987 -0.2168619
000050 09 8f a6 bc 9c 19 b0 3d d6 91 92 3e 8b 21 ef 3d
       -0.020331876 0.085986346 0.2862689 0.1167632
000060 a9 86 91 3e 41 10 c5 3d 5f 8f bc 3e c1 53 a2 3c
       0.2842305 0.09622241 0.36828133 0.019815328
000070 09 fe 10 3f fa 64 25 3f 77 7d 40 3f 34 ef cf 3e
       0.56637627 0.64607203 0.75191444 0.40612185
000080 b6 55 da 3e 40 7e 1f 3f 10 2e 37 3e 6c 6b 89 be
       0.42643517 0.6230202 0.17888665 -0.2683977
000090 30 de fd 3e 3f fa 67 3e 31 77 7b be bf 6c ae 3e
       0.49583578 0.22654055 -0.24557187 0.34067342
0000a0 23 3e 43 3f e9 60 18 3e 2b 9e 34 3f d4 93 51 3f
       0.7626669 0.14880718 0.70553845 0.8186619
0000b0 5f 0b a2 3e f5 5c b0 3e 16 5c 93 bd 3a 1b 0a 3f
       0.316493 0.3444592 -0.071952984 0.53947794
0000c0 fb 55 00 3f 98 6b 27 be 4f 9b fe 3e 63 31 8b 3e
       0.50131196 -0.16349638 0.49727866 0.27186117
0000d0 96 8b b7 be f0 b0 ad be
       -0.35848683 -0.33924055

conv1.bias f4 [6]
000000 45 bb 71 3e 88 9e 09 be 05 64 7b be 58 ee e5 3e
       0.23606594 -0.13439381 -0.24549873 0.44908404
000010 1f 16 a4 3e 03 9c 03 3e
       0.32048127 0.12852482

conv2.weight f4 [16, 6, 3, 3]
000000 17 f8 0a 3e f1 64 2d 3d 84 fe 07 3d bc c9 e4 ba
       0.13571201 0.042332593 0.03320171 -0.0017455141
000010 e1 e6 8d bc 65 8f f5 3d 23 6b 71 3c 26 a2 c0 3d
       -0.017322006 0.11990241 0.014735016 0.09405927
000020 50 85 f0 3d 30 01 87 bc 68 43 0f be 5d 2d f4 bc
       0.11744177 -0.016480058 -0.13990557 -0.029806787
000030 2b f6 c4 bc b1 9f 1f be 72 2a 10 3e df 70 c5 bd
       -0.024043163 -0.15588261 0.14078692 -0.09640669
000040 aa 18 e0 bd 52 f2 82 bd 1c 4e ee 3d 5f 5e 18 be
       -0.10942204 -0.06393875 0.11635992 -0.1487975
000050 45 e5 96 bd 23 a8 99 bd 41 b2 b9 3d 0b d6 2d 3e
       -0.073679484 -0.07502773 0.09067202 0.16976182
000060 8d d0 dc bc ae 23 f5 3c eb db ed 3d 70 b7 82 3d
       -0.026954914 0.02992424 0.11614212 0.06382644
000070 e9 9c 07 be 73 e3 33 be 59 a8 bc 3d 27 d0 af bd
       -0.1324345 -0.17567234 0.09211797 -0.08584624
000080 e5 3f 5b 3e 21 98 01 be 1f 91 05 3e ef 43 14 3e
       0.21411093 -0.12655689 0.1304364 0.1447904
000090 95 6c 93 3d d7 08 21 bd 6f 26 03 be 74 69 c9 bd
       0.07198445 -0.03931507 -0.1280763 -0.09834567
0000a0 5a f3 27 be ea 14 e0 bc 4b cc b0 3d cf 33 a2 bb
       -0.16401425 -0.027353723 0.08632716 -0.0049500237
0000b0 bc ba 5e bc 42 87 3f 3c 4e d7 81 bc 59 e1 1d 3c
       -0.013594326 0.011689963 -0.015849736 0.009636247
0000c0 5d 29 e1 3d 5a 58 a3 bd dd d6 f1 3d 16 d9 fe bd
       0.109942175 -0.07975836 0.1180856 -0.124437496
0000d0 03 0f 8b bd 17 81 02 3e a0 a4 5b 3e 49 42 14 3e
       -0.06789973 0.12744556 0.21449518 0.14478411
0000e0 67 11 6f bd f8 45 f6 3b 3c 9e 5c bc bd 95 de 3d
       -0.058366206 0.007515665 -0.01346546 0.10868404
0000f0 58 7c 0b 3e f0 ff ad 3d 53 ef 00 be 0c e1 81 bd
       0.13621652 0.08496082 -0.12591295 -0.063417524
000100 e9 df aa bd 01 38 e1 bd 44 8d 3e 3e e2 7c 7f 3d
       -0.08343489 -0.1099701 0.18608576 0.062374957
000110 3d a9 16 be 51 a8 1a 3e 4e 62 c4 3c ea 9f 08 3e
       -0.14712997 0.1510327 0.023972657 0.13342252
000120 36 14 cd bc bf a4 11 be f3 3f bc bd 92 bb c0 bd
       -0.025034051 -0.14223002 -0.09191885 -0.09410776
000130 f0 51 cc bc f1 33 b4 bd f2 31 be bd b3 28 5d bd
       -0.024941415 -0.087989695 -0.0928687 -0.053993892
000140 7c 9d 05 3e a3 09 69 3e cd f4 ed bd 53 96 a0 be
       0.13048357 0.22757582 -0.11618958 -0.31364688
000150 b4 99 eb 3d 46 55 94 3d 7c d5 83 bd 16 4a 58 bd
       0.11503926 0.07242827 -0.06437203 -0.05280503
000160 24 ce 17 3e 9b 50 a8 3c 51 6e 8f 3e 33 11 22 3c
       0.1482473 0.020546248 0.28013852 0.009891796
000170 1f 79 94 be 69 75 51 3e 7e fe 12 3d 76 be 8d bd
       -0.28998658 0.20454945 0.035887234 -0.06921093
000180 03 41 94 3e 8d da 9a 3e 8b 4c a3 3d fe 92 b3 bd
       0.2895585 0.30244866 0.07973584 -0.08768271
000190 e4 a6 a8 3c 95 cb 45 bd 66 00 a4 3d 7b b0 38 3d
       0.020587392 -0.048289854 0.080078885 0.04509018
0001a0 81 0b 8d bd 9d ce 5e 3d 95 74 14 3e 51 82 2c 3e
       -0.0688696 0.05439626 0.14497598 0.16846587
0001b0 5d aa 03 be 14 df c5 3d dd 34 ab bb 4a d2 22 bd
       -0.12857957 0.096616894 -0.0052248077 -0.03975133
0001c0 a0 7c 86 bd f4 c8 12 3c 86 7b 0a bd 79 ac 16 3e
       -0.06566739 0.008959044 -0.033809207 0.1471423
0001d0 23 4c 8c 3c b8 2c 16 be 0e 45 ae bb a0 27 32 3d
       0.017126149 -0.14665496 -0.0053182906 0.04349482
0001e0 4b 38 de bd c7 ed f5 3d 20 ad 82 bc 73 3f e7 bd
       -0.10850581 0.12008243 -0.015951693 -0.11291399
0001f0 5c 58 6f bc 2c ed 91 bd 78 e2 a6 bc 38 90 a0 3d
       -0.014608469 -0.07125315 -0.02037166 0.078400075
000200 d7 29 02 be ca 7b e5 3d 11 b0 9a 3d 8a d5 d8 bd
       -0.12711273 0.112052515 0.07553113 -0.10587604
000210 d1 1b 9d 3d a4 87 76 bc 73 63 ac bd c0 f7 15 be
       0.07671321 -0.015046988 -0.08417406 -0.1464529
000220 fc 33 95 3d a6 f3 95 bc f4 2e 3e bd 52 d0 41 3d
       0.07285306 -0.018304657 -0.046431497 0.04731781
000230 3c 2e 3d 3e 84 c4 d8 bd a3 d9 23 3e 8c a6 8a bd
       0.18474668 -0.105843574 0.1600099 -0.067700475
000240 9a 97 54 be 97 27 a1 3d f8 f8 c8 3d 02 ed 5e be
       -0.20760956 0.07868879 0.09813112 -0.21770099
000250 d6 5d 18 3e 5b 03 e4 bc 33 9b aa 3d 91 19 75 3e
       0.14879546 -0.027833631 0.08330383 0.23935534
000260 49 48 17 3e d6 ba 07 be 6c f4 c9 3d 02 55 35 3d
       0.14773668 -0.13254866 0.09861073 0.044270523
000270 14 c0 96 3c 06 7f b1 3d 60 22 46 3b 8a 47 ce bd
       0.018402137 0.08666806 0.0030232891 -0.10072239
000280 7d f2 3f 3d fa e3 08 3e e2 2b b5 3d 99 53 ba 3d
       0.046862114 0.13368216 0.088462606 0.09097976
000290 4a 6c 03 3e 66 6a eb 3d e1 83 08 3e 8d 19 74 3c
       0.12834278 0.11494903 0.13331558 0.01489867
0002a0 92 b6 03 be 2d 67 fa 3c c1 5d fd ba 70 39 a1 3d
       -0.12862614 0.030566776 -0.0019330309 0.078722835
0002b0 bb 69 55 bd 40 2c c2 3d bc 6b 18 bd 87 ed f5 3b
       -0.052102786 0.09481096 -0.03721212 0.007505122
0002c0 61 72 bd 3c ba 53 bd 3d 22 a6 88 3c 1f 92 e4 3d
       0.02312583 0.09244485 0.01668078 0.11160683
0002d0 6d 8c 99 bd 77 92 d3 bd a1 4e f9 bd 87 96 cd bc
       -0.07497487 -0.1033067 -0.121732004 -0.025096191
0002e0 d1 57 9b 3d 67 e3 24 bc c4 b3 dc 3d c1 07 b9 3c
       0.07585109 -0.010063983 0.10776475 0.022586705
0002f0 bd 86 11 bd 6d 10 e1 3d 26 a2 5e 3c 1f 52 a3 3c
       -0.035528887 0.10989461 0.013588464 0.01993662
000300 91 15 0c be 3b 3a b6 3c 5b 60 e1 bd 57 64 9d bc
       -0.13680102 0.022244563 -0.110047065 -0.019212885
000310 ce 7c 09 3e 33 da e0 bd bc eb c6 3d 2e ca d3 3c
       0.13426515 -0.10979118 0.097129315 0.025853243
000320 4c 70 a9 3d 3c 32 38 bc 89 a9 15 3e 81 79 26 3e
       0.08273372 -0.011242446 0.14615454 0.16257288
000330 6c 94 97 3d 82 a8 ea 39 63 79 81 3d 32 f0 b7 bd
       0.07401356 0.00044757506 0.06321981 -0.089813605
000340 30 02 d9 bd a1 73 90 3d 99 2a 00 be df e5 b0 3d
       -0.1059612 0.070533045 -0.1251625 0.086375944
000350 c3 51 50 3d d9 16 11 be 84 5e 6f bc c0 e4 c1 bd
       0.050859224 -0.14168872 -0.014609937 -0.09467459
000360 39 b4 89 bc 8d 77 38 3d ea 1b b5 3c c7 fc cb 3d
       -0.01680957 0.045035888 0.022108037 0.09960323
000370 61 50 35 3e 11 c3 64 3d 5b 12 83 bd c5 e1 f1 3c
       0.17706443 0.055850092 -0.063999854 0.0295266
000380 e1 d1 96 3c c7 55 ac bd 92 da c3 3d e6 1a fa 3d
       0.018410625 -0.08414798 0.09563173 0.12212162
000390 ed 50 74 bd 03 e9 06 bd cd 5b 4b bd d3 c2 4b 3e
       -0.05964749 -0.03293706 -0.049648095 0.19898538
0003a0 c7 25 20 3d f9 d1 4c 3d 57 74 41 bc 53 4e 84 bd
       0.039098527 0.050004933 -0.011807523 -0.06460252
0003b0 b3 7f 09 3d 9a 7f 4f 3d 97 5d 0b 3d 39 53 ed 3c
       0.03356905 0.0506588 0.0340248 0.028970348
0003c0 d5 5d f6 3d 5d 79 15 bd b3 20 cb 3d cd 42 48 bd
       0.12029616 -0.036492694 0.09918346 -0.04889183
0003d0 c4 87 82 3e d4 ef d1 3d 41 69 63 3e c5 40 c2 bc
       0.25494206 0.10250822 0.2220812 -0.023712525
0003e0 10 60 27 3d c7 1a 35 3d d0 42 dc bc 17 00 d6 bc
       0.040863097 0.04421499 -0.026887327 -0.02612309
0003f0 48 d7 7e bd b6 0b 01 3e 0d 5a 2f 3e 04 bc 1d 3e
       -0.062217027 0.12602124 0.17124195 0.15403754

conv2.bias f4 [16]
000000 98 cc 5b bd 74 06 86 bd db b4 d6 38 b0 e7 a9 bc
       -0.053661913 -0.065441996 0.00010238002 -0.02074036
000010 5d c6 32 bc 10 8b 9a 3d f8 dd cf bd e9 99 ae 3c
       -0.010911551 0.07546055 -0.10149759 0.021313624
000020 b6 4e 13 3e dd 74 a1 bc e9 62 ca 3d 98 3d fc bd
       0.14385495 -0.019709045 0.09882147 -0.123164356
000030 1d ec d2 bd 8e ac 8e b9 5b 60 78 3c 40 5d 26 bc
       -0.10298941 -0.00027212914 0.015159692 -0.0101540685

fc1.weight f4 [120, 400]
000000 2e 58 7e bc 1e c6 0a bd f0 30 c4 bc ff b0 c7 3c
       -0.015523953 -0.033880346 -0.023949116 0.02437639
000010 9b a6 4b 3d 65 db 59 bd a5 a0 7d bb dc 05 af 3b
       0.049719434 -0.053187747 -0.0038700488 0.0053412747
000020 e5 8a b3 3c 6c 44 82 39 1c 40 2e 3d 10 8e 27 3d
       0.021916816 0.0002484651 0.04254161 0.040906966
000030 ae e9 9e 3a 31 87 4a bd 92 bf 7d 3c 18 dc db 3c
       0.0012124085 -0.049445335 0.015487568 0.026838347
000040 7c 3e 99 bc 52 98 7c bd 44 76 a0 3c fa c9 e1 3c
       -0.018706553 -0.0616687 0.019587643 0.02756213
000050 66 8e c6 3b 64 03 b9 3b ff c0 08 bc f6 8e 31 bc
       0.0060594557 0.005646156 -0.008346795 -0.010837307
000060 1e 7d 3e bd aa 78 27 3d 8b 62 8c 3c 1f e6 5c bd
       -0.04650604 0.04088656 0.017136833 -0.053930398
000070 76 a2 c5 bc 9c 50 20 3c 41 cf 22 bd e8 a5 b5 bc
       -0.024125319 0.009784844 -0.039748434 -0.022173837
000080 92 9c bc 3c c6 27 35 3d 3e ef ec bc 8a 3f b3 3c
       0.023023877 0.044227384 -0.028922673 0.021880884
000090 b5 fd 7f 3c d7 fc 78 3d a3 ab 86 3b c5 6f 90 bc
       0.015624453 0.060788002 0.004109816 -0.01763142
0000a0 b8 c0 f9 3b bf 20 a6 3c 3a 30 c5 3b c5 b4 7c 3d
       0.007621851 0.020279286 0.006017712 0.061695833
0000b0 a5 2c 6b 3d c1 f9 32 bd 3d 20 2f bd 8b 47 2f bd
       0.057415623 -0.043695215 -0.042755354 -0.042792838
0000c0 d9 62 85 bd 8b 45 4f bc 59 9e 2f 3d a2 fc 5f 3c
       -0.06512994 -0.012650858 0.04287562 0.013671072
0000d0 8b 99 e3 bb 3e 29 e3 3c a9 e7 c7 b9 3b 29 24 bd
       -0.006945794 0.027729627 -0.00038128838 -0.040078383
0000e0 9c f7 12 3d 00 81 b4 bc c5 b3 59 3d da 35 4e bb
       0.03588067 -0.022034168 0.053149957 -0.0031465204
0000f0 86 7a c8 3c 13 02 27 bd 24 f4 42 bd 17 4f 80 3d
       0.024472486 -0.040773463 -0.047596112 0.06265085
000100 75 dd d8 bc c4 c9 5d 3c 54 a4 11 bd c0 37 0b 3a
       -0.026472786 0.013536874 -0.035557106 0.00053107366
000110 cc 08 dc bc 35 76 ac bc 0f 09 f7 bc 1a ba 5a bd
       -0.026859663 -0.02105246 -0.030155687 -0.053400137
000120 15 d4 43 3c 7c 71 93 bc 72 77 84 bc f0 0a d2 3c
       0.01195242 -0.01799845 -0.016170237 0.025639981
000130 d5 fa e4 3c 15 c2 0f bd 03 f3 e1 3c 76 64 e4 3c
       0.027951637 -0.0350972 0.027581697 0.027879935
000140 be 50 0f bd 44 a2 bc ba 9e 9c 2b 3d 6c 37 c1 bb
       -0.03498911 -0.0014391621 0.04189741 -0.0058964994
000150 bb 30 a6 bc 26 05 13 3d 7e a6 2d bd ea 0b fa 3c
       -0.020286908 0.03589358 -0.042395107 0.03052326
000160 64 cf a7 bc 34 3a 0c 3c 5c 24 7a bc b3 0c 99 3a
       -0.020484634 0.008558799 -0.015267458 0.0011676758
000170 0e 7e 70 3b b2 a0 2f 3d fe 8f 83 ba 0b 0e 27 bc
       0.0036696228 0.04287786 -0.001003742 -0.010196219
000180 4b 27 3e bb ef 06 9e 3c ed f6 dd bc b9 43 d9 bb
       -0.002901512 0.019290416 -0.027095282 -0.0066303876
000190 2e 05 c9 bc 06 ec 02 bd a8 f8 c4 3c ab 56 e1 bb
       -0.024538603 -0.03196337 0.02404435 -0.0068767867
0001a0 a0 b7 68 bd 06 a5 21 bd 83 0a 39 bd 1b c3 8a bc
       -0.056815743 -0.03946402 -0.04517604 -0.016938737
0001b0 89 f1 05 3c d8 2c b2 3a 18 6d 64 bd d4 4e 05 3b
       0.008175262 0.0013593687 -0.055768102 0.0020341175
0001c0 0d c4 9b 3b d9 c7 7a bc dd 2d a6 3c f8 bd ed 3c
       0.0047535957 -0.015306436 0.020285541 0.029021248
0001d0 82 c2 38 3d ce c4 0c bd 37 8b b9 bc 88 92 3d bd
       0.045107372 -0.034367375 -0.02264939 -0.04628232
0001e0 90 d0 25 3d 63 d2 e9 3b fa 92 c4 bc 3f dc 4d bd
       0.040482104 0.0071356758 -0.023995865 -0.05025887
0001f0 5d df 3e 3d 53 20 d7 3c b8 03 53 3c 44 de c9 bb
       0.046599735 0.02626053 0.012879305 -0.0061605293
000200 9e fb cd ba b5 3c e2 b9 f3 cd 1a bd 86 1f d6 3c
       -0.0015715247 -0.0004315131 -0.037794065 0.026138078
000210 e8 0d 18 3d d7 50 69 3d c7 3c 19 bd a1 24 9b 3c
       0.037122637 0.05696186 -0.037411477 0.018938364
000220 c1 39 2f bc a3 ec 14 3c 58 43 40 3d 54 c0 91 bc
       -0.010694922 0.009089622 0.046939224 -0.017791905
000230 53 e1 65 3d bd e5 14 3d 5f 8f 0d 3d a4 99 64 3c
       0.05612309 0.036351908 0.034560557 0.013952646
000240 58 2c ee b9 f1 4c 47 3d fc 6b 0a bd a7 72 c3 3c
       -0.00045427936 0.04865736 -0.03379439 0.023858381
000250 25 f8 5e 3d 3b 6d 32 3d 40 38 29 3d 7e 7c 2d 3c
       0.054435868 0.0435612 0.04131341 0.010588763
000260 ee 7d a7 bc 15 30 0c bc 72 1b 74 bc 00 ab e7 bc
       -0.02044579 -0.0085563855 -0.014899122 -0.028279781
000270 43 56 6c 3b 70 10 39 3c ae d9 05 bc 18 43 11 3d
       0.0036062158 0.011295423 -0.008169575 0.035464376
000280 eb 0e 35 bd 24 66 44 bc fd e3 c7 bc 1b 50 e8 bc
       -0.04420368 -0.011987243 -0.024400705 -0.02835851
000290 d5 aa 27 bd fd 82 c0 3c 81 92 a6 3b cd 59 06 bc
       -0.040934402 0.02349996 0.0050833826 -0.008200121
0002a0 28 f1 58 3d 08 a6 8b bc 36 41 01 3c 9a 00 3a bd
       0.05296436 -0.017046943 0.007889083 -0.04541073
0002b0 06 f9 10 3c a3 12 1a 3d b9 cb 40 3d 4a cc 0a 3d
       0.008848434 0.03761543 0.047069285 0.03388623
0002c0 e2 f0 40 bd 02 31 41 3d 4f 95 06 bc fe c8 23 3a
       -0.047104724 0.047165878 -0.008214309 0.0006247907
0002d0 49 d1 cb 3c 67 ec 11 3b ca 61 4e bd 87 42 19 bb
       0.024880068 0.002226615 -0.050386228 -0.00233856
0002e0 e5 da 29 3d bb de 9c 3c 09 a4 de 3c d6 5c 72 3d
       0.04146852 0.019149175 0.027177827 0.059170566
0002f0 d6 e4 13 3d 5f bd 95 3c 7b 64 3c 3d b9 ce 58 3c
       0.036106907 0.018278776 0.045994263 0.01323288
000300 b8 89 e8 3b 02 76 32 3c 98 03 0a bd 4a 5c 55 bd
       0.0070964955 0.010892393 -0.033694834 -0.052089967
000310 8f 6f 16 bd 44 00 da bb e5 d3 40 3b 14 e7 f0 bc
       -0.036727484 -0.0066528637 0.0029423174 -0.029407062
000320 f8 b8 62 bc b3 b8 36 3d e4 92 80 bb b0 af 0f bd
       -0.013838045 0.044609737 -0.0039237607 -0.035079658
000330 ba 9e 3d bc 87 71 29 bd d2 da b0 ba a5 54 cc bc
       -0.011573488 -0.041368034 -0.0013492948 -0.024942705
000340 c7 4e 28 3d fb bf 00 bd be 73 01 bd b3 15 12 3d
       0.041090753 -0.031433087 -0.03160452 0.035665225
000350 c8 26 66 3d 6d 69 f7 bb 95 73 45 bc 12 e8 a1 3c
       0.05618933 -0.0075504095 -0.012051483 0.01976398
000360 9d 0f 23 3d 40 7c 3b bc 5c 0a 4d 3d 4a 4e 4b 3c
       0.03980981 -0.011443198 0.050058708 0.012408802
000370 fc 6f 3f bd 76 ef db bc 81 b5 40 3d 0f a9 89 bc
       -0.046737656 -0.026847582 0.047048096 -0.016804246
000380 4e 4b 80 3c f7 4b 7c bc b3 1a 84 3b 9a 5a 11 bd
       0.015660908 -0.015398971 0.004031503 -0.035486795
000390 bc 4a ad bb 27 ce 71 3c b4 9b f3 bc 0f f5 10 bd
       -0.00528845 0.014758623 -0.029737331 -0.035389956
0003a0 73 fa a6 3b da 1f fd 3c 65 10 c6 3c e6 9b 00 bc
       0.005095774 0.030898977 0.02417774 -0.007849669
0003b0 61 60 ba bc d8 08 34 bd 06 4d 33 bd db 72 89 bd
       -0.022751035 -0.043953747 -0.043774627 -0.0671136
0003c0 9e ea 32 3c c8 3e 51 3d 5c 6e f0 bc 26 33 41 3d
       0.010920195 0.051085263 -0.029349498 0.04716792
0003d0 29 1e 16 bd 03 1a 0c bd 4e ac 1d 3d ce 57 1c bd
       -0.036649857 -0.034204494 0.0384944 -0.038169675
0003e0 a2 22 9a 3c 58 8a 59 bc 7a b0 60 bd c7 48 98 3b
       0.018815342 -0.013277613 -0.0548558 0.0046473476
0003f0 4e ca 5a 3c b2 00 ce bc 44 5f 40 3d ac 56 d8 3c
       0.013353897 -0.025146816 0.046965852 0.026408516

fc1.bias f4 [120]
000000 20 bd 17 bd 75 a7 05 3d a6 31 6b 3b e7 cd 09 bd
       -0.037045598 0.032630403 0.0035887747 -0.03364363
000010 75 5f 0a 3d d4 4e 17 3c 33 dc 4b bc 1d 20 f0 bb
       0.03378244 0.009235103 -0.012442636 -0.007328047
000020 27 d7 ef 3c e2 4c da 3c 70 37 fd bc 02 c9 49 bc
       0.029277397 0.026647989 -0.030910224 -0.01231599
000030 59 71 01 3d f1 3b b6 3c 88 cb b9 bc 1d f9 d0 3a
       0.031602237 0.02224538 -0.02268006 0.0015943382
000040 5a 50 41 bc e1 fe ec 3c da 10 fe 3b 93 d9 15 bd
       -0.011798942 0.02893013 0.0077534737 -0.036584448
000050 ca 5c ee bb d5 c9 0c bd ae 3d 31 bd 46 04 bf bc
       -0.007274245 -0.03437217 -0.043271713 -0.023317467
000060 b8 55 70 3b ea d0 42 bd c6 d8 1b bd 64 76 04 3d
       0.0036672186 -0.047562517 -0.038048528 0.03233947
000070 f7 8b 11 3d 00 86 48 3c 33 b9 16 bc fe 5f 18 3d
       0.03553387 0.012238979 -0.009199428 0.03720092
000080 6b 88 23 bc fc 38 47 3d 9b 0f 06 bd 46 10 b9 ba
       -0.009981255 0.04863833 -0.032729726 -0.001411923
000090 e5 54 81 3b 89 5b 24 3d 6c 63 82 bc 07 b1 65 3c
       0.003946888 0.040126357 -0.015916549 0.014019257
0000a0 ae 17 2f bd d0 33 2a 3d 57 44 a4 bc b2 54 f2 3b
       -0.042747192 0.04155332 -0.020052118 0.0073953504
0000b0 6f c9 14 3d c3 ce 49 3d e4 c2 01 bd 1c 20 51 3d
       0.036324915 0.04926945 -0.031680003 0.051056013
0000c0 81 b8 1c bd d8 61 02 3d 1f 06 e5 3c 0f 8a b5 bb
       -0.038261894 0.031831592 0.02795702 -0.0055401395
0000d0 ad 95 13 3d e3 96 08 bd 65 6b 03 bd f5 04 13 bd
       0.036031414 -0.03334702 -0.03208484 -0.0358934
0000e0 3c a5 59 bc 60 cc 6b bc 61 e3 2c 3b d0 4a 04 bd
       -0.013284024 -0.0143919885 0.0026380646 -0.03229791
0000f0 be ac 23 bd 37 7e 0e bb 34 bd c0 3b cf a6 99 3c
       -0.03995966 -0.002174271 0.00588193 0.018756298
000100 2d c0 3e 3d 13 74 ed bc 2c 7d 71 3b fc b0 28 bd
       0.04656999 -0.028986013 0.003684829 -0.04118441
000110 34 55 a1 bc 85 96 12 bd 71 2c 00 bd df 3f 07 bd
       -0.019693948 -0.035788078 -0.031292383 -0.033019897
000120 52 08 49 3d a9 00 4b 3c a3 b0 be bc 56 9e b7 bc
       0.0490802 0.012390294 -0.023277586 -0.022414368
000130 e4 8f 39 bd aa bf a2 bb 4a fe 78 3b 42 7a 99 3b
       -0.04530324 -0.004966696 0.0037993365 0.0046837637
000140 c2 31 02 bc 42 3e 90 bc 46 c0 1d 3d f2 65 e4 bc
       -0.0079464335 -0.017607812 0.038513444 -0.027880643
000150 be 00 20 bd e9 68 45 bd c6 b5 a3 bc a3 b5 dd 3c
       -0.039063208 -0.048195753 -0.019984137 0.02706415
000160 a0 80 9a bc 5b 0f d5 3c 21 24 0e 3c f8 6f 3c bd
       -0.018860161 0.026008299 0.008675606 -0.04600522
000170 88 f6 af 3c 40 e9 90 3c 3c 50 d5 3b 08 ee cd 3b
       0.02147986 0.017689347 0.006509809 0.006284479
000180 a6 4e 4c bd 26 bf 3b bd 3e cb 33 bd ff 4c 42 3d
       -0.049879692 -0.04583659 -0.043895 0.04743671
000190 dd 49 f0 bb e6 e1 85 3c 9d 7b e1 bc 40 60 a5 3b
       -0.007333024 0.016343068 -0.027524764 0.0050468743
0001a0 c5 e9 bb 3b d1 04 33 bd ef 17 a7 bc 6f 51 cb bb
       0.0057346546 -0.043705765 -0.020397155 -0.006204776
0001b0 20 fc 1a 3d b1 bc 25 bb b4 6b 57 3c 4f 3a 2e bd
       0.0378381 -0.002528947 0.013148237 -0.042536076
0001c0 e4 88 ec bc 8a f8 a9 3c 77 ab ae bc f9 17 eb 3c
       -0.028873868 0.020748395 -0.021321995 0.028697954
0001d0 a2 22 99 3b 51 3a 24 bc 99 58 d9 3c a8 82 2d 3d
       0.004673318 -0.010023669 0.026531504 0.04236093

fc2.weight f4 [84, 120]
000000 eb 56 8c 3d 43 da 17 3d 15 b5 72 bc a1 5f 5d bd
       0.06852516 0.037073385 -0.014813681 -0.054046277
000010 45 f9 82 3c 1d 33 84 bc 1f fd 3f 3d 40 e4 8c 3d
       0.015988002 -0.016137654 0.046872254 0.06879473
000020 21 73 17 3d e9 1b 86 bd 5c 52 fa bc 92 da 32 bc
       0.03697503 -0.06548292 -0.03055685 -0.010916369
000030 cb fb 1c bd 4a 41 8d 3d ad 26 09 bd a6 41 97 bd
       -0.038326066 0.068972185 -0.03348415 -0.07385568
000040 d5 49 8a 3d 16 6f fb bc 6b 51 95 bd 3b 24 43 3d
       0.067523636 -0.030692618 -0.0729092 0.047641974
000050 c1 96 49 3d 9c 45 84 bd bb 8b dc bc 4b 4e a5 bd
       0.049216036 -0.064585894 -0.026922097 -0.08071574
000060 99 df 8e bc ff b7 4c 3d d2 a1 8f bd 79 73 a1 3d
       -0.017440604 0.04998016 -0.07013287 0.07883353
000070 7d c1 a5 bd dc 16 bc 3d 80 4b 08 3d b8 b4 af bd
       -0.080935456 0.091840476 0.033275127 -0.08579391
000080 7d 1d ff 3c 1b 37 8d bd f1 a2 d7 3d 7c 49 59 bd
       0.03114199 -0.06895276 0.105291255 -0.053048596
000090 6b 1c 8b bc d5 ba b8 3d 61 f8 92 3d ef 1e a4 3d
       -0.016981324 0.090200104 0.07176281 0.080137126
0000a0 f1 ac 3e bd d1 d4 d5 bd 23 a0 92 bd 15 22 72 bc
       -0.04655165 -0.10440982 -0.0715945 -0.014778634
0000b0 2e 00 ab bc fd 19 8f bd 94 75 be 3d b2 f5 b7 bd
       -0.02087411 -0.06987379 0.0929977 -0.089824095
0000c0 81 99 3c bc 2e 99 87 3d ef ae 92 bd e8 41 9f 3d
       -0.011511208 0.066210136 -0.07162272 0.077762425
0000d0 ac ed cd bc 62 aa a5 bd 52 fd a3 bd 73 23 b0 bc
       -0.025137745 -0.080891386 -0.080073014 -0.021501279
0000e0 eb fc f1 bb ab 04 64 bc 06 d1 37 3d 2f a0 80 bd
       -0.0073848865 -0.013917129 0.044877075 -0.062805526
0000f0 e4 a9 82 3c 4a 49 c8 3d 91 7d a1 3d 17 31 4b 3c
       0.01595015 0.09779604 0.07885278 0.012401841
000100 61 43 8a bd 78 3d 9e bc a3 f2 19 3d b3 9e 8a bb
       -0.06751133 -0.01931642 0.037584912 -0.004230344
000110 c8 b6 c5 bc c3 96 ca 3c 51 d0 9d bd 33 60 84 bd
       -0.024135008 0.024730092 -0.07705749 -0.06463661
000120 ba c0 ce ba 7f c4 07 bd 05 3a f3 3c 31 f6 44 3d
       -0.001577399 -0.033146378 0.029690752 0.04808635
000130 36 3e b2 3c 8e fb 8b 3d 59 6f f8 3c ca c6 8b bb
       0.02175818 0.068350896 0.030326532 -0.004265641
000140 3d f0 d5 bc 65 77 96 bd 06 63 3a 3c 63 72 5d bd
       -0.026115531 -0.073469914 0.011376148 -0.054064166
000150 b6 5c ba bd 70 5e 46 bd 49 ee a2 bc a5 a1 54 3d
       -0.090997145 -0.048429906 -0.019889014 0.05191197
000160 bd 80 3f bd 82 5c ca 3c 9c ec 5a 3d ce 82 1e bd
       -0.046753634 0.024702314 0.053448305 -0.038698964
000170 d7 55 b3 3b 7f 06 43 3d 76 e7 9b 3d de ae 89 3d
       0.0054728794 0.047613617 0.07612507 0.067228064
000180 1a 64 fe 3c 89 9f e3 3c 82 27 97 3c 6e aa 3e b8
       0.031053592 0.027786033 0.018451456 -4.5458255e-05
000190 39 8e 66 3c db 39 fc 3b bd 11 6f 3d 2a e4 1e 3b
       0.014071994 0.0076973266 0.058366526 0.0024244883
0001a0 83 ac 82 bd 83 1f d4 3c 99 bf be 3c 47 fc 00 3d
       -0.0638056 0.025893932 0.02328472 0.03149059
0001b0 4e 5e a0 3c b4 6f ae bd 39 22 20 3d 48 d3 3c 3d
       0.019576218 -0.085173994 0.039095137 0.04609993
0001c0 f3 ac 92 bd 86 77 49 3c 2d f6 57 bd b2 a6 84 bc
       -0.07161894 0.012296563 -0.052725006 -0.016192768
0001d0 b0 6e 4a bd 25 05 82 bd 56 5f bb 3d c3 50 61 3d
       -0.049421966 -0.063486375 0.09149043 0.05500866
0001e0 db de a9 3d ab ad a9 bb de 2f 85 bc 29 61 20 bc
       0.082944594 -0.0051781735 -0.016258176 -0.00978879
0001f0 fb 8c 4b bd ec b9 2f bd 7c d5 3b bc 2c 37 5c bc
       -0.049694996 -0.04290192 -0.011464473 -0.013440888
000200 09 98 ad 3d f1 3b e1 3d fc e6 45 bb d0 87 a9 3d
       0.08476264 0.10997761 -0.0030197492 0.08277857
000210 7c 0f 79 3d 35 27 ae 3d f4 c0 50 bd c1 73 b6 3d
       0.060805783 0.08503572 -0.050965264 0.08908797
000220 0f 8a 23 bd 93 cf b9 3d cc 68 8f 3d 5b 31 a4 3d
       -0.039926585 0.09072795 0.0700241 0.08017226
000230 4f d4 46 3b 55 3e c2 bc 2d c6 ae 3c a3 11 91 3d
       0.0030338948 -0.023711363 0.021334732 0.07083442
000240 b6 7d 5a bd 0c 91 9b 3d b1 90 88 bd 0a 3d ca bc
       -0.053342544 0.07596025 -0.06668223 -0.024687309
000250 f9 52 b3 3d ec 5a b6 3d 92 a8 18 bc 88 ac ed 3d
       0.0875606 0.08904061 -0.009317534 0.11605173
000260 19 b6 92 3d 64 2e 1b 3d 80 ef 00 3c d5 b5 9a 3d
       0.071636386 0.03788604 0.007869601 0.07554213
000270 e5 53 b8 3d be c4 be 3d 4e fc a5 bb 57 e0 e9 bc
       0.090003766 0.09314869 -0.0050654775 -0.028549356
000280 e6 cb cf 3b 3a 83 53 bd 70 a1 cb bd a7 cf ea bb
       0.0063414453 -0.05163882 -0.09942901 -0.0071658674
000290 05 f4 13 3d 08 f5 af bc 8a 30 6c bd 01 52 fd bc
       0.036121387 -0.021479145 -0.057663478 -0.030922892
0002a0 62 17 b4 bd 62 13 d0 3d 7a b5 86 bd ef 13 a1 3d
       -0.087935224 0.10159947 -0.06577583 0.0786513
0002b0 c1 5e 5f ba a7 c1 ab bc 73 9d db bc b3 5c e8 ba
       -0.00085208943 -0.020966364 -0.026808476 -0.0017727822
0002c0 c5 5a 5b 3d cd a5 89 3d ea d2 af 3d b2 23 f7 3b
       0.05355336 0.06721077 0.085851505 0.007542097
0002d0 6d 45 36 bd a7 e3 a9 3c 6f 0a d1 3d 76 a2 23 bd
       -0.044499803 0.020738436 0.10207068 -0.039949857
0002e0 d6 5d 55 bd 96 fc 9c 3d fe ed 98 3d 75 ca 6c bd
       -0.052091442 0.076653644 0.074672684 -0.057810266
0002f0 1d d8 8e 3c ae b1 a4 3d 3b fe 7b 3d 90 67 e9 bd
       0.017437035 0.08041702 0.06152175 -0.11396706
000300 f7 6d 04 bd 0a 19 bf 3c e2 9d 9d bd 56 ed 51 3d
       -0.032331433 0.02332737 -0.076961294 0.05125173
000310 b3 a9 18 3d 45 d9 ab 3c 8a 21 cf bd 94 b2 4e 3d
       0.037271213 0.020977626 -0.10113819 0.050463274
000320 86 ee 8e 3d 12 dc fe 3c 28 28 74 ba 15 5b b0 3d
       0.069790885 0.031110797 -0.0009313845 0.086111225
000330 60 a7 60 3d bd f2 85 3d 79 3a 00 3e d5 f9 5e bd
       0.05484712 0.06540439 0.12522306 -0.054437477
000340 21 02 5a bd ee 46 44 bd d0 ee a8 bc c5 c9 1c bd
       -0.053224687 -0.047919206 -0.020621687 -0.03827836
000350 20 b7 fe 3c dd 3a f3 3c 55 99 a3 3d c9 20 04 be
       0.03109318 0.029691154 0.0798823 -0.12903132
000360 45 d0 9f bd 09 c1 9b 3c b7 d6 35 bd 3a 6f 50 bb
       -0.07803396 0.019012945 -0.04439422 -0.0031804577
000370 fd 07 b4 bd 5f 2f f0 bd aa fa e0 3d 14 49 34 bd
       -0.08790586 -0.11727785 0.109853104 -0.044015005
000380 fd 16 c4 3d ca 06 59 3d d0 d1 b2 3d 6d 22 c8 3d
       0.09574697 0.05298499 0.08731425 0.09772191
000390 52 7c 87 3d 05 ed af 3c 3b 64 94 bd c3 9e 9f bd
       0.06615509 0.021475324 -0.0724568 -0.07793953
0003a0 bb a8 8f 3d cf b9 4c bc b1 d1 bf 3d 8b 58 1d bd
       0.07014605 -0.012495472 0.09366167 -0.03841452
0003b0 36 ef 6a bb 06 a0 46 bd ba 8d 29 3d 1a 67 a8 3d
       -0.0035848147 -0.048492454 0.041394927 0.0822279
0003c0 e1 51 ec 3d 78 7f 46 bd 8e 49 d2 bb ea 78 b3 bd
       0.11539055 -0.048461407 -0.00641746 -0.08763297
0003d0 ad 7d 24 3d 31 8c 9e 3d f9 63 91 3d fe 15 b2 3d
       0.040158916 0.07741583 0.070991464 0.08695601
0003e0 d5 d9 98 3d 90 50 57 3b 2a 98 68 3d 87 f3 3d bc
       0.07463423 0.0032854415 0.05678574 -0.011593706
0003f0 1d 7c 97 3d 23 d9 38 3b e9 25 d5 bd 68 9e de bc
       0.073967196 0.0028205595 -0.104076214 -0.027175143

fc2.bias f4 [84]
000000 1c ff cb 3b 8b 6f df bc d3 bc 0b bb 70 c7 83 bd
       0.0062254798 -0.027274868 -0.0021322265 -0.06434524
000010 4a 5a 84 3c 38 88 0a 3c af 76 78 bd ff 0d b6 3c
       0.016156334 0.008455329 -0.06066006 0.02222347
000020 02 7c b9 3d b4 99 72 3d 7e 86 43 3c 62 06 74 bd
       0.09056856 0.059228614 0.011933921 -0.0595764
000030 bc 4a 81 bd d2 7d e8 3c df c5 9e 3c 23 7b be bd
       -0.063130826 0.028380308 0.019381462 -0.0930083
000040 ca 74 94 3d 46 2c 92 3c 34 b2 c5 3d a4 e3 d3 bc
       0.07248838 0.017843377 0.0965313 -0.025865383
000050 c4 00 b9 bb 5f ee cf bc 5d 79 82 bd ec ab a9 3d
       -0.005645843 -0.025382219 -0.063708045 0.082847446
000060 92 73 9d bd ad 30 02 3d a0 dc 7a 3d 9b 78 83 3d
       -0.07688059 0.031784702 0.06124556 0.06419488
000070 3f 27 a2 3d 3b 33 f4 ba 11 49 7c bd 56 a4 81 3d
       0.07917642 -0.001863099 -0.06159312 0.06330173
000080 57 31 93 bd aa 49 4a bd 8d b0 02 bd ae 83 6a 3d
       -0.07187145 -0.049386658 -0.031906653 0.057254486
000090 02 8e 29 bd 77 2f 65 bd c7 67 31 3d 63 d7 8e bd
       -0.041395195 -0.05595347 0.04331186 -0.069746755
0000a0 fd 89 0f 3d 67 a9 0f 3d 0a 3b de 3b 40 82 8f bd
       0.035043705 0.035073664 0.0067819403 -0.07007265
0000b0 7a 1b 87 3d 1f ea 97 bd 3b b1 92 3d 30 0c 0f bd
       0.065970376 -0.07417702 0.0716271 -0.034923732
0000c0 d5 44 a7 bd 52 74 43 3d 61 93 38 bc db bc 6c 3c
       -0.081674255 0.047718354 -0.011265607 0.0144493235
0000d0 a8 6c f9 bc 7c 1d 69 bd 9a 2c 79 bc 2d e2 7d bd
       -0.03044732 -0.056912884 -0.015208388 -0.061983276
0000e0 d0 e3 7a bd 0d 48 15 bd 81 6b 5c 3d d4 98 4c 3b
       -0.061252415 -0.036445666 0.05381346 0.0031219022
0000f0 96 23 1a 3d 7d 5b 45 3d c0 a8 b3 3d 2a ee 6d bb
       0.037631594 0.048182953 0.08772421 -0.0036305287
000100 8e 55 04 3d be e1 3b bd b5 a9 ad 3d cc 59 a6 3d
       0.032308154 -0.04586958 0.08479635 0.08122596
000110 05 d7 b5 3d d1 3a ac bb 6a e9 8a bd a1 8b ab 3c
       0.08878902 -0.005256035 -0.067828014 0.020940604
000120 44 79 88 3d d7 cf d9 3c e9 03 0a 3d bf 50 bd 3b
       0.066637546 0.026588364 0.033695135 0.005777448
000130 18 18 1c 3c cd 21 5b 3d 3e 31 b6 3d 4a e6 aa 3d
       0.009527229 0.05349903 0.08896111 0.083447054
000140 30 ab b6 3c a1 44 5b bd 41 75 1f bd 66 fe 9b bb
       0.022298425 -0.053532247 -0.03893018 -0.0047605513

fc3.weight f4 [10, 84]
000000 26 99 c2 bd fc 2d f4 3d b1 0e 61 bd e3 f4 87 bd
       -0.09501867 0.11922833 -0.05494565 -0.06638505
000010 28 79 02 3d 8f 04 be bd 8e 75 84 3d 7b fd 16 bd
       0.031853825 -0.09278213 0.06467734 -0.03686283
000020 2b 93 4b bd 04 14 3e 3d 77 82 04 3e bc fb f5 3c
       -0.049700897 0.046405807 0.12940393 0.030027263
000030 66 cc 29 3e 9f 86 2e be 85 31 9f 3c c5 9c 39 3d
       0.16581878 -0.17043541 0.019432792 0.045315523
000040 95 bf b5 bd 34 d4 72 be e4 07 06 be 8b b4 a3 bc
       -0.08874432 -0.23713762 -0.13088948 -0.01998355
000050 85 d9 81 3d 15 ca 02 3e 5d 97 6b bb 6e 23 a1 bc
       0.06340317 0.127724 -0.0035948374 -0.019670215
000060 22 3d 7c 3d 16 dc 31 3e 8b 42 c7 bc e2 12 86 be
       0.06158174 0.17369112 -0.024323722 -0.2618628
000070 62 96 67 3e 1c 8a 29 bd 95 e9 b1 3c a1 ef 7c 3d
       0.2261596 -0.041391477 0.021717826 0.061751965
000080 17 b4 a8 3d 78 f0 34 3d 2f 4a 6f 3d 94 55 03 be
       0.082374744 0.04417464 0.058420356 -0.12825614
000090 60 4b a2 bd f9 ed c3 bd 0b 9c 68 bd a4 aa 02 be
       -0.07924533 -0.09566874 -0.05678944 -0.12760407
0000a0 20 b1 44 bc c6 11 a3 bd 40 84 3c 3e 2a 60 ba bd
       -0.0120051205 -0.079623744 0.18409824 -0.09100373
0000b0 85 25 7d 3d 27 32 fc bc 97 0d 53 3e c3 04 ab 3d
       0.06180336 -0.030785633 0.20610653 0.083505176
0000c0 9b 4b 2d 3e dd 53 8a 3d 7d 43 9b bd 20 02 91 3d
       0.16923372 0.06754277 -0.07581232 0.070804834
0000d0 3e 3b 07 bb d9 64 f2 bd dc d6 53 bd 27 1d 00 be
       -0.0020634676 -0.118356414 -0.051718578 -0.1251112
0000e0 8e 2d 96 3d 09 ce ea 3d 6d 96 81 3d 58 54 8f bd
       0.073329076 0.11465079 0.063275196 -0.06998509
0000f0 24 03 dd 3b 5c 1d cd bd c1 c8 a1 3c 5d e8 8c bd
       0.006744759 -0.100153655 0.019749047 -0.06880257
000100 1d 4b 93 3d ab 60 73 bd 47 c7 e9 bd 91 a8 72 3d
       0.07192061 -0.05941836 -0.11414962 0.05924279
000110 ba 71 63 3d 42 eb 07 bd 50 79 8e 3d 16 fe 13 be
       0.05552838 -0.033183344 0.06956732 -0.14452395
000120 d9 0f 6a 3e f5 26 eb bd 39 a8 b5 3d 32 7f 72 3d
       0.22857608 -0.1148204 0.088699766 0.059203334
000130 c6 ae 99 bd cc 28 d6 bd d1 20 35 be 45 cb 5e 3d
       -0.075040385 -0.10457 -0.176883 0.05439307
000140 b8 83 2e bd 9d 80 84 bd b7 f1 02 3e 42 61 b5 3d
       -0.042606086 -0.064698435 0.1278752 0.08856441
000150 4b df 3c bd 01 c6 04 3e e5 1a 6d bd b0 45 cb bd
       -0.046111386 0.12966157 -0.057886977 -0.09925401
000160 7f 65 49 3d 69 a0 80 bd 0e 0a 55 3d c3 e9 d4 3d
       0.04916906 -0.06280596 0.052011542 0.10396149
000170 e2 1f 12 3e 6d 30 9f 3d 23 6e 02 3d e8 87 b1 3d
       0.14269975 0.07772908 0.031843316 0.086685
000180 15 9a 7b bd 99 cd 18 3d 48 ad b1 bd cf 4d 98 3d
       -0.06142624 0.03730545 -0.08675629 0.07436716
000190 d3 43 68 bd 64 fa 35 3e 97 d3 80 3e 8f 27 a3 3d
       -0.056705307 0.17771298 0.2516143 0.079665296
0001a0 ad a9 40 3c 8a d9 0c 3e 66 f7 6d bd 5e 11 53 bd
       0.011759204 0.1375486 -0.058097266 -0.051530235
0001b0 ea 11 9d 3c 7d fe bd bd 4a 43 0f bd 3e 0b 15 3e
       0.019173581 -0.092770554 -0.03497628 0.1455507
0001c0 39 0a 4f 3d d9 6d 6a bd c3 eb e5 bd 6c 8a 01 3e
       0.05054686 -0.057233665 -0.112266086 0.1265046
0001d0 d6 25 00 bd 60 b5 4d 3b b5 1c de 3d 78 d8 17 be
       -0.031286083 0.0031388626 0.10845319 -0.1482867
0001e0 84 79 03 3d 2a f0 99 3d 89 d6 3a 3d 3e 3f b5 bd
       0.03209831 0.07516511 0.045614753 -0.08849953
0001f0 c5 72 22 3e 71 94 51 bd 17 f0 8f be c7 d6 90 3d
       0.15864094 -0.051166955 -0.28112862 0.070722155
000200 99 77 ee bd 7b 43 cc bd d7 2c 8a 3d 15 e9 3b bd
       -0.11643905 -0.099738084 0.06746834 -0.04587658
000210 d9 6e ab bd e5 e3 d7 3c 12 a9 b5 3b 4d aa 19 bd
       -0.08370752 0.026353786 0.0055438364 -0.037515927
000220 ea a7 d5 3d bb 70 8b bd 9d 71 a2 bd 5d 17 c1 3c
       0.10432418 -0.06808611 -0.07931826 0.02357071
000230 8f 57 a7 3c 8a d4 e4 bd 2e a1 9d bd 0b 5d 2a be
       0.020427493 -0.11173351 -0.07696758 -0.16637056
000240 37 49 2b 3e 23 36 0d bd 39 36 b4 bd 6e 30 7d be
       0.16727148 -0.034475457 -0.08799405 -0.24725506
000250 2b 1b 2a be 49 b9 ee bd 1d 25 ad 3d 12 6f 47 3d
       -0.16611926 -0.11656434 0.084543444 0.04868991
000260 4a 12 25 3d 73 d4 ec 3b 89 16 c7 bc 23 cf 01 3e
       0.040300645 0.0072274744 -0.024302738 0.12676673
000270 c4 b3 e0 3d 8c b8 86 3d 70 73 a2 bd 9a 2e a8 3d
       0.109717876 0.06578168 -0.07932174 0.082120135
000280 1b e3 9d bd 51 61 7c 3e 80 fe 17 ba d0 8c d6 bd
       -0.077093326 0.24646498 -0.00057981163 -0.104760766
000290 3f 36 97 3d 8c 78 8e 3b e2 95 b8 3d 59 c3 01 be
       0.073833935 0.0043478664 0.09012963 -0.12672175
0002a0 0f ae fc 3d 84 59 28 3e 00 90 02 3c f7 c8 07 bd
       0.123378865 0.16440398 0.007968903 -0.03315064
0002b0 a6 21 3c 3e 5c 89 29 3c 46 94 9c 3d f2 2b 83 3c
       0.18372211 0.01034769 0.076454684 0.016012166
0002c0 2a 9f 3a be bf 4a 38 3d 57 44 89 bd cf ca c7 3d
       -0.18224779 0.04499316 -0.06702488 0.097554795
0002d0 f9 a4 3f bd 4a 90 75 3e 76 6a 4d 3d e1 d0 c6 bd
       -0.04678819 0.23980823 0.050150357 -0.09707809
0002e0 e7 c9 f1 bd 28 f2 92 3d f9 4d 4c bd 64 05 fe bd
       -0.11806088 0.07175094 -0.049879048 -0.12403372
0002f0 af c4 f0 3d fb 49 0f be 78 27 02 be a9 03 39 3e
       0.117562644 -0.13993065 -0.12710369 0.18067802
000300 0e ac 95 bc 51 ec 47 3e 64 59 e5 3b e7 04 c0 bc
       -0.018270519 0.19523741 0.0069991816 -0.023439838
000310 99 c2 31 be 3a 22 e9 bb 96 fb 11 be a9 8c d6 bd
       -0.1735939 -0.007114676 -0.14256129 -0.104760475
000320 da 90 7a 3d 32 20 d1 3d b3 a6 a8 bd 82 a7 b3 bd
       0.061173297 0.10211219 -0.0823492 -0.08772184
000330 8c ca 2b 3e c6 9a 36 bd 15 e8 0c bd 74 11 ee bd
       0.16776484 -0.044581197 -0.03440102 -0.11624423
000340 40 ab 03 be b0 08 c0 3d 0e 65 85 3d a1 1a 49 be
       -0.12858295 0.09376657 0.06513415 -0.19639064
000350 26 92 91 3c 71 19 a6 3d 4f 84 1f 3e 7e 60 7f 3d
       0.017769884 0.08110321 0.15577815 0.06234788
000360 9b c4 74 3d 10 9a ac b9 55 30 fb 3d e6 18 14 3e
       0.05975781 -0.00032921182 0.12265078 0.14462623
000370 17 72 7a 3d 5c c7 64 bd 9f d2 02 bc b0 14 2c be
       0.06114396 -0.055854186 -0.007984786 -0.16804767
000380 db eb 10 3e 74 20 7b 3d b1 ef 06 3d 39 30 f4 bd
       0.14152472 0.061310247 0.03294343 -0.1192326
000390 9e b7 2c 3e 2d a0 8f bd 84 ea ae 3b a6 b2 08 be
       0.1686692 -0.07012973 0.005338015 -0.13349399
0003a0 7b 8b a6 3c c2 0d 38 3e fb 29 a0 3d 78 0f 98 bd
       0.020330181 0.17973998 0.07820507 -0.074248254
0003b0 ec 50 e2 3d 93 c2 8a 3b b3 f3 f3 3c 74 1b b8 3d
       0.11050591 0.004234621 0.02977929 0.08989611
0003c0 eb fe 57 bd de 84 59 be 6f 02 93 bd 40 8d f6 bd
       -0.052733343 -0.21242091 -0.071781985 -0.1203866
0003d0 60 54 2b 3d 66 6a 02 be eb b7 4b 3e 55 d0 a5 3d
       0.041828513 -0.127359 0.19894378 0.08096377
0003e0 a0 f5 93 3d 1f 05 8f bc 87 5f ec 3d fc 24 84 bd
       0.072245836 -0.017458497 0.11541658 -0.06452367
0003f0 3e 58 cd bd 52 4a 04 be f3 ae bf bc 06 93 80 bc
       -0.100265965 -0.12918976 -0.023398852 -0.015695106

fc3.bias f4 [10]
000000 c2 f3 f0 bd 37 55 bf bc 41 42 d5 bc 82 f5 3c 3d
       -0.11765243 -0.023356063 -0.026032569 0.046132572
000010 b1 f1 b6 3d 63 81 76 3d e6 fa 68 bd 72 8a c9 bc
       0.08932818 0.060181987 -0.0568799 -0.024602149
000020 01 4e 04 bc 5e 73 00 3c
       -0.008075238 0.007840006
