PyCharmWorkshop/AI/Projects/Project3/checkpoints/YourNet/epoch-best.pth (torch, 8919 bytes, 6 tensors)

conv1.weight f4 [3, 1, 3, 3]
0.10994006 -0.3953726 -0.3107522 -0.5766766 -0.2764972 0.39405346 -0.52856666 0.3221062
0.24793406 0.015712734 0.08262832 0.23289965 0.30085465 0.11492916 0.1660478 -0.54772276
-0.24942619 -0.45775515 0.33535123 0.09377311 -0.64839613 0.02297155 0.24308898 0.21374552
0.10092289 0.07387305 0.18301895
00000000: 4128 e13d 476e cabe ea1a 9fbe 14a1 13bf
00000010: 0a91 8dbe 60c1 c93e 2550 07bf 1beb a43e
00000020: 6de2 7d3e feb7 803c 0939 a93d 3f7d 6e3e
00000030: 9f09 9a3e fb5f eb3d 6f08 2a3e 8f37 0cbf
00000040: 9469 7fbe e25e eabe 28b3 ab3e 1e0c c03d
00000050: 4afd 25bf d52e bc3c 51ec 783e 1be0 5a3e
00000060: a9b0 ce3d c14a 973d 5269 3b3e

conv1.bias f4 [3]
-0.6889276 -0.29078144 -0.37493038
00000000: 8f5d 30bf 4ee1 94be e0f6 bfbe

conv2.weight f4 [6, 3, 3, 3]
-0.20759825 -0.23053896 -0.048524898 0.063182406 -0.41043118 -0.7202713 0.5377549 0.18328932
-0.6485366 0.31899038 -0.9381621 -0.5961315 0.24001543 -0.02257754 -0.94694203 0.07850335
0.090131134 -0.8016123 0.36790738 0.10077945 -1.4768603 0.044132803 0.49046183 0.45801675
-0.1079005 -0.0070986645 0.52162683 0.1296612 0.2397242 0.07061473 -0.7804486 -0.03738696
0.08190995 -0.64924884 -0.74359953 -0.47542438 0.18563929 -0.3501244 0.20515697 -0.011516639
-0.000727925 -0.8227156 -0.037171658 -0.008188188 -0.23311207 -0.43936825 0.07119889 0.28257692
-1.1609043 -0.15236293 0.42457578 -1.2145836 0.1933617 0.8845014 -0.78944707 -1.2828517
-0.6250692 -1.1789036 0.26741093 0.124195956 0.7154518 -0.20819193 0.058873117 0.11253669
0.19720705 -0.0048947 -0.21728563 0.23780708 0.661675 -0.6675909 -0.6119737 -0.24645162
0.5133001 0.38342103 0.35423416 -0.5366859 -0.022068666 -0.15873542 0.17143132 -0.5289955
-0.4044877 -0.77484846 0.21430671 0.65568197 -0.21080743 0.2632169 0.46933678 0.01004785
0.36563212 0.14315026 -0.20986925 -0.3165592 -0.5731866 -0.14767034 -1.1812878 -1.8090873
-0.011826715 -1.2894497 -1.1221762 0.53339094 -0.04329064 0.0031993513 0.1320503 -0.7475905
0.10235308 -0.2927785 0.008276217 -0.18440819 0.026408376 0.35861695 0.12255862 -0.98819435
-0.29514718 -0.7243508 -0.6746635 -0.023287348 -0.31261998 0.019178197 -0.2673236 0.21614884
-0.15544254 0.04253625 0.67579895 -0.5934195 0.2616614 0.04522972 -0.42693612 0.32611245
0.19356133 -0.31268233 0.38256592 -0.260954 -3.0308516 -1.1687838 -0.62425405 0.28363854
0.3968722 0.419239 -0.5773419 0.69329756 -0.02814352 -0.84723145 -1.6957467 -0.72580147
0.32703537 -0.32974675 -0.27304906 0.33195627 -0.1698298 0.012362555 0.5707917 0.396024
0.2030875 -0.0034957635 0.011181342 0.21242522 0.00027786798 0.08591507 -0.2916181 0.022754712
-0.1405342 -0.47703463
00000000: a394 54be 6812 6cbe 0bc2 46bd c765 813d
00000010: 0924 d2be b363 38bf 4eaa 093f 32b0 3b3e
00000020: 7f06 26bf b552 a33e 642b 70bf 139c 18bf
00000030: 9bc6 753e 88f4 b8bc cb6a 72bf 5dc6 a03d
00000040: ac96 b83d 7736 4dbf 5b5e bc3e 7565 ce3d
00000050: c209 bdbf 99c4 343d d01d fb3e 2c81 ea3e
00000060: f0fa dcbd ea9b e8bb 5689 053f e8c5 043e
00000070: 437a 753e 759e 903d 7bcb 47bf 1223 19bd
00000080: 67c0 a73d 2c35 26bf 8a5c 3ebf d36a f3be
00000090: 3a18 3e3e 8143 b3be ab14 523e 49b0 3cbc
000000a0: 38d2 3eba 7d9d 52bf 4f41 18bd c027 06bc
000000b0: eeb4 6ebe e0f4 e0be b9d0 913d ecad 903e
000000c0: 8398 94bf 0705 1cbe ff61 d93e 7a77 9bbf
000000d0: 9c00 463e af6e 623f 3419 4abf 7c34 a4bf
000000e0: 8904 20bf 50e6 96bf 16ea 883e 735a fe3d
000000f0: d927 373f 4430 55be f024 713d a379 e63d
00000100: a5f0 493e b863 a0bb 2080 5ebe b383 733e
00000110: 8863 293f 3de7 2abf 4faa 1cbf d05d 7cbe
00000120: a367 033f c34f c43e 2e5e b53e 3f64 09bf
00000130: 59c9 b4bc 8a8b 22be b18b 2f3e 406c 07bf
00000140: 0319 cfbe 785c 46bf 3873 5b3e c6da 273f
00000150: e7dd 57be 5ec4 863e e94c f03e bd9f 243c
00000160: 2234 bb3e fb95 123e f7e7 56be 0c14 a2be
00000170: 5bbc 12bf e536 17be 7034 97bf 2c90 e7bf
00000180: d7c4 41bc b00c a5bf 78a3 8fbf 4f8c 083f
00000190: 8751 31bd 35ac 513b 3238 073e 1762 3fbf
000001a0: 7e9e d13d 10e7 95be f898 073c 80d5 3cbe
000001b0: 6156 d83c a49c b73e 0400 fb3d 4efa 7cbf
000001c0: 881d 97be 0e6f 39bf bfb6 2cbf 1cc5 bebc
000001d0: ba0f a0be 981b 9d3c a4de 88be 1f56 5d3e
000001e0: 542c 1fbe 7e3a 2e3d 2901 2d3f 57ea 17bf
000001f0: 7cf8 853e cd42 393d 5f97 dabe 36f8 a63e
00000200: f134 463e e617 a0be aedf c33e c39b 85be
00000210: 79f9 41c0 b59a 95bf 1dcf 1fbf 1239 913e
00000220: d532 cb3e 7fa6 d63e aecc 13bf f37b 313f
00000230: 3d8d e6bc 29e4 58bf 3a0e d9bf 20ce 39bf
00000240: 2e71 a73e 91d4 a8be 16cd 8bbe 2cf6 a93e
00000250: dde7 2dbe 508c 4a3c 681f 123f a8c3 ca3e
00000260: 2bf6 4f3e 2e19 65bb f331 373c ff85 593e
00000270: cfae 9139 3df4 af3d f84e 95be 1768 ba3c
00000280: 33e8 0fbe e23d f4be

conv2.bias f4 [6]
-0.85383904 -0.10032813 -0.68329775 0.035258353 0.44629756 -0.047124956
00000000: 3295 5abf d678 cdbd 9aec 2ebf 106b 103d
00000010: 1d81 e43e 1906 41bd

fc1.weight f4 [10, 150]
-0.28671423 0.18507777 0.022292236 -0.093393356 0.29969963 0.6462383 -0.19141828 0.5241279
0.59004265 0.54805326 -0.57011926 -0.5494889 -0.26291704 -0.07435847 0.16618733 0.010167383
0.17095888 0.2987155 -0.597436 -0.62375486 -0.091930754 0.27400988 0.6925244 -1.4134891
-1.0323288 -0.60693294 -0.16221848 -0.26029512 -0.6540221 0.7662337 0.10946747 -0.7210598
-0.97575945 0.050430182 0.8041859 -0.09753413 -0.21367268 0.00076602557 0.4876236 0.8378131
0.24098635 0.020163264 0.096866794 -0.026127897 0.461083 0.2091569 0.6950234 0.7775239
-2.8642948 -3.254154 -0.27912655 -0.9203817 -0.69603866 -0.12462329 0.29161254 -0.7410152
0.21617292 0.014493229 -0.049031876 -0.011222292 -1.3274403 -0.40432006 -0.11909032 0.060365934
0.11790629 0.5894027 -0.7799266 -0.9573401 -1.0743113 -0.385611 0.26489106 -0.16593885
0.17872426 -0.005185711 -0.5442224 -0.06672516 -0.22799669 -0.1581653 -0.16777238 -1.339814
-0.08519315 -0.04059169 0.012418199 -1.3620378 -0.26632327 0.6018815 0.26588494 -1.3788298
0.62439847 0.69062644 0.14625041 0.15737209 0.7266005 0.2867671 -0.0018873403 -0.30841708
-1.6081166 0.2911875 -0.3468996 0.86425614 0.12517011 -0.65636665 0.22343808 -0.028911047
-0.046976335 -1.0394945 -1.1879802 -1.0383136 0.3867207 0.13644077 -0.77202547 -2.784121
-0.46152192 1.041197 -0.57610315 -0.4572374 -1.0162685 0.06975566 1.1021339 -0.21048981
-0.20207322 -0.1817063 0.30391666 0.05260461 0.08625746 0.008854854 -1.0364846 -0.026392529
-0.50142574 -0.9379835 -0.24281237 -0.08910263 -0.17319797 -0.14385737 -1.2161475 -0.67813784
-0.6872304 -0.49533564 -1.4258053 -0.031893425 -0.29019865 -0.3676322 0.06320742 0.21029429
0.7382997 -0.13599105 0.4710389 0.54154485 0.45443484 0.27847824 1.6203393 -0.06115741
-0.0881881 0.00175085 -0.22227915 -0.31604865 -0.25905967 -0.13756928 -0.5868745 -0.5615307
-1.1581173 -2.134135 -0.41216862 -0.08895726 -0.1662801 -0.65787464 0.28337622 -0.94924325
-0.45896453 -0.9352354 -0.29112437 -0.8173211 -0.3723454 0.42662653 1.1145778 -0.06482213
0.9604921 0.80935526 0.81586015 -0.08390363 0.72598976 0.084337115 0.13544525 0.15897168
-0.59556866 -0.51620317 -0.559912 -0.31274346 -0.10324149 -0.5646574 -1.1311723 -0.53866386
0.8978272 0.6546533 0.63037854 -0.8647874 -0.42768732 0.2981589 0.032933492 -0.80278975
0.024940347 -0.47552797 -0.4025823 -0.91298985 -0.69869554 0.3266439 -0.3222569 -0.503208
-0.88546056 -0.13091475 -0.2440068 -0.15331414 -0.72501737 -0.96389794 -0.07124652 -0.013039671
-1.4274157 -1.2320517 -1.6364317 -0.51846564 -0.34242246 -0.24321963 -0.25619856 -0.044627942
1.2705449 -1.5494647 0.49769822 0.5112637 1.086387 0.40880153 -1.3624763 -0.5002696
0.5044458 1.1983734 0.09435451 -0.83300775 0.21230713 0.06752193 -0.37773922 0.03190397
-0.22634745 0.010370866 0.11481421 0.511163 0.271155 0.39572805 0.26733917 -0.03542543
0.13826287 -1.4613047 -0.10286704 -0.17030457 0.15703662 0.66654843 0.6353715 0.12439776
00000000: 35cc 92be 0785 3d3e 359e b63c 0445 bfbd
00000010: 3b72 993e e06f 253f 2703 44be 3f2d 063f
00000020: 090d 173f 384d 0c3f 56f3 11bf 4eab 0cbf
00000030: 109d 86be 4149 98bd 032d 2a3e 1895 263c
00000040: d80f 2f3e 3df1 983e 91f1 18bf 66ae 1fbf
00000050: 3146 bcbd 064b 8c3e 4749 313f 36ed b4bf
00000060: 5a23 84bf f55f 1bbf 9a1c 26be 6745 85be
00000070: fe6d 27bf e427 443f 7b30 e03d 6097 38bf
00000080: 5fcb 79bf e18f 4e3d 21df 4d3f f9bf c7bd
00000090: 03cd 5abe 1bcf 483a cda9 f93e eb7a 563f
000000a0: 20c5 763e 6e2d a53c 1962 c63d 2c0a d6bc
000000b0: 1213 ec3e 3a2d 563e 0eed 313f ce0b 473f
000000c0: 9b50 37c0 0f44 50c0 ade9 8ebe 239e 6bbf
000000d0: 972f 32bf 7f3a ffbd 3d4e 953e 2cb3 3dbf
000000e0: 6f5c 5d3e 0275 6d3c a6d5 48bd b4dd 37bc
000000f0: 90e9 a9bf 0a03 cfbe a0e5 f3bd 4542 773d
00000100: da78 f13d 18e3 163f 45a9 47bf 3e14 75bf
00000110: 0883 89bf ce6e c5be cd9f 873e e0eb 29be
00000120: 7e03 373e e6ec a9bb 2952 0bbf 33a7 88bd
00000130: f777 69be 16f6 21be 86cc 2bbe 067f abbf
00000140: bf79 aebd 7943 26bd b475 4b3c 4157 aebf
00000150: 865b 88be e814 1a3f 1222 883e 7f7d b0bf
00000160: 94d8 1f3f e5cc 303f abc2 153e 2626 213e
00000170: 7e02 3a3f 23d3 923e a260 f7ba d8e8 9dbe
00000180: c4d6 cdbf 8716 953e d39c b1be e43f 5d3f
00000190: 982c 003e a507 28bf f4cc 643e dcd6 ecbc
000001a0: 426a 40bd 280e 85bf bc0f 98bf 76e7 84bf
000001b0: 4100 c63e 21b7 0b3e 76a3 45bf 0a2f 32c0
000001c0: 9a4c ecbe f145 853f 7f7b 13bf 051b eabe
000001d0: 1615 82bf 0edc 8e3d b912 8d3f a48a 57be
000001e0: 48ec 4ebe 3711 3abe f79a 9b3e ee77 573d
000001f0: c0a7 b03d f313 113c 87ab 84bf 2535 d8bc
00000200: 705d 00bf b01f 70bf cea3 78be 717b b6bd
00000210: cf5a 31be 594f 13be b9aa 9bbf 719a 2dbf
00000220: 55ee 2fbf a29c fdbe ca80 b6bf aea2 02bd
00000230: eb94 94be 4a3a bcbe e472 813d 6357 573e
00000240: 3601 3d3f 3d41 0bbe 032c f13e afa2 0a3f
00000250: afab e83e b394 8e3e 4767 cf3f 3180 7abd
00000260: f69b b4bd c77c e53a 259d 63be 21d1 a1be
00000270: 78a3 84be f6de 0cbe 683d 16bf 7ac0 0fbf
00000280: 303d 94bf ab95 08c0 c407 d3be 392f b6bd
00000290: 5545 2abe 796a 28bf b016 913e 9b01 73bf
000002a0: 66fd eabe 966b 6fbf 410e 95be f53b 51bf
000002b0: 0ea4 bebe cb6e da3e 7caa 8e3f 77c1 84bd
000002c0: cfe2 753f e831 4f3f 36dc 503f abd5 abbd
000002d0: 77da 393f f0b8 ac3d 29b2 0a3e 79c9 223e
000002e0: 3077 18bf e425 04bf 6556 0fbf e91f a0be
000002f0: 4670 d3bd 638d 10bf 41ca 90bf e0e5 09bf
00000300: 01d8 653f 5c97 273f 7d60 213f b562 5dbf
00000310: d5f9 dabe 49a8 983e 45e5 063d a183 4dbf
00000320: b34f cc3c 6778 f3be 441f cebe b4b9 69bf
00000330: b6dd 32bf df3d a73e dbfe a4be 3dd2 00bf
00000340: 8bad 62bf 840e 06be ebdc 79be 62fe 1cbe
00000350: bd9a 39bf 04c2 76bf b2e9 91bd 58a4 55bc
00000360: 8fb5 b6bf dfb3 9dbf 9876 d1bf 2aba 04bf
00000370: ff51 afbe 910e 79be 752c 83be cacb 36bd
00000380: 37a1 a23f dc54 c6bf 4dd2 fe3e 2ee2 023f
00000390: bb0e 8b3f 6f4e d13e a065 aebf ab11 00bf
000003a0: 5c23 013f 4d64 993f f03c c13d ff3f 55bf
000003b0: 0a67 593e f048 8a3d 0967 c1be bdad 023d
000003c0: a0c7 67be 91ea 293c b623 eb3d 94db 023f
000003d0: d4d4 8a3e de9c ca3e aee0 883e 411a 11bd
000003e0: c894 0d3e 080c bbbf f4ab d2bd 5264 2ebe
000003f0: 35ce 203e eba2 2a3f b5a7 223f 41c4 fe3d

fc1.bias f4 [10]
0.29889542 0.8412535 -0.70446813 -0.1593698 -0.21088678 -0.6283873 -0.45420882 0.85458547
0.20501348 0.15313919
00000000: d208 993e 645c 573f 0658 34bf d631 23be
00000010: b4f2 57be fddd 20bf 0f8e e8be 1dc6 5a3f
00000020: 0eef 513e 85d0 1c3e
