PyCharmWorkshop/AI/Projects/Project3/checkpoints/YourNet/epoch-best.pth (torch, 14487 bytes, 6 tensors)

conv1.weight f4 [6, 1, 3, 3]
000000 b9 05 10 bf 5d 70 92 be 70 ca 2f 3e 41 f1 7e bc
       -0.5625873 -0.2860135 0.17167068 -0.015560449
000010 c6 03 0c 3f 2f 72 41 3e a0 3d 4a 3e 28 20 a1 3d
       0.5469326 0.18891214 0.1975007 0.078674614
000020 89 4b 7d be 3d b6 f6 3d ad 0d 7a 3e 27 37 2a 3e
       -0.24735846 0.12046478 0.2441928 0.16622601
000030 db 01 b0 bd 81 0a 1d 3e 51 e5 c0 3e 7a f2 9c be
       -0.08594104 0.15336038 0.37674955 -0.30653745
000040 8a cd 0e bf 1f 4e 5e be 4c e6 2a bf 12 ac b9 be
       -0.5578238 -0.21709488 -0.66757655 -0.36264092
000050 8a e9 a6 3d 2d 2e ef be 9e 3f 67 3d 38 96 d9 3e
       0.08150013 -0.46714917 0.056457154 0.4249742
000060 9c f0 c8 be a8 bd 85 be b5 6a 57 3e bf bb 10 3e
       -0.3924607 -0.2612126 0.21036799 0.1413412
000070 74 9d b1 3e 96 9a 8e bc 3b dc a2 3e b0 8b f2 3d
       0.3469044 -0.017407697 0.31808648 0.118430495
000080 a7 5c e8 be e4 8e 31 be 62 7f e7 be 8b 15 a7 be
       -0.45383188 -0.17339665 -0.45214373 -0.32633623
000090 8b 1c 68 3d 9b 49 4e be 34 95 e7 bd 2b 86 6a 3e
       0.056667846 -0.20145266 -0.11307755 0.22902744
0000a0 da d7 b3 3d 3a 15 1c bf 8c 54 47 3e 63 3e 98 3e
       0.08781405 -0.6096989 0.19465846 0.29735097
0000b0 dc 47 a6 3d 61 ae 26 bf 5c b5 ba 3e db 60 90 3e
       0.08119175 -0.6510983 0.3646649 0.28198895
0000c0 ad 33 ec be 8e 4b bf be ff b5 09 bf 5e f2 27 3e
       -0.46133175 -0.3736233 -0.5379333 0.1640105
0000d0 9e 53 33 be 43 69 a4 3c
       -0.17512366 0.020069724

conv1.bias f4 [6]
000000 c1 00 95 bf c0 08 08 bf 15 ea 4d bf e1 b5 1d bf
       -1.1640855 -0.5313835 -0.80435306 -0.6160565
000010 f1 4d b1 be a7 4a 27 bf
       -0.34629777 -0.65348285

conv2.weight f4 [10, 6, 3, 3]
000000 cb dd 5b bf 02 8f 13 bf f4 8b de 3e 75 00 0d 3f
       -0.85885304 -0.5764009 0.4346615 0.5507882
000010 3b 97 6a bf cf 8a ef be fe 7a f7 3b cb 70 8a 3d
       -0.9163701 -0.4678559 0.0075525036 0.06759795
000020 11 48 ae be f3 53 3f 3e fd 4a 0e be 6d 99 c1 bc
       -0.34039357 0.18684368 -0.13895793 -0.02363273
000030 aa 10 20 bf c8 61 80 be b7 a1 38 3e 22 d3 92 3d
       -0.6252543 -0.250746 0.1803044 0.07169177
000040 52 e7 9e 3d b9 c5 92 bb 55 d5 1b bf 56 f9 05 3e
       0.077589646 -0.004479137 -0.60872394 0.13083395
000050 87 46 3b 3f d3 c0 90 bf 56 d8 96 bf d7 76 4a bf
       0.7315449 -1.1308845 -1.178477 -0.79087585
000060 42 9d 87 3e be 87 d5 3e aa e1 24 bd 4c d0 31 bd
       0.26487166 0.41705126 -0.040254273 -0.043411538
000070 96 35 bc be 20 30 14 3f 93 82 a2 bf 41 0c 0b c0
       -0.36759633 0.5788593 -1.2696098 -2.172623
000080 7e 6b bf be c2 28 6c be e0 cd 04 bf 1e e4 a3 bf
       -0.37386698 -0.23062423 -0.5187664 -1.2803991
000090 6a 19 b1 bf 1f 55 96 bf 97 e3 b8 bf cd 5c 96 3e
       -1.3835881 -1.1744727 -1.4444455 0.29367676
0000a0 c8 4b 4b 3f 30 db 10 bf 07 67 11 3f 46 ef b0 3e
       0.7941251 -0.56584454 0.5679783 0.3455755
0000b0 d0 df ef 3e 6e 34 a8 3e e6 7b 5c be 54 e3 d0 3e
       0.46850443 0.328525 -0.21531639 0.40798438
0000c0 cf 52 cf 3e 34 5e fd 3d 6c bd b9 3e 44 8d fc be
       0.40492865 0.123714834 0.3627733 -0.49326527
0000d0 16 76 f7 be 3b e2 0b bf 6c 52 4e be 50 19 04 be
       -0.4833228 -0.54642075 -0.20148629 -0.12900281
0000e0 bc 72 c8 be ec c9 19 bd eb 32 23 be 39 5c 2a 3f
       -0.39150035 -0.037546083 -0.15937392 0.6654697
0000f0 fa df ab 3e b2 71 ba 3e bf 45 d5 bd 0d 04 b0 3e
       0.33569318 0.36414868 -0.10413694 0.3437809
000100 8c 86 46 3f f5 57 f3 3c f3 ee 6f be 96 57 bf bd
       0.7754905 0.029705027 -0.23430996 -0.093428776
000110 b2 0b 25 bf 94 46 15 be 69 20 45 be 23 bd 62 be
       -0.6447097 -0.14577705 -0.19250645 -0.22142462
000120 83 31 28 bd d0 fa ad be af fe 60 3f 46 f0 02 bf
       -0.041062843 -0.33980417 0.87888616 -0.5114788
000130 f3 58 71 be 67 bf a9 bd 92 3d 84 3d 94 b6 63 be
       -0.23569088 -0.0828846 0.06457056 -0.22237617
000140 e1 51 78 bf 23 bb 56 be 96 62 d9 be 11 92 87 bf
       -0.9699994 -0.20969824 -0.42458028 -1.0591451
000150 00 04 89 bd 44 28 44 bf 3b 3a 56 3e bf 9f 09 bf
       -0.06690216 -0.7662394 0.2092065 -0.5375938
000160 85 1f a3 3e d0 0a 2f 3f 8d 40 91 be 3b 12 22 bd
       0.31859985 0.68375874 -0.2836956 -0.039568167
000170 06 56 19 3f 3d a0 52 3e 95 de f9 be c0 0d ea be
       0.59896886 0.20568939 -0.4880263 -0.45713615
000180 f6 66 a1 3c 5b 67 02 bf f5 fb 66 3d e8 db 66 be
       0.019702416 -0.5093896 0.05639263 -0.22544825
000190 9f 6b c8 3e 9f 1b bf be 33 6f 51 3e 12 3c dd 3e
       0.39144608 -0.3732576 0.20452575 0.43209893
0001a0 64 c1 c8 bf c0 52 61 bf 08 ae eb bf 54 5d 84 bf
       -1.5684018 -0.8801689 -1.8412485 -1.0340981
0001b0 1f cd 99 3e d2 f0 67 3e 35 af 15 bc b8 b4 01 be
       0.30039307 0.2265046 -0.009136011 -0.12666595
0001c0 b0 5f 8c bc a0 d3 86 3e 29 9c 9c be 90 80 a3 3e
       -0.017135471 0.26333332 -0.3058789 0.31934023
0001d0 ad 33 f7 3e 85 b6 92 bf 21 c2 93 3e 60 13 56 be
       0.48281613 -1.146195 0.28859046 -0.20905828
0001e0 54 c7 9f 3c ae 3a 93 3e fc ef 00 be 72 e8 6a 3e
       0.019504227 0.28755707 -0.12591547 0.22940233
0001f0 00 53 2f 3f d1 4f ba 3e ed b3 2c 3e ce d4 26 bf
       0.6848602 0.3638902 0.16865511 -0.65168464
000200 87 f7 2c be 9e 31 0e 3e f8 36 b5 bf 73 e6 94 be
       -0.16891299 0.13886115 -1.41574 -0.2908207
000210 27 18 82 be bf 30 4e bf 26 3f 81 3d 51 7c 6e 3d
       -0.25409052 -0.8054313 0.06310873 0.058224026
000220 e4 8e f7 3e 55 23 1b be 90 97 ae be b3 9c a1 be
       0.48351204 -0.15150197 -0.34100008 -0.31564865
000230 be 26 99 bd ce f9 04 be e3 bf 7f 3e 54 84 91 bc
       -0.074780926 -0.12985918 0.24975543 -0.017763294
000240 6d e4 f0 3d 1e 26 84 3d 4a 5e 48 3e ae 4f 19 3f
       0.11762319 0.06452583 0.19567218 0.59887207
000250 c8 94 87 3d a9 4f 62 bd 49 62 1d bf 13 1f 1e bf
       0.06620175 -0.05525175 -0.61478096 -0.61766165
000260 a2 62 51 be ff 60 73 bf 99 9a de be a3 da 6a bf
       -0.20447782 -0.9506988 -0.43477324 -0.91739863
000270 bf c5 76 bf 67 cb 1f bf 12 fa 48 3e 46 0f 21 bf
       -0.96395487 -0.6241974 0.19626644 -0.6291393
000280 64 8f 56 be 03 70 16 bf 2d 34 77 bf e7 97 d2 bf
       -0.20953137 -0.58764666 -0.9656399 -1.6452607
000290 33 12 79 bf 41 0e 15 3e 4b 17 20 be fb 3d 18 bd
       -0.97293395 0.14556219 -0.15633886 -0.037168484
0002a0 63 96 5e 3d 12 c0 eb 3e 9f 82 f2 3e 10 6d a5 be
       0.05434264 0.46044976 0.4736528 -0.3230977
0002b0 59 83 11 bf 44 27 c5 be 1c b1 cc bf 33 45 48 bf
       -0.56841046 -0.3850652 -1.599155 -0.7823059
0002c0 46 5d 4d 3f 67 d5 24 be 76 7a 0e be d5 10 2e 3f
       0.8022045 -0.16097032 -0.13913903 0.67994434
0002d0 91 16 92 bf 26 58 ed bf 77 ec be bf 38 c4 a0 be
       -1.1413137 -1.8542526 -1.4915913 -0.31399703
0002e0 b6 25 94 bd aa e2 a7 be ab c2 31 3f ac 6c 96 bd
       -0.07233755 -0.32790118 0.69437665 -0.07344946
0002f0 66 9b 50 3d 56 70 08 3d ce dc c2 3e 85 2b 97 be
       0.05092945 0.033310257 0.38059086 -0.2952539
000300 52 54 f8 be 3a d9 0e bf 1f 2c d5 bf 67 98 1b be
       -0.4850183 -0.5580021 -1.665409 -0.15194856
000310 81 ce 93 3d 41 e2 19 be 8f 4c c5 be 4f 06 ba bf
       0.07217122 -0.15027715 -0.38534972 -1.4533175
000320 58 7f f4 be b0 06 5f bf c3 dd ae bd 6d cb 59 3f
       -0.47753406 -0.8711958 -0.085383914 0.8507603
000330 80 74 96 3d 2f f0 16 3d ea 75 b4 be 4f 5c c3 bd
       0.07346439 0.03685015 -0.3524621 -0.09539091
000340 24 15 63 3e bb 12 14 bc b2 a3 94 be 2f b2 8a bc
       0.22176033 -0.009037669 -0.2903114 -0.016930668
000350 6b b2 8a be 6d d5 2f bf e9 2e 96 bd 5f b8 19 3e
       -0.27089247 -0.68685037 -0.07333166 0.15011738
000360 07 cf d1 bf 15 16 f9 be f3 c7 87 3e be 9b 78 bf
       -1.6391305 -0.4864966 0.26519737 -0.97112644
000370 f6 24 08 be 9c 2a de be ac 99 3c 3e d6 37 4e 3e
       -0.1329535 -0.43391883 0.18417996 0.20138487
000380 d8 e6 5a be 27 ac 49 3e 27 a8 b5 3e 77 bf 75 bf
       -0.21377122 0.19694577 0.35479853 -0.9599528
000390 6c 41 ce 3e 55 c8 25 3e 19 b0 01 bf 43 8f b4 3e
       0.40284288 0.16189702 -0.5065933 0.3526555
0003a0 70 41 9c bd 5b 43 6c bd 51 2d 30 3f 48 a5 13 3e
       -0.07629669 -0.057681423 0.6881915 0.14418519
0003b0 26 4a c0 be cd 1b e4 bd ce a5 ae 3e 73 bb 75 3e
       -0.3755657 -0.11138115 0.34110874 0.23997287
0003c0 ab e8 a8 be a8 84 9b 3e a5 2a 30 bd ae 35 9c bf
       -0.32990012 0.30374646 -0.04300942 -1.2203882
0003d0 25 8e 9f bf 12 e9 31 bc 74 f2 1a bf 42 c9 fc bf
       -1.2465254 -0.010858791 -0.60526204 -1.9748919
0003e0 4f f0 2b bf 87 d7 0d bf 4c d1 41 be 32 95 07 bf
       -0.67163557 -0.55406994 -0.18927497 -0.5296203
0003f0 5a 11 81 bf 94 d1 16 be f0 79 40 3f 72 3b 70 bf
       -1.008342 -0.14728385 0.7518606 -0.93840706

conv2.bias f4 [10]
000000 c7 03 0a 3b e4 f7 23 bf ec 66 29 bf 3f 33 90 bc
       0.002105938 -0.64050126 -0.6617267 -0.017602561
000010 13 c0 b6 3c 77 46 6d bf aa df e6 be 77 a2 96 3d
       0.022308385 -0.92685646 -0.45092517 0.073552065
000020 f6 7d 49 be ad 0d e7 be
       -0.19676957 -0.4512762

fc1.weight f4 [10, 250]
000000 c6 89 8d 3e 3c 63 01 be b2 e3 99 bc cd 17 5a be
       0.27644175 -0.12635511 -0.018785331 -0.21298142
000010 b1 b5 d2 3e 25 ef b7 be 64 1b 0f bf 9d da 3c bf
       0.41154245 -0.3592464 -0.5590117 -0.7377108
000020 19 f3 dd 3d 84 ef 87 3e 2a ab 9b bf f1 aa 76 bf
       0.10837383 0.26549923 -1.216161 -0.96354586
000030 a6 03 5a bd 7b 5f 14 bf bc 88 37 bf b4 2e 2a bf
       -0.053226136 -0.5795819 -0.71693015 -0.66477513
000040 23 3d d8 be 9a e9 c5 3d 27 4a 6d 3f a9 e8 c8 bf
       -0.42234144 0.096636966 0.9269127 -1.5696002
000050 2d 93 b0 bf b5 d6 de 3e cf 30 ca 3e a5 06 6a 3e
       -1.3794914 0.43523183 0.39490363 0.22854097
000060 e0 5d 0f be d9 db 02 be 8e 53 56 3f 4c 7b e0 3d
       -0.14000654 -0.12779178 0.83721244 0.10961017
000070 bb 54 fc 3e a3 06 58 bf 50 2e a7 3b fc e8 48 bd
       0.49283394 -0.84385127 0.0051019564 -0.049050316
000080 f7 b3 e2 3c 97 93 46 bf 72 4a 7b bf 22 af ea 3d
       0.027673705 -0.77568954 -0.9816047 0.11459185
000090 e4 f3 76 3f 52 92 a8 bc 35 1c ce be c3 e7 13 3f
       0.964659 -0.020577583 -0.40255895 0.57775515
0000a0 a3 ea db be fe 0b c0 be b8 62 14 3f 78 4e 4f 3e
       -0.4295245 -0.3750915 0.5796313 0.20244777
0000b0 ca 99 cb 3e a3 d0 99 bf 23 37 5f bf 48 76 10 bb
       0.3976577 -1.2016796 -0.87193507 -0.0022043157
0000c0 2b a2 05 3f 96 f1 77 3e 19 77 cc 3e bd 7a 8a be
       0.52200574 0.24213251 0.39934614 -0.27046767
0000d0 42 dc 88 3a 0f 5a 43 3e 98 6d ea 3e 5e 96 2e bf
       0.0010441619 0.19077323 0.45786738 -0.6819819
0000e0 57 71 2a bf 3d 6d 3a be 48 7c a0 bd f5 64 0e bf
       -0.6657919 -0.18205734 -0.07836205 -0.556228
0000f0 d4 9f 69 bf f0 fa 98 bf fe ab 1f bf 0d 95 8f bf
       -0.91259503 -1.195158 -0.62371814 -1.1217362
000100 4a 09 3b bf 90 62 fc be 8e b8 63 bd 72 7c a4 be
       -0.7306105 -0.49293947 -0.055595927 -0.32126194
000110 2b 51 95 be 19 8f a0 be 74 b5 fd bd 26 3f 93 3c
       -0.2916349 -0.31359175 -0.12388125 0.017974447
000120 20 d0 50 3e 16 b9 15 3f 51 f1 e6 be 9a 4a 96 3e
       0.20391893 0.58485544 -0.45105985 0.2935379
000130 fc 58 9e be b6 8d 4d be 87 9a 7e be 2c ce ec 3e
       -0.30927265 -0.2007359 -0.24863635 0.46251047
000140 af d9 ee 3e 4f be 4f 3e e8 c1 d9 3e 36 fa 96 be
       0.46650454 0.2028744 0.4253075 -0.2948777
000150 00 5d 51 bf 7e 0a dc 3e bc 6c 23 be f0 6c 4f bf
       -0.8178253 0.42976755 -0.15959448 -0.810256
000160 da db 13 be e8 19 9c be 74 c0 06 c0 5d 1d d4 bf
       -0.14439335 -0.30488515 -2.1054964 -1.6571461
000170 c1 40 0a 3e 05 6c 06 3f 52 36 06 c0 0f c1 06 c0
       0.13501264 0.52508575 -2.0970654 -2.1055334
000180 c9 19 6e bf ae 9c d5 be c0 ce 4f 3e b0 71 01 3f
       -0.93008095 -0.417211 0.20293713 0.505641
000190 e0 2d 09 bf 1d e2 18 bd bb 44 1a be 80 0d 1c bf
       -0.53585625 -0.037325013 -0.15065281 -0.609581
0001a0 35 d8 44 3f f6 09 88 3e 9d 06 dd be 54 8d 01 bf
       0.76892406 0.265701 -0.43169108 -0.50606275
0001b0 9b b7 9c be 3b 4e 32 3e 09 c9 0b 3f 8d 8d c9 be
       -0.3060883 0.17412655 0.5460363 -0.39365807
0001c0 44 23 62 bf ca 0e 8b 3e a8 ac 56 3f a3 9c d6 bc
       -0.8833506 0.2715972 0.838572 -0.026197737
0001d0 e8 db 9d 3e d3 c0 56 3e 0b 5f 16 3e b7 7c d9 3e
       0.30831838 0.20971994 0.14684694 0.42477962
0001e0 89 cf bb 3e bc 25 80 3f 22 a3 86 3f d0 6a 31 be
       0.36681774 1.0011516 1.0518534 -0.17325902
0001f0 8d f4 f6 be 2f 19 80 bf 86 d1 15 be 10 56 4a 3e
       -0.48233452 -1.0007685 -0.14630708 0.19759393
000200 19 19 19 3f 99 49 e1 3e 50 8f 9d 3f d6 10 5c bf
       0.5980392 0.44001463 1.230936 -0.8596319
000210 6b 85 dd bc 8d 7b d0 3e 6d 8f 57 3e c6 b6 a8 3d
       -0.027041158 0.40719262 0.21050806 0.08237986
000220 a2 da 0f bf f6 7d b8 bd ad 17 3e be 9f 25 df be
       -0.5619298 -0.090084 -0.18563719 -0.4358339
000230 89 86 91 be f5 75 2b be 90 5b c5 bc 12 79 7a bf
       -0.28422955 -0.16744216 -0.024091512 -0.9784099
000240 b4 9b a7 bf c6 47 e7 3e c7 eb 0d 3f 97 98 c0 3e
       -1.3094392 0.45171946 0.5543789 0.37616417
000250 96 7f 59 bf 17 50 41 c0 af 3a 25 bd e7 e7 36 bf
       -0.84960306 -3.0205133 -0.04033917 -0.71447605
000260 a8 8c 34 bf 21 0a 47 bf e9 e9 57 bf 60 ef 40 bf
       -0.70527124 -0.7774983 -0.84341294 -0.7536526
000270 8c 36 bd be ca 6f 85 3d 63 36 48 be 0f e4 1c 3d
       -0.36955678 0.06515463 -0.19551997 0.03830343
000280 d5 02 ab be 04 e8 c2 3e 0e a3 3e 3f e7 32 0c be
       -0.33400598 0.3806764 0.7446755 -0.13691293
000290 ff 1b 4d be f8 1b 32 3e a1 e1 20 bf 1d b3 b1 3f
       -0.20030211 0.17393482 -0.6284428 1.3882786
0002a0 51 22 13 3f c4 f5 8c be d7 44 20 bf a5 66 2b 3f
       0.5747424 -0.27531254 -0.6260504 0.669535
0002b0 c0 67 60 bf 83 c7 bc bf 9a bb 08 bf 31 2b 85 be
       -0.8765831 -1.4748386 -0.5341126 -0.26009515
0002c0 9d d3 a3 3e b1 7e 04 bf b6 72 c9 be a9 33 75 bf
       0.31997386 -0.51755816 -0.3934533 -0.9578195
0002d0 e9 93 7f 3e fa f8 96 3e ba 90 0f be ee 63 8f bf
       0.24958767 0.2948683 -0.14020053 -1.1202371
0002e0 9a b2 9f bf b9 cc 6e 3f 94 d5 af 3e c1 74 67 bf
       -1.247638 0.9328113 0.34342635 -0.9041253
0002f0 f1 9c 2f 3f 7b d0 8d 3e 0a 61 bb 3e 5c 77 50 3e
       0.6859885 0.2769812 0.36597472 0.20358032
000300 de 12 60 3f 11 19 50 3f 34 04 ef 3e 2d 74 a9 3d
       0.8752879 0.8128825 0.46682894 0.08274112
000310 1d 35 89 bf b0 79 f2 bf 9b d6 6d bd f1 87 8e 3f
       -1.0719334 -1.8943386 -0.05806599 1.1135236
000320 d5 f5 34 3f d2 bb b0 3d 4b a4 24 be a6 18 d1 be
       0.7068761 0.08629574 -0.16078298 -0.40839118
000330 c8 0e 5f bf 1a 87 5f bf 7b cb 2a bf ac 57 14 bf
       -0.8713193 -0.87315524 -0.66716737 -0.57946277
000340 c9 ff bc be 3b 3c f8 bf 71 fb 24 bf 37 1c 20 3e
       -0.369139 -1.9393381 -0.6444617 0.15635763
000350 7c 40 31 be 35 0e 2c 3e 26 e2 af bf b3 fc 6e bf
       -0.17309755 0.16802295 -1.374089 -0.9335434
000360 6a 68 5d bf 3c c1 23 bf 44 6b ee be 09 c5 22 3f
       -0.8648745 -0.6396673 -0.46566212 0.635819
000370 0b 8e 6a bf b1 5c 13 bd 4a 91 f6 3e 3c 78 0f 3f
       -0.9162299 -0.03597707 0.48157722 0.5604284
000380 de 8e 03 3f 84 50 ef be c9 39 c7 bf 08 3c 92 be
       0.51389873 -0.46741116 -1.556451 -0.28561425
000390 e2 51 09 be b5 16 ab bd 2d 9a d9 be b0 6c 89 bf
       -0.13410142 -0.083539404 -0.4250044 -1.0736294
0003a0 05 f2 16 bd ce 2c 85 3e d5 55 21 3f c7 45 3f bf
       -0.0368519 0.26010746 0.63021594 -0.74715847
0003b0 b9 af ad bf e9 5d 8c be 32 7d 73 3f 92 a6 78 3f
       -1.3569251 -0.27415398 0.9511291 0.97129166
0003c0 3d 93 b5 be cb 3d 9e be 1a 1e ab be 87 c2 ae be
       -0.35463896 -0.3090652 -0.33421403 -0.34132788
0003d0 d6 a1 91 bf 88 8e 4f 3e 5b 4d cb 3d 51 a1 6f 3e
       -1.1377513 0.20269215 0.09926864 0.23401381
0003e0 5d b7 a2 3d 55 98 ae be 71 97 7f 3e ea a3 0c bf
       0.0794513 -0.34100595 0.24960114 -0.54937613
0003f0 57 94 d7 be a6 19 bd 3e d9 b5 fb bd b3 d5 57 bf
       -0.42105362 0.3693363 -0.12290544 -0.84310454

fc1.bias f4 [10]
000000 c7 a7 d9 3e c2 d5 b8 3f 7e 89 75 be e0 db 76 bf
       0.42510816 1.4440234 -0.2397823 -0.9642925
000010 4e 6d 0e 3e 18 ce fb be 51 78 bd be 0a f5 4d 3f
       0.13908884 -0.49180675 -0.37005857 0.80452025
000020 61 db 7d be 31 59 4e be
       -0.24790718 -0.20151211
